<?xml version="1.0" ?>
<net name="torch-jit-export" version="11">
	<layers>
		<layer id="0" name="images" type="Parameter" version="opset1">
			<data shape="1,3,640,640" element_type="f32"/>
			<rt_info>
				<attribute name="fused_names" version="0" value="images"/>
				<attribute name="old_api_map_element_type" version="0" value="f16"/>
			</rt_info>
			<output>
				<port id="0" precision="FP32" names="images">
					<dim>1</dim>
					<dim>3</dim>
					<dim>640</dim>
					<dim>640</dim>
				</port>
			</output>
		</layer>
		<layer id="1" name="Constant_16306" type="Const" version="opset1">
			<data element_type="i64" shape="3" offset="0" size="24"/>
			<rt_info>
				<attribute name="fused_names" version="0" value="onnx::Slice_899"/>
			</rt_info>
			<output>
				<port id="0" precision="I64">
					<dim>3</dim>
				</port>
			</output>
		</layer>
		<layer id="2" name="Constant_16309" type="Const" version="opset1">
			<data element_type="i64" shape="3" offset="24" size="24"/>
			<rt_info>
				<attribute name="fused_names" version="0" value="onnx::Slice_899"/>
			</rt_info>
			<output>
				<port id="0" precision="I64">
					<dim>3</dim>
				</port>
			</output>
		</layer>
		<layer id="3" name="Constant_16312" type="Const" version="opset1">
			<data element_type="i64" shape="3" offset="48" size="24"/>
			<rt_info>
				<attribute name="fused_names" version="0" value="onnx::Slice_899"/>
			</rt_info>
			<output>
				<port id="0" precision="I64">
					<dim>3</dim>
				</port>
			</output>
		</layer>
		<layer id="4" name="onnx::Slice_899" type="StridedSlice" version="opset1">
			<data begin_mask="1, 1, 0" end_mask="1, 1, 0" new_axis_mask="" shrink_axis_mask="" ellipsis_mask=""/>
			<rt_info>
				<attribute name="fused_names" version="0" value="onnx::Slice_899"/>
			</rt_info>
			<input>
				<port id="0" precision="FP32">
					<dim>1</dim>
					<dim>3</dim>
					<dim>640</dim>
					<dim>640</dim>
				</port>
				<port id="1" precision="I64">
					<dim>3</dim>
				</port>
				<port id="2" precision="I64">
					<dim>3</dim>
				</port>
				<port id="3" precision="I64">
					<dim>3</dim>
				</port>
			</input>
			<output>
				<port id="4" precision="FP32" names="onnx::Slice_899">
					<dim>1</dim>
					<dim>3</dim>
					<dim>320</dim>
					<dim>640</dim>
				</port>
			</output>
		</layer>
		<layer id="5" name="Constant_16318" type="Const" version="opset1">
			<data element_type="i64" shape="4" offset="72" size="32"/>
			<rt_info>
				<attribute name="fused_names" version="0" value="onnx::Concat_904"/>
			</rt_info>
			<output>
				<port id="0" precision="I64">
					<dim>4</dim>
				</port>
			</output>
		</layer>
		<layer id="6" name="Constant_16321" type="Const" version="opset1">
			<data element_type="i64" shape="4" offset="104" size="32"/>
			<rt_info>
				<attribute name="fused_names" version="0" value="onnx::Concat_904"/>
			</rt_info>
			<output>
				<port id="0" precision="I64">
					<dim>4</dim>
				</port>
			</output>
		</layer>
		<layer id="7" name="Constant_16324" type="Const" version="opset1">
			<data element_type="i64" shape="4" offset="136" size="32"/>
			<rt_info>
				<attribute name="fused_names" version="0" value="onnx::Concat_904"/>
			</rt_info>
			<output>
				<port id="0" precision="I64">
					<dim>4</dim>
				</port>
			</output>
		</layer>
		<layer id="8" name="onnx::Concat_904" type="StridedSlice" version="opset1">
			<data begin_mask="1, 1, 1, 0" end_mask="1, 1, 1, 0" new_axis_mask="" shrink_axis_mask="" ellipsis_mask=""/>
			<rt_info>
				<attribute name="fused_names" version="0" value="onnx::Concat_904"/>
			</rt_info>
			<input>
				<port id="0" precision="FP32">
					<dim>1</dim>
					<dim>3</dim>
					<dim>320</dim>
					<dim>640</dim>
				</port>
				<port id="1" precision="I64">
					<dim>4</dim>
				</port>
				<port id="2" precision="I64">
					<dim>4</dim>
				</port>
				<port id="3" precision="I64">
					<dim>4</dim>
				</port>
			</input>
			<output>
				<port id="4" precision="FP32" names="onnx::Concat_904">
					<dim>1</dim>
					<dim>3</dim>
					<dim>320</dim>
					<dim>320</dim>
				</port>
			</output>
		</layer>
		<layer id="9" name="Constant_16330" type="Const" version="opset1">
			<data element_type="i64" shape="3" offset="168" size="24"/>
			<rt_info>
				<attribute name="fused_names" version="0" value="onnx::Slice_919"/>
			</rt_info>
			<output>
				<port id="0" precision="I64">
					<dim>3</dim>
				</port>
			</output>
		</layer>
		<layer id="10" name="Constant_16333" type="Const" version="opset1">
			<data element_type="i64" shape="3" offset="24" size="24"/>
			<rt_info>
				<attribute name="fused_names" version="0" value="onnx::Slice_919"/>
			</rt_info>
			<output>
				<port id="0" precision="I64">
					<dim>3</dim>
				</port>
			</output>
		</layer>
		<layer id="11" name="Constant_16336" type="Const" version="opset1">
			<data element_type="i64" shape="3" offset="48" size="24"/>
			<rt_info>
				<attribute name="fused_names" version="0" value="onnx::Slice_919"/>
			</rt_info>
			<output>
				<port id="0" precision="I64">
					<dim>3</dim>
				</port>
			</output>
		</layer>
		<layer id="12" name="onnx::Slice_919" type="StridedSlice" version="opset1">
			<data begin_mask="1, 1, 0" end_mask="1, 1, 0" new_axis_mask="" shrink_axis_mask="" ellipsis_mask=""/>
			<rt_info>
				<attribute name="fused_names" version="0" value="onnx::Slice_919"/>
			</rt_info>
			<input>
				<port id="0" precision="FP32">
					<dim>1</dim>
					<dim>3</dim>
					<dim>640</dim>
					<dim>640</dim>
				</port>
				<port id="1" precision="I64">
					<dim>3</dim>
				</port>
				<port id="2" precision="I64">
					<dim>3</dim>
				</port>
				<port id="3" precision="I64">
					<dim>3</dim>
				</port>
			</input>
			<output>
				<port id="4" precision="FP32" names="onnx::Slice_919">
					<dim>1</dim>
					<dim>3</dim>
					<dim>320</dim>
					<dim>640</dim>
				</port>
			</output>
		</layer>
		<layer id="13" name="Constant_16342" type="Const" version="opset1">
			<data element_type="i64" shape="4" offset="72" size="32"/>
			<rt_info>
				<attribute name="fused_names" version="0" value="onnx::Concat_924"/>
			</rt_info>
			<output>
				<port id="0" precision="I64">
					<dim>4</dim>
				</port>
			</output>
		</layer>
		<layer id="14" name="Constant_16345" type="Const" version="opset1">
			<data element_type="i64" shape="4" offset="104" size="32"/>
			<rt_info>
				<attribute name="fused_names" version="0" value="onnx::Concat_924"/>
			</rt_info>
			<output>
				<port id="0" precision="I64">
					<dim>4</dim>
				</port>
			</output>
		</layer>
		<layer id="15" name="Constant_16348" type="Const" version="opset1">
			<data element_type="i64" shape="4" offset="136" size="32"/>
			<rt_info>
				<attribute name="fused_names" version="0" value="onnx::Concat_924"/>
			</rt_info>
			<output>
				<port id="0" precision="I64">
					<dim>4</dim>
				</port>
			</output>
		</layer>
		<layer id="16" name="onnx::Concat_924" type="StridedSlice" version="opset1">
			<data begin_mask="1, 1, 1, 0" end_mask="1, 1, 1, 0" new_axis_mask="" shrink_axis_mask="" ellipsis_mask=""/>
			<rt_info>
				<attribute name="fused_names" version="0" value="onnx::Concat_924"/>
			</rt_info>
			<input>
				<port id="0" precision="FP32">
					<dim>1</dim>
					<dim>3</dim>
					<dim>320</dim>
					<dim>640</dim>
				</port>
				<port id="1" precision="I64">
					<dim>4</dim>
				</port>
				<port id="2" precision="I64">
					<dim>4</dim>
				</port>
				<port id="3" precision="I64">
					<dim>4</dim>
				</port>
			</input>
			<output>
				<port id="4" precision="FP32" names="onnx::Concat_924">
					<dim>1</dim>
					<dim>3</dim>
					<dim>320</dim>
					<dim>320</dim>
				</port>
			</output>
		</layer>
		<layer id="17" name="Constant_16354" type="Const" version="opset1">
			<data element_type="i64" shape="3" offset="0" size="24"/>
			<rt_info>
				<attribute name="fused_names" version="0" value="onnx::Slice_909"/>
			</rt_info>
			<output>
				<port id="0" precision="I64">
					<dim>3</dim>
				</port>
			</output>
		</layer>
		<layer id="18" name="Constant_16357" type="Const" version="opset1">
			<data element_type="i64" shape="3" offset="24" size="24"/>
			<rt_info>
				<attribute name="fused_names" version="0" value="onnx::Slice_909"/>
			</rt_info>
			<output>
				<port id="0" precision="I64">
					<dim>3</dim>
				</port>
			</output>
		</layer>
		<layer id="19" name="Constant_16360" type="Const" version="opset1">
			<data element_type="i64" shape="3" offset="48" size="24"/>
			<rt_info>
				<attribute name="fused_names" version="0" value="onnx::Slice_909"/>
			</rt_info>
			<output>
				<port id="0" precision="I64">
					<dim>3</dim>
				</port>
			</output>
		</layer>
		<layer id="20" name="onnx::Slice_909" type="StridedSlice" version="opset1">
			<data begin_mask="1, 1, 0" end_mask="1, 1, 0" new_axis_mask="" shrink_axis_mask="" ellipsis_mask=""/>
			<rt_info>
				<attribute name="fused_names" version="0" value="onnx::Slice_909"/>
			</rt_info>
			<input>
				<port id="0" precision="FP32">
					<dim>1</dim>
					<dim>3</dim>
					<dim>640</dim>
					<dim>640</dim>
				</port>
				<port id="1" precision="I64">
					<dim>3</dim>
				</port>
				<port id="2" precision="I64">
					<dim>3</dim>
				</port>
				<port id="3" precision="I64">
					<dim>3</dim>
				</port>
			</input>
			<output>
				<port id="4" precision="FP32" names="onnx::Slice_909">
					<dim>1</dim>
					<dim>3</dim>
					<dim>320</dim>
					<dim>640</dim>
				</port>
			</output>
		</layer>
		<layer id="21" name="Constant_16366" type="Const" version="opset1">
			<data element_type="i64" shape="4" offset="192" size="32"/>
			<rt_info>
				<attribute name="fused_names" version="0" value="onnx::Concat_914"/>
			</rt_info>
			<output>
				<port id="0" precision="I64">
					<dim>4</dim>
				</port>
			</output>
		</layer>
		<layer id="22" name="Constant_16369" type="Const" version="opset1">
			<data element_type="i64" shape="4" offset="104" size="32"/>
			<rt_info>
				<attribute name="fused_names" version="0" value="onnx::Concat_914"/>
			</rt_info>
			<output>
				<port id="0" precision="I64">
					<dim>4</dim>
				</port>
			</output>
		</layer>
		<layer id="23" name="Constant_16372" type="Const" version="opset1">
			<data element_type="i64" shape="4" offset="136" size="32"/>
			<rt_info>
				<attribute name="fused_names" version="0" value="onnx::Concat_914"/>
			</rt_info>
			<output>
				<port id="0" precision="I64">
					<dim>4</dim>
				</port>
			</output>
		</layer>
		<layer id="24" name="onnx::Concat_914" type="StridedSlice" version="opset1">
			<data begin_mask="1, 1, 1, 0" end_mask="1, 1, 1, 0" new_axis_mask="" shrink_axis_mask="" ellipsis_mask=""/>
			<rt_info>
				<attribute name="fused_names" version="0" value="onnx::Concat_914"/>
			</rt_info>
			<input>
				<port id="0" precision="FP32">
					<dim>1</dim>
					<dim>3</dim>
					<dim>320</dim>
					<dim>640</dim>
				</port>
				<port id="1" precision="I64">
					<dim>4</dim>
				</port>
				<port id="2" precision="I64">
					<dim>4</dim>
				</port>
				<port id="3" precision="I64">
					<dim>4</dim>
				</port>
			</input>
			<output>
				<port id="4" precision="FP32" names="onnx::Concat_914">
					<dim>1</dim>
					<dim>3</dim>
					<dim>320</dim>
					<dim>320</dim>
				</port>
			</output>
		</layer>
		<layer id="25" name="Constant_16378" type="Const" version="opset1">
			<data element_type="i64" shape="3" offset="168" size="24"/>
			<rt_info>
				<attribute name="fused_names" version="0" value="onnx::Slice_929"/>
			</rt_info>
			<output>
				<port id="0" precision="I64">
					<dim>3</dim>
				</port>
			</output>
		</layer>
		<layer id="26" name="Constant_16381" type="Const" version="opset1">
			<data element_type="i64" shape="3" offset="24" size="24"/>
			<rt_info>
				<attribute name="fused_names" version="0" value="onnx::Slice_929"/>
			</rt_info>
			<output>
				<port id="0" precision="I64">
					<dim>3</dim>
				</port>
			</output>
		</layer>
		<layer id="27" name="Constant_16384" type="Const" version="opset1">
			<data element_type="i64" shape="3" offset="48" size="24"/>
			<rt_info>
				<attribute name="fused_names" version="0" value="onnx::Slice_929"/>
			</rt_info>
			<output>
				<port id="0" precision="I64">
					<dim>3</dim>
				</port>
			</output>
		</layer>
		<layer id="28" name="onnx::Slice_929" type="StridedSlice" version="opset1">
			<data begin_mask="1, 1, 0" end_mask="1, 1, 0" new_axis_mask="" shrink_axis_mask="" ellipsis_mask=""/>
			<rt_info>
				<attribute name="fused_names" version="0" value="onnx::Slice_929"/>
			</rt_info>
			<input>
				<port id="0" precision="FP32">
					<dim>1</dim>
					<dim>3</dim>
					<dim>640</dim>
					<dim>640</dim>
				</port>
				<port id="1" precision="I64">
					<dim>3</dim>
				</port>
				<port id="2" precision="I64">
					<dim>3</dim>
				</port>
				<port id="3" precision="I64">
					<dim>3</dim>
				</port>
			</input>
			<output>
				<port id="4" precision="FP32" names="onnx::Slice_929">
					<dim>1</dim>
					<dim>3</dim>
					<dim>320</dim>
					<dim>640</dim>
				</port>
			</output>
		</layer>
		<layer id="29" name="Constant_16390" type="Const" version="opset1">
			<data element_type="i64" shape="4" offset="192" size="32"/>
			<rt_info>
				<attribute name="fused_names" version="0" value="onnx::Concat_934"/>
			</rt_info>
			<output>
				<port id="0" precision="I64">
					<dim>4</dim>
				</port>
			</output>
		</layer>
		<layer id="30" name="Constant_16393" type="Const" version="opset1">
			<data element_type="i64" shape="4" offset="104" size="32"/>
			<rt_info>
				<attribute name="fused_names" version="0" value="onnx::Concat_934"/>
			</rt_info>
			<output>
				<port id="0" precision="I64">
					<dim>4</dim>
				</port>
			</output>
		</layer>
		<layer id="31" name="Constant_16396" type="Const" version="opset1">
			<data element_type="i64" shape="4" offset="136" size="32"/>
			<rt_info>
				<attribute name="fused_names" version="0" value="onnx::Concat_934"/>
			</rt_info>
			<output>
				<port id="0" precision="I64">
					<dim>4</dim>
				</port>
			</output>
		</layer>
		<layer id="32" name="onnx::Concat_934" type="StridedSlice" version="opset1">
			<data begin_mask="1, 1, 1, 0" end_mask="1, 1, 1, 0" new_axis_mask="" shrink_axis_mask="" ellipsis_mask=""/>
			<rt_info>
				<attribute name="fused_names" version="0" value="onnx::Concat_934"/>
			</rt_info>
			<input>
				<port id="0" precision="FP32">
					<dim>1</dim>
					<dim>3</dim>
					<dim>320</dim>
					<dim>640</dim>
				</port>
				<port id="1" precision="I64">
					<dim>4</dim>
				</port>
				<port id="2" precision="I64">
					<dim>4</dim>
				</port>
				<port id="3" precision="I64">
					<dim>4</dim>
				</port>
			</input>
			<output>
				<port id="4" precision="FP32" names="onnx::Concat_934">
					<dim>1</dim>
					<dim>3</dim>
					<dim>320</dim>
					<dim>320</dim>
				</port>
			</output>
		</layer>
		<layer id="33" name="input" type="Concat" version="opset1">
			<data axis="1"/>
			<rt_info>
				<attribute name="fused_names" version="0" value="input"/>
			</rt_info>
			<input>
				<port id="0" precision="FP32">
					<dim>1</dim>
					<dim>3</dim>
					<dim>320</dim>
					<dim>320</dim>
				</port>
				<port id="1" precision="FP32">
					<dim>1</dim>
					<dim>3</dim>
					<dim>320</dim>
					<dim>320</dim>
				</port>
				<port id="2" precision="FP32">
					<dim>1</dim>
					<dim>3</dim>
					<dim>320</dim>
					<dim>320</dim>
				</port>
				<port id="3" precision="FP32">
					<dim>1</dim>
					<dim>3</dim>
					<dim>320</dim>
					<dim>320</dim>
				</port>
			</input>
			<output>
				<port id="4" precision="FP32" names="input">
					<dim>1</dim>
					<dim>12</dim>
					<dim>320</dim>
					<dim>320</dim>
				</port>
			</output>
		</layer>
		<layer id="34" name="onnx::Conv_1617_compressed" type="Const" version="opset1">
			<data element_type="f16" shape="80, 12, 3, 3" offset="224" size="17280"/>
			<output>
				<port id="0" precision="FP16">
					<dim>80</dim>
					<dim>12</dim>
					<dim>3</dim>
					<dim>3</dim>
				</port>
			</output>
		</layer>
		<layer id="35" name="onnx::Conv_1617" type="Convert" version="opset1">
			<data destination_type="f32"/>
			<rt_info>
				<attribute name="decompression" version="0"/>
				<attribute name="fused_names" version="0" value="onnx::Conv_1617"/>
			</rt_info>
			<input>
				<port id="0" precision="FP16">
					<dim>80</dim>
					<dim>12</dim>
					<dim>3</dim>
					<dim>3</dim>
				</port>
			</input>
			<output>
				<port id="1" precision="FP32" names="onnx::Conv_1617">
					<dim>80</dim>
					<dim>12</dim>
					<dim>3</dim>
					<dim>3</dim>
				</port>
			</output>
		</layer>
		<layer id="36" name="Convolution_329" type="Convolution" version="opset1">
			<data strides="1, 1" dilations="1, 1" pads_begin="1, 1" pads_end="1, 1" auto_pad="explicit"/>
			<rt_info>
				<attribute name="fused_names" version="0" value="Convolution_329"/>
			</rt_info>
			<input>
				<port id="0" precision="FP32">
					<dim>1</dim>
					<dim>12</dim>
					<dim>320</dim>
					<dim>320</dim>
				</port>
				<port id="1" precision="FP32">
					<dim>80</dim>
					<dim>12</dim>
					<dim>3</dim>
					<dim>3</dim>
				</port>
			</input>
			<output>
				<port id="2" precision="FP32">
					<dim>1</dim>
					<dim>80</dim>
					<dim>320</dim>
					<dim>320</dim>
				</port>
			</output>
		</layer>
		<layer id="37" name="Reshape_349_compressed" type="Const" version="opset1">
			<data element_type="f16" shape="1, 80, 1, 1" offset="17504" size="160"/>
			<output>
				<port id="0" precision="FP16">
					<dim>1</dim>
					<dim>80</dim>
					<dim>1</dim>
					<dim>1</dim>
				</port>
			</output>
		</layer>
		<layer id="38" name="Reshape_349" type="Convert" version="opset1">
			<data destination_type="f32"/>
			<rt_info>
				<attribute name="decompression" version="0"/>
			</rt_info>
			<input>
				<port id="0" precision="FP16">
					<dim>1</dim>
					<dim>80</dim>
					<dim>1</dim>
					<dim>1</dim>
				</port>
			</input>
			<output>
				<port id="1" precision="FP32">
					<dim>1</dim>
					<dim>80</dim>
					<dim>1</dim>
					<dim>1</dim>
				</port>
			</output>
		</layer>
		<layer id="39" name="onnx::Sigmoid_1616" type="Add" version="opset1">
			<data auto_broadcast="numpy"/>
			<rt_info>
				<attribute name="fused_names" version="0" value="Concat_348, Reshape_349, onnx::Sigmoid_1616"/>
			</rt_info>
			<input>
				<port id="0" precision="FP32">
					<dim>1</dim>
					<dim>80</dim>
					<dim>320</dim>
					<dim>320</dim>
				</port>
				<port id="1" precision="FP32">
					<dim>1</dim>
					<dim>80</dim>
					<dim>1</dim>
					<dim>1</dim>
				</port>
			</input>
			<output>
				<port id="2" precision="FP32" names="onnx::Sigmoid_1616">
					<dim>1</dim>
					<dim>80</dim>
					<dim>320</dim>
					<dim>320</dim>
				</port>
			</output>
		</layer>
		<layer id="40" name="input.7" type="Swish" version="opset4">
			<rt_info>
				<attribute name="fused_names" version="0" value="input.7, onnx::Mul_938"/>
			</rt_info>
			<input>
				<port id="0" precision="FP32">
					<dim>1</dim>
					<dim>80</dim>
					<dim>320</dim>
					<dim>320</dim>
				</port>
			</input>
			<output>
				<port id="1" precision="FP32" names="input.7">
					<dim>1</dim>
					<dim>80</dim>
					<dim>320</dim>
					<dim>320</dim>
				</port>
			</output>
		</layer>
		<layer id="41" name="onnx::Conv_1620_compressed" type="Const" version="opset1">
			<data element_type="f16" shape="160, 80, 3, 3" offset="17664" size="230400"/>
			<output>
				<port id="0" precision="FP16">
					<dim>160</dim>
					<dim>80</dim>
					<dim>3</dim>
					<dim>3</dim>
				</port>
			</output>
		</layer>
		<layer id="42" name="onnx::Conv_1620" type="Convert" version="opset1">
			<data destination_type="f32"/>
			<rt_info>
				<attribute name="decompression" version="0"/>
				<attribute name="fused_names" version="0" value="onnx::Conv_1620"/>
			</rt_info>
			<input>
				<port id="0" precision="FP16">
					<dim>160</dim>
					<dim>80</dim>
					<dim>3</dim>
					<dim>3</dim>
				</port>
			</input>
			<output>
				<port id="1" precision="FP32" names="onnx::Conv_1620">
					<dim>160</dim>
					<dim>80</dim>
					<dim>3</dim>
					<dim>3</dim>
				</port>
			</output>
		</layer>
		<layer id="43" name="Convolution_379" type="Convolution" version="opset1">
			<data strides="2, 2" dilations="1, 1" pads_begin="1, 1" pads_end="1, 1" auto_pad="explicit"/>
			<rt_info>
				<attribute name="fused_names" version="0" value="Convolution_379"/>
			</rt_info>
			<input>
				<port id="0" precision="FP32">
					<dim>1</dim>
					<dim>80</dim>
					<dim>320</dim>
					<dim>320</dim>
				</port>
				<port id="1" precision="FP32">
					<dim>160</dim>
					<dim>80</dim>
					<dim>3</dim>
					<dim>3</dim>
				</port>
			</input>
			<output>
				<port id="2" precision="FP32">
					<dim>1</dim>
					<dim>160</dim>
					<dim>160</dim>
					<dim>160</dim>
				</port>
			</output>
		</layer>
		<layer id="44" name="Reshape_399_compressed" type="Const" version="opset1">
			<data element_type="f16" shape="1, 160, 1, 1" offset="248064" size="320"/>
			<output>
				<port id="0" precision="FP16">
					<dim>1</dim>
					<dim>160</dim>
					<dim>1</dim>
					<dim>1</dim>
				</port>
			</output>
		</layer>
		<layer id="45" name="Reshape_399" type="Convert" version="opset1">
			<data destination_type="f32"/>
			<rt_info>
				<attribute name="decompression" version="0"/>
			</rt_info>
			<input>
				<port id="0" precision="FP16">
					<dim>1</dim>
					<dim>160</dim>
					<dim>1</dim>
					<dim>1</dim>
				</port>
			</input>
			<output>
				<port id="1" precision="FP32">
					<dim>1</dim>
					<dim>160</dim>
					<dim>1</dim>
					<dim>1</dim>
				</port>
			</output>
		</layer>
		<layer id="46" name="onnx::Sigmoid_1619" type="Add" version="opset1">
			<data auto_broadcast="numpy"/>
			<rt_info>
				<attribute name="fused_names" version="0" value="Concat_398, Reshape_399, onnx::Sigmoid_1619"/>
			</rt_info>
			<input>
				<port id="0" precision="FP32">
					<dim>1</dim>
					<dim>160</dim>
					<dim>160</dim>
					<dim>160</dim>
				</port>
				<port id="1" precision="FP32">
					<dim>1</dim>
					<dim>160</dim>
					<dim>1</dim>
					<dim>1</dim>
				</port>
			</input>
			<output>
				<port id="2" precision="FP32" names="onnx::Sigmoid_1619">
					<dim>1</dim>
					<dim>160</dim>
					<dim>160</dim>
					<dim>160</dim>
				</port>
			</output>
		</layer>
		<layer id="47" name="input.15" type="Swish" version="opset4">
			<rt_info>
				<attribute name="fused_names" version="0" value="input.15, onnx::Mul_942"/>
			</rt_info>
			<input>
				<port id="0" precision="FP32">
					<dim>1</dim>
					<dim>160</dim>
					<dim>160</dim>
					<dim>160</dim>
				</port>
			</input>
			<output>
				<port id="1" precision="FP32" names="input.15">
					<dim>1</dim>
					<dim>160</dim>
					<dim>160</dim>
					<dim>160</dim>
				</port>
			</output>
		</layer>
		<layer id="48" name="onnx::Conv_1623_compressed" type="Const" version="opset1">
			<data element_type="f16" shape="80, 160, 1, 1" offset="248384" size="25600"/>
			<output>
				<port id="0" precision="FP16">
					<dim>80</dim>
					<dim>160</dim>
					<dim>1</dim>
					<dim>1</dim>
				</port>
			</output>
		</layer>
		<layer id="49" name="onnx::Conv_1623" type="Convert" version="opset1">
			<data destination_type="f32"/>
			<rt_info>
				<attribute name="decompression" version="0"/>
				<attribute name="fused_names" version="0" value="onnx::Conv_1623"/>
			</rt_info>
			<input>
				<port id="0" precision="FP16">
					<dim>80</dim>
					<dim>160</dim>
					<dim>1</dim>
					<dim>1</dim>
				</port>
			</input>
			<output>
				<port id="1" precision="FP32" names="onnx::Conv_1623">
					<dim>80</dim>
					<dim>160</dim>
					<dim>1</dim>
					<dim>1</dim>
				</port>
			</output>
		</layer>
		<layer id="50" name="Convolution_429" type="Convolution" version="opset1">
			<data strides="1, 1" dilations="1, 1" pads_begin="0, 0" pads_end="0, 0" auto_pad="explicit"/>
			<rt_info>
				<attribute name="fused_names" version="0" value="Convolution_429"/>
			</rt_info>
			<input>
				<port id="0" precision="FP32">
					<dim>1</dim>
					<dim>160</dim>
					<dim>160</dim>
					<dim>160</dim>
				</port>
				<port id="1" precision="FP32">
					<dim>80</dim>
					<dim>160</dim>
					<dim>1</dim>
					<dim>1</dim>
				</port>
			</input>
			<output>
				<port id="2" precision="FP32">
					<dim>1</dim>
					<dim>80</dim>
					<dim>160</dim>
					<dim>160</dim>
				</port>
			</output>
		</layer>
		<layer id="51" name="Reshape_449_compressed" type="Const" version="opset1">
			<data element_type="f16" shape="1, 80, 1, 1" offset="273984" size="160"/>
			<output>
				<port id="0" precision="FP16">
					<dim>1</dim>
					<dim>80</dim>
					<dim>1</dim>
					<dim>1</dim>
				</port>
			</output>
		</layer>
		<layer id="52" name="Reshape_449" type="Convert" version="opset1">
			<data destination_type="f32"/>
			<rt_info>
				<attribute name="decompression" version="0"/>
			</rt_info>
			<input>
				<port id="0" precision="FP16">
					<dim>1</dim>
					<dim>80</dim>
					<dim>1</dim>
					<dim>1</dim>
				</port>
			</input>
			<output>
				<port id="1" precision="FP32">
					<dim>1</dim>
					<dim>80</dim>
					<dim>1</dim>
					<dim>1</dim>
				</port>
			</output>
		</layer>
		<layer id="53" name="onnx::Sigmoid_1622" type="Add" version="opset1">
			<data auto_broadcast="numpy"/>
			<rt_info>
				<attribute name="fused_names" version="0" value="Concat_448, Reshape_449, onnx::Sigmoid_1622"/>
			</rt_info>
			<input>
				<port id="0" precision="FP32">
					<dim>1</dim>
					<dim>80</dim>
					<dim>160</dim>
					<dim>160</dim>
				</port>
				<port id="1" precision="FP32">
					<dim>1</dim>
					<dim>80</dim>
					<dim>1</dim>
					<dim>1</dim>
				</port>
			</input>
			<output>
				<port id="2" precision="FP32" names="onnx::Sigmoid_1622">
					<dim>1</dim>
					<dim>80</dim>
					<dim>160</dim>
					<dim>160</dim>
				</port>
			</output>
		</layer>
		<layer id="54" name="input.23" type="Swish" version="opset4">
			<rt_info>
				<attribute name="fused_names" version="0" value="input.23, onnx::Mul_946"/>
			</rt_info>
			<input>
				<port id="0" precision="FP32">
					<dim>1</dim>
					<dim>80</dim>
					<dim>160</dim>
					<dim>160</dim>
				</port>
			</input>
			<output>
				<port id="1" precision="FP32" names="input.23">
					<dim>1</dim>
					<dim>80</dim>
					<dim>160</dim>
					<dim>160</dim>
				</port>
			</output>
		</layer>
		<layer id="55" name="onnx::Conv_1629_compressed" type="Const" version="opset1">
			<data element_type="f16" shape="80, 80, 1, 1" offset="274144" size="12800"/>
			<output>
				<port id="0" precision="FP16">
					<dim>80</dim>
					<dim>80</dim>
					<dim>1</dim>
					<dim>1</dim>
				</port>
			</output>
		</layer>
		<layer id="56" name="onnx::Conv_1629" type="Convert" version="opset1">
			<data destination_type="f32"/>
			<rt_info>
				<attribute name="decompression" version="0"/>
				<attribute name="fused_names" version="0" value="onnx::Conv_1629"/>
			</rt_info>
			<input>
				<port id="0" precision="FP16">
					<dim>80</dim>
					<dim>80</dim>
					<dim>1</dim>
					<dim>1</dim>
				</port>
			</input>
			<output>
				<port id="1" precision="FP32" names="onnx::Conv_1629">
					<dim>80</dim>
					<dim>80</dim>
					<dim>1</dim>
					<dim>1</dim>
				</port>
			</output>
		</layer>
		<layer id="57" name="Convolution_529" type="Convolution" version="opset1">
			<data strides="1, 1" dilations="1, 1" pads_begin="0, 0" pads_end="0, 0" auto_pad="explicit"/>
			<rt_info>
				<attribute name="fused_names" version="0" value="Convolution_529"/>
			</rt_info>
			<input>
				<port id="0" precision="FP32">
					<dim>1</dim>
					<dim>80</dim>
					<dim>160</dim>
					<dim>160</dim>
				</port>
				<port id="1" precision="FP32">
					<dim>80</dim>
					<dim>80</dim>
					<dim>1</dim>
					<dim>1</dim>
				</port>
			</input>
			<output>
				<port id="2" precision="FP32">
					<dim>1</dim>
					<dim>80</dim>
					<dim>160</dim>
					<dim>160</dim>
				</port>
			</output>
		</layer>
		<layer id="58" name="Reshape_549_compressed" type="Const" version="opset1">
			<data element_type="f16" shape="1, 80, 1, 1" offset="286944" size="160"/>
			<output>
				<port id="0" precision="FP16">
					<dim>1</dim>
					<dim>80</dim>
					<dim>1</dim>
					<dim>1</dim>
				</port>
			</output>
		</layer>
		<layer id="59" name="Reshape_549" type="Convert" version="opset1">
			<data destination_type="f32"/>
			<rt_info>
				<attribute name="decompression" version="0"/>
			</rt_info>
			<input>
				<port id="0" precision="FP16">
					<dim>1</dim>
					<dim>80</dim>
					<dim>1</dim>
					<dim>1</dim>
				</port>
			</input>
			<output>
				<port id="1" precision="FP32">
					<dim>1</dim>
					<dim>80</dim>
					<dim>1</dim>
					<dim>1</dim>
				</port>
			</output>
		</layer>
		<layer id="60" name="onnx::Sigmoid_1628" type="Add" version="opset1">
			<data auto_broadcast="numpy"/>
			<rt_info>
				<attribute name="fused_names" version="0" value="Concat_548, Reshape_549, onnx::Sigmoid_1628"/>
			</rt_info>
			<input>
				<port id="0" precision="FP32">
					<dim>1</dim>
					<dim>80</dim>
					<dim>160</dim>
					<dim>160</dim>
				</port>
				<port id="1" precision="FP32">
					<dim>1</dim>
					<dim>80</dim>
					<dim>1</dim>
					<dim>1</dim>
				</port>
			</input>
			<output>
				<port id="2" precision="FP32" names="onnx::Sigmoid_1628">
					<dim>1</dim>
					<dim>80</dim>
					<dim>160</dim>
					<dim>160</dim>
				</port>
			</output>
		</layer>
		<layer id="61" name="input.35" type="Swish" version="opset4">
			<rt_info>
				<attribute name="fused_names" version="0" value="input.35, onnx::Mul_954"/>
			</rt_info>
			<input>
				<port id="0" precision="FP32">
					<dim>1</dim>
					<dim>80</dim>
					<dim>160</dim>
					<dim>160</dim>
				</port>
			</input>
			<output>
				<port id="1" precision="FP32" names="input.35">
					<dim>1</dim>
					<dim>80</dim>
					<dim>160</dim>
					<dim>160</dim>
				</port>
			</output>
		</layer>
		<layer id="62" name="onnx::Conv_1632_compressed" type="Const" version="opset1">
			<data element_type="f16" shape="80, 80, 3, 3" offset="287104" size="115200"/>
			<output>
				<port id="0" precision="FP16">
					<dim>80</dim>
					<dim>80</dim>
					<dim>3</dim>
					<dim>3</dim>
				</port>
			</output>
		</layer>
		<layer id="63" name="onnx::Conv_1632" type="Convert" version="opset1">
			<data destination_type="f32"/>
			<rt_info>
				<attribute name="decompression" version="0"/>
				<attribute name="fused_names" version="0" value="onnx::Conv_1632"/>
			</rt_info>
			<input>
				<port id="0" precision="FP16">
					<dim>80</dim>
					<dim>80</dim>
					<dim>3</dim>
					<dim>3</dim>
				</port>
			</input>
			<output>
				<port id="1" precision="FP32" names="onnx::Conv_1632">
					<dim>80</dim>
					<dim>80</dim>
					<dim>3</dim>
					<dim>3</dim>
				</port>
			</output>
		</layer>
		<layer id="64" name="Convolution_579" type="Convolution" version="opset1">
			<data strides="1, 1" dilations="1, 1" pads_begin="1, 1" pads_end="1, 1" auto_pad="explicit"/>
			<rt_info>
				<attribute name="fused_names" version="0" value="Convolution_579"/>
			</rt_info>
			<input>
				<port id="0" precision="FP32">
					<dim>1</dim>
					<dim>80</dim>
					<dim>160</dim>
					<dim>160</dim>
				</port>
				<port id="1" precision="FP32">
					<dim>80</dim>
					<dim>80</dim>
					<dim>3</dim>
					<dim>3</dim>
				</port>
			</input>
			<output>
				<port id="2" precision="FP32">
					<dim>1</dim>
					<dim>80</dim>
					<dim>160</dim>
					<dim>160</dim>
				</port>
			</output>
		</layer>
		<layer id="65" name="Reshape_599_compressed" type="Const" version="opset1">
			<data element_type="f16" shape="1, 80, 1, 1" offset="402304" size="160"/>
			<output>
				<port id="0" precision="FP16">
					<dim>1</dim>
					<dim>80</dim>
					<dim>1</dim>
					<dim>1</dim>
				</port>
			</output>
		</layer>
		<layer id="66" name="Reshape_599" type="Convert" version="opset1">
			<data destination_type="f32"/>
			<rt_info>
				<attribute name="decompression" version="0"/>
			</rt_info>
			<input>
				<port id="0" precision="FP16">
					<dim>1</dim>
					<dim>80</dim>
					<dim>1</dim>
					<dim>1</dim>
				</port>
			</input>
			<output>
				<port id="1" precision="FP32">
					<dim>1</dim>
					<dim>80</dim>
					<dim>1</dim>
					<dim>1</dim>
				</port>
			</output>
		</layer>
		<layer id="67" name="onnx::Sigmoid_1631" type="Add" version="opset1">
			<data auto_broadcast="numpy"/>
			<rt_info>
				<attribute name="fused_names" version="0" value="Concat_598, Reshape_599, onnx::Sigmoid_1631"/>
			</rt_info>
			<input>
				<port id="0" precision="FP32">
					<dim>1</dim>
					<dim>80</dim>
					<dim>160</dim>
					<dim>160</dim>
				</port>
				<port id="1" precision="FP32">
					<dim>1</dim>
					<dim>80</dim>
					<dim>1</dim>
					<dim>1</dim>
				</port>
			</input>
			<output>
				<port id="2" precision="FP32" names="onnx::Sigmoid_1631">
					<dim>1</dim>
					<dim>80</dim>
					<dim>160</dim>
					<dim>160</dim>
				</port>
			</output>
		</layer>
		<layer id="68" name="onnx::Add_959" type="Swish" version="opset4">
			<rt_info>
				<attribute name="fused_names" version="0" value="onnx::Add_959, onnx::Mul_958"/>
			</rt_info>
			<input>
				<port id="0" precision="FP32">
					<dim>1</dim>
					<dim>80</dim>
					<dim>160</dim>
					<dim>160</dim>
				</port>
			</input>
			<output>
				<port id="1" precision="FP32" names="onnx::Add_959">
					<dim>1</dim>
					<dim>80</dim>
					<dim>160</dim>
					<dim>160</dim>
				</port>
			</output>
		</layer>
		<layer id="69" name="input.43" type="Add" version="opset1">
			<data auto_broadcast="numpy"/>
			<rt_info>
				<attribute name="fused_names" version="0" value="input.43"/>
			</rt_info>
			<input>
				<port id="0" precision="FP32">
					<dim>1</dim>
					<dim>80</dim>
					<dim>160</dim>
					<dim>160</dim>
				</port>
				<port id="1" precision="FP32">
					<dim>1</dim>
					<dim>80</dim>
					<dim>160</dim>
					<dim>160</dim>
				</port>
			</input>
			<output>
				<port id="2" precision="FP32" names="input.43">
					<dim>1</dim>
					<dim>80</dim>
					<dim>160</dim>
					<dim>160</dim>
				</port>
			</output>
		</layer>
		<layer id="70" name="onnx::Conv_1635_compressed" type="Const" version="opset1">
			<data element_type="f16" shape="80, 80, 1, 1" offset="402464" size="12800"/>
			<output>
				<port id="0" precision="FP16">
					<dim>80</dim>
					<dim>80</dim>
					<dim>1</dim>
					<dim>1</dim>
				</port>
			</output>
		</layer>
		<layer id="71" name="onnx::Conv_1635" type="Convert" version="opset1">
			<data destination_type="f32"/>
			<rt_info>
				<attribute name="decompression" version="0"/>
				<attribute name="fused_names" version="0" value="onnx::Conv_1635"/>
			</rt_info>
			<input>
				<port id="0" precision="FP16">
					<dim>80</dim>
					<dim>80</dim>
					<dim>1</dim>
					<dim>1</dim>
				</port>
			</input>
			<output>
				<port id="1" precision="FP32" names="onnx::Conv_1635">
					<dim>80</dim>
					<dim>80</dim>
					<dim>1</dim>
					<dim>1</dim>
				</port>
			</output>
		</layer>
		<layer id="72" name="Convolution_630" type="Convolution" version="opset1">
			<data strides="1, 1" dilations="1, 1" pads_begin="0, 0" pads_end="0, 0" auto_pad="explicit"/>
			<rt_info>
				<attribute name="fused_names" version="0" value="Convolution_630"/>
			</rt_info>
			<input>
				<port id="0" precision="FP32">
					<dim>1</dim>
					<dim>80</dim>
					<dim>160</dim>
					<dim>160</dim>
				</port>
				<port id="1" precision="FP32">
					<dim>80</dim>
					<dim>80</dim>
					<dim>1</dim>
					<dim>1</dim>
				</port>
			</input>
			<output>
				<port id="2" precision="FP32">
					<dim>1</dim>
					<dim>80</dim>
					<dim>160</dim>
					<dim>160</dim>
				</port>
			</output>
		</layer>
		<layer id="73" name="Reshape_650_compressed" type="Const" version="opset1">
			<data element_type="f16" shape="1, 80, 1, 1" offset="415264" size="160"/>
			<output>
				<port id="0" precision="FP16">
					<dim>1</dim>
					<dim>80</dim>
					<dim>1</dim>
					<dim>1</dim>
				</port>
			</output>
		</layer>
		<layer id="74" name="Reshape_650" type="Convert" version="opset1">
			<data destination_type="f32"/>
			<rt_info>
				<attribute name="decompression" version="0"/>
			</rt_info>
			<input>
				<port id="0" precision="FP16">
					<dim>1</dim>
					<dim>80</dim>
					<dim>1</dim>
					<dim>1</dim>
				</port>
			</input>
			<output>
				<port id="1" precision="FP32">
					<dim>1</dim>
					<dim>80</dim>
					<dim>1</dim>
					<dim>1</dim>
				</port>
			</output>
		</layer>
		<layer id="75" name="onnx::Sigmoid_1634" type="Add" version="opset1">
			<data auto_broadcast="numpy"/>
			<rt_info>
				<attribute name="fused_names" version="0" value="Concat_649, Reshape_650, onnx::Sigmoid_1634"/>
			</rt_info>
			<input>
				<port id="0" precision="FP32">
					<dim>1</dim>
					<dim>80</dim>
					<dim>160</dim>
					<dim>160</dim>
				</port>
				<port id="1" precision="FP32">
					<dim>1</dim>
					<dim>80</dim>
					<dim>1</dim>
					<dim>1</dim>
				</port>
			</input>
			<output>
				<port id="2" precision="FP32" names="onnx::Sigmoid_1634">
					<dim>1</dim>
					<dim>80</dim>
					<dim>160</dim>
					<dim>160</dim>
				</port>
			</output>
		</layer>
		<layer id="76" name="input.51" type="Swish" version="opset4">
			<rt_info>
				<attribute name="fused_names" version="0" value="input.51, onnx::Mul_963"/>
			</rt_info>
			<input>
				<port id="0" precision="FP32">
					<dim>1</dim>
					<dim>80</dim>
					<dim>160</dim>
					<dim>160</dim>
				</port>
			</input>
			<output>
				<port id="1" precision="FP32" names="input.51">
					<dim>1</dim>
					<dim>80</dim>
					<dim>160</dim>
					<dim>160</dim>
				</port>
			</output>
		</layer>
		<layer id="77" name="onnx::Conv_1638_compressed" type="Const" version="opset1">
			<data element_type="f16" shape="80, 80, 3, 3" offset="415424" size="115200"/>
			<output>
				<port id="0" precision="FP16">
					<dim>80</dim>
					<dim>80</dim>
					<dim>3</dim>
					<dim>3</dim>
				</port>
			</output>
		</layer>
		<layer id="78" name="onnx::Conv_1638" type="Convert" version="opset1">
			<data destination_type="f32"/>
			<rt_info>
				<attribute name="decompression" version="0"/>
				<attribute name="fused_names" version="0" value="onnx::Conv_1638"/>
			</rt_info>
			<input>
				<port id="0" precision="FP16">
					<dim>80</dim>
					<dim>80</dim>
					<dim>3</dim>
					<dim>3</dim>
				</port>
			</input>
			<output>
				<port id="1" precision="FP32" names="onnx::Conv_1638">
					<dim>80</dim>
					<dim>80</dim>
					<dim>3</dim>
					<dim>3</dim>
				</port>
			</output>
		</layer>
		<layer id="79" name="Convolution_680" type="Convolution" version="opset1">
			<data strides="1, 1" dilations="1, 1" pads_begin="1, 1" pads_end="1, 1" auto_pad="explicit"/>
			<rt_info>
				<attribute name="fused_names" version="0" value="Convolution_680"/>
			</rt_info>
			<input>
				<port id="0" precision="FP32">
					<dim>1</dim>
					<dim>80</dim>
					<dim>160</dim>
					<dim>160</dim>
				</port>
				<port id="1" precision="FP32">
					<dim>80</dim>
					<dim>80</dim>
					<dim>3</dim>
					<dim>3</dim>
				</port>
			</input>
			<output>
				<port id="2" precision="FP32">
					<dim>1</dim>
					<dim>80</dim>
					<dim>160</dim>
					<dim>160</dim>
				</port>
			</output>
		</layer>
		<layer id="80" name="Reshape_700_compressed" type="Const" version="opset1">
			<data element_type="f16" shape="1, 80, 1, 1" offset="530624" size="160"/>
			<output>
				<port id="0" precision="FP16">
					<dim>1</dim>
					<dim>80</dim>
					<dim>1</dim>
					<dim>1</dim>
				</port>
			</output>
		</layer>
		<layer id="81" name="Reshape_700" type="Convert" version="opset1">
			<data destination_type="f32"/>
			<rt_info>
				<attribute name="decompression" version="0"/>
			</rt_info>
			<input>
				<port id="0" precision="FP16">
					<dim>1</dim>
					<dim>80</dim>
					<dim>1</dim>
					<dim>1</dim>
				</port>
			</input>
			<output>
				<port id="1" precision="FP32">
					<dim>1</dim>
					<dim>80</dim>
					<dim>1</dim>
					<dim>1</dim>
				</port>
			</output>
		</layer>
		<layer id="82" name="onnx::Sigmoid_1637" type="Add" version="opset1">
			<data auto_broadcast="numpy"/>
			<rt_info>
				<attribute name="fused_names" version="0" value="Concat_699, Reshape_700, onnx::Sigmoid_1637"/>
			</rt_info>
			<input>
				<port id="0" precision="FP32">
					<dim>1</dim>
					<dim>80</dim>
					<dim>160</dim>
					<dim>160</dim>
				</port>
				<port id="1" precision="FP32">
					<dim>1</dim>
					<dim>80</dim>
					<dim>1</dim>
					<dim>1</dim>
				</port>
			</input>
			<output>
				<port id="2" precision="FP32" names="onnx::Sigmoid_1637">
					<dim>1</dim>
					<dim>80</dim>
					<dim>160</dim>
					<dim>160</dim>
				</port>
			</output>
		</layer>
		<layer id="83" name="onnx::Add_968" type="Swish" version="opset4">
			<rt_info>
				<attribute name="fused_names" version="0" value="onnx::Add_968, onnx::Mul_967"/>
			</rt_info>
			<input>
				<port id="0" precision="FP32">
					<dim>1</dim>
					<dim>80</dim>
					<dim>160</dim>
					<dim>160</dim>
				</port>
			</input>
			<output>
				<port id="1" precision="FP32" names="onnx::Add_968">
					<dim>1</dim>
					<dim>80</dim>
					<dim>160</dim>
					<dim>160</dim>
				</port>
			</output>
		</layer>
		<layer id="84" name="input.59" type="Add" version="opset1">
			<data auto_broadcast="numpy"/>
			<rt_info>
				<attribute name="fused_names" version="0" value="input.59"/>
			</rt_info>
			<input>
				<port id="0" precision="FP32">
					<dim>1</dim>
					<dim>80</dim>
					<dim>160</dim>
					<dim>160</dim>
				</port>
				<port id="1" precision="FP32">
					<dim>1</dim>
					<dim>80</dim>
					<dim>160</dim>
					<dim>160</dim>
				</port>
			</input>
			<output>
				<port id="2" precision="FP32" names="input.59">
					<dim>1</dim>
					<dim>80</dim>
					<dim>160</dim>
					<dim>160</dim>
				</port>
			</output>
		</layer>
		<layer id="85" name="onnx::Conv_1641_compressed" type="Const" version="opset1">
			<data element_type="f16" shape="80, 80, 1, 1" offset="530784" size="12800"/>
			<output>
				<port id="0" precision="FP16">
					<dim>80</dim>
					<dim>80</dim>
					<dim>1</dim>
					<dim>1</dim>
				</port>
			</output>
		</layer>
		<layer id="86" name="onnx::Conv_1641" type="Convert" version="opset1">
			<data destination_type="f32"/>
			<rt_info>
				<attribute name="decompression" version="0"/>
				<attribute name="fused_names" version="0" value="onnx::Conv_1641"/>
			</rt_info>
			<input>
				<port id="0" precision="FP16">
					<dim>80</dim>
					<dim>80</dim>
					<dim>1</dim>
					<dim>1</dim>
				</port>
			</input>
			<output>
				<port id="1" precision="FP32" names="onnx::Conv_1641">
					<dim>80</dim>
					<dim>80</dim>
					<dim>1</dim>
					<dim>1</dim>
				</port>
			</output>
		</layer>
		<layer id="87" name="Convolution_731" type="Convolution" version="opset1">
			<data strides="1, 1" dilations="1, 1" pads_begin="0, 0" pads_end="0, 0" auto_pad="explicit"/>
			<rt_info>
				<attribute name="fused_names" version="0" value="Convolution_731"/>
			</rt_info>
			<input>
				<port id="0" precision="FP32">
					<dim>1</dim>
					<dim>80</dim>
					<dim>160</dim>
					<dim>160</dim>
				</port>
				<port id="1" precision="FP32">
					<dim>80</dim>
					<dim>80</dim>
					<dim>1</dim>
					<dim>1</dim>
				</port>
			</input>
			<output>
				<port id="2" precision="FP32">
					<dim>1</dim>
					<dim>80</dim>
					<dim>160</dim>
					<dim>160</dim>
				</port>
			</output>
		</layer>
		<layer id="88" name="Reshape_751_compressed" type="Const" version="opset1">
			<data element_type="f16" shape="1, 80, 1, 1" offset="543584" size="160"/>
			<output>
				<port id="0" precision="FP16">
					<dim>1</dim>
					<dim>80</dim>
					<dim>1</dim>
					<dim>1</dim>
				</port>
			</output>
		</layer>
		<layer id="89" name="Reshape_751" type="Convert" version="opset1">
			<data destination_type="f32"/>
			<rt_info>
				<attribute name="decompression" version="0"/>
			</rt_info>
			<input>
				<port id="0" precision="FP16">
					<dim>1</dim>
					<dim>80</dim>
					<dim>1</dim>
					<dim>1</dim>
				</port>
			</input>
			<output>
				<port id="1" precision="FP32">
					<dim>1</dim>
					<dim>80</dim>
					<dim>1</dim>
					<dim>1</dim>
				</port>
			</output>
		</layer>
		<layer id="90" name="onnx::Sigmoid_1640" type="Add" version="opset1">
			<data auto_broadcast="numpy"/>
			<rt_info>
				<attribute name="fused_names" version="0" value="Concat_750, Reshape_751, onnx::Sigmoid_1640"/>
			</rt_info>
			<input>
				<port id="0" precision="FP32">
					<dim>1</dim>
					<dim>80</dim>
					<dim>160</dim>
					<dim>160</dim>
				</port>
				<port id="1" precision="FP32">
					<dim>1</dim>
					<dim>80</dim>
					<dim>1</dim>
					<dim>1</dim>
				</port>
			</input>
			<output>
				<port id="2" precision="FP32" names="onnx::Sigmoid_1640">
					<dim>1</dim>
					<dim>80</dim>
					<dim>160</dim>
					<dim>160</dim>
				</port>
			</output>
		</layer>
		<layer id="91" name="input.67" type="Swish" version="opset4">
			<rt_info>
				<attribute name="fused_names" version="0" value="input.67, onnx::Mul_972"/>
			</rt_info>
			<input>
				<port id="0" precision="FP32">
					<dim>1</dim>
					<dim>80</dim>
					<dim>160</dim>
					<dim>160</dim>
				</port>
			</input>
			<output>
				<port id="1" precision="FP32" names="input.67">
					<dim>1</dim>
					<dim>80</dim>
					<dim>160</dim>
					<dim>160</dim>
				</port>
			</output>
		</layer>
		<layer id="92" name="onnx::Conv_1644_compressed" type="Const" version="opset1">
			<data element_type="f16" shape="80, 80, 3, 3" offset="543744" size="115200"/>
			<output>
				<port id="0" precision="FP16">
					<dim>80</dim>
					<dim>80</dim>
					<dim>3</dim>
					<dim>3</dim>
				</port>
			</output>
		</layer>
		<layer id="93" name="onnx::Conv_1644" type="Convert" version="opset1">
			<data destination_type="f32"/>
			<rt_info>
				<attribute name="decompression" version="0"/>
				<attribute name="fused_names" version="0" value="onnx::Conv_1644"/>
			</rt_info>
			<input>
				<port id="0" precision="FP16">
					<dim>80</dim>
					<dim>80</dim>
					<dim>3</dim>
					<dim>3</dim>
				</port>
			</input>
			<output>
				<port id="1" precision="FP32" names="onnx::Conv_1644">
					<dim>80</dim>
					<dim>80</dim>
					<dim>3</dim>
					<dim>3</dim>
				</port>
			</output>
		</layer>
		<layer id="94" name="Convolution_781" type="Convolution" version="opset1">
			<data strides="1, 1" dilations="1, 1" pads_begin="1, 1" pads_end="1, 1" auto_pad="explicit"/>
			<rt_info>
				<attribute name="fused_names" version="0" value="Convolution_781"/>
			</rt_info>
			<input>
				<port id="0" precision="FP32">
					<dim>1</dim>
					<dim>80</dim>
					<dim>160</dim>
					<dim>160</dim>
				</port>
				<port id="1" precision="FP32">
					<dim>80</dim>
					<dim>80</dim>
					<dim>3</dim>
					<dim>3</dim>
				</port>
			</input>
			<output>
				<port id="2" precision="FP32">
					<dim>1</dim>
					<dim>80</dim>
					<dim>160</dim>
					<dim>160</dim>
				</port>
			</output>
		</layer>
		<layer id="95" name="Reshape_801_compressed" type="Const" version="opset1">
			<data element_type="f16" shape="1, 80, 1, 1" offset="658944" size="160"/>
			<output>
				<port id="0" precision="FP16">
					<dim>1</dim>
					<dim>80</dim>
					<dim>1</dim>
					<dim>1</dim>
				</port>
			</output>
		</layer>
		<layer id="96" name="Reshape_801" type="Convert" version="opset1">
			<data destination_type="f32"/>
			<rt_info>
				<attribute name="decompression" version="0"/>
			</rt_info>
			<input>
				<port id="0" precision="FP16">
					<dim>1</dim>
					<dim>80</dim>
					<dim>1</dim>
					<dim>1</dim>
				</port>
			</input>
			<output>
				<port id="1" precision="FP32">
					<dim>1</dim>
					<dim>80</dim>
					<dim>1</dim>
					<dim>1</dim>
				</port>
			</output>
		</layer>
		<layer id="97" name="onnx::Sigmoid_1643" type="Add" version="opset1">
			<data auto_broadcast="numpy"/>
			<rt_info>
				<attribute name="fused_names" version="0" value="Concat_800, Reshape_801, onnx::Sigmoid_1643"/>
			</rt_info>
			<input>
				<port id="0" precision="FP32">
					<dim>1</dim>
					<dim>80</dim>
					<dim>160</dim>
					<dim>160</dim>
				</port>
				<port id="1" precision="FP32">
					<dim>1</dim>
					<dim>80</dim>
					<dim>1</dim>
					<dim>1</dim>
				</port>
			</input>
			<output>
				<port id="2" precision="FP32" names="onnx::Sigmoid_1643">
					<dim>1</dim>
					<dim>80</dim>
					<dim>160</dim>
					<dim>160</dim>
				</port>
			</output>
		</layer>
		<layer id="98" name="onnx::Add_977" type="Swish" version="opset4">
			<rt_info>
				<attribute name="fused_names" version="0" value="onnx::Add_977, onnx::Mul_976"/>
			</rt_info>
			<input>
				<port id="0" precision="FP32">
					<dim>1</dim>
					<dim>80</dim>
					<dim>160</dim>
					<dim>160</dim>
				</port>
			</input>
			<output>
				<port id="1" precision="FP32" names="onnx::Add_977">
					<dim>1</dim>
					<dim>80</dim>
					<dim>160</dim>
					<dim>160</dim>
				</port>
			</output>
		</layer>
		<layer id="99" name="input.75" type="Add" version="opset1">
			<data auto_broadcast="numpy"/>
			<rt_info>
				<attribute name="fused_names" version="0" value="input.75"/>
			</rt_info>
			<input>
				<port id="0" precision="FP32">
					<dim>1</dim>
					<dim>80</dim>
					<dim>160</dim>
					<dim>160</dim>
				</port>
				<port id="1" precision="FP32">
					<dim>1</dim>
					<dim>80</dim>
					<dim>160</dim>
					<dim>160</dim>
				</port>
			</input>
			<output>
				<port id="2" precision="FP32" names="input.75">
					<dim>1</dim>
					<dim>80</dim>
					<dim>160</dim>
					<dim>160</dim>
				</port>
			</output>
		</layer>
		<layer id="100" name="onnx::Conv_1647_compressed" type="Const" version="opset1">
			<data element_type="f16" shape="80, 80, 1, 1" offset="659104" size="12800"/>
			<output>
				<port id="0" precision="FP16">
					<dim>80</dim>
					<dim>80</dim>
					<dim>1</dim>
					<dim>1</dim>
				</port>
			</output>
		</layer>
		<layer id="101" name="onnx::Conv_1647" type="Convert" version="opset1">
			<data destination_type="f32"/>
			<rt_info>
				<attribute name="decompression" version="0"/>
				<attribute name="fused_names" version="0" value="onnx::Conv_1647"/>
			</rt_info>
			<input>
				<port id="0" precision="FP16">
					<dim>80</dim>
					<dim>80</dim>
					<dim>1</dim>
					<dim>1</dim>
				</port>
			</input>
			<output>
				<port id="1" precision="FP32" names="onnx::Conv_1647">
					<dim>80</dim>
					<dim>80</dim>
					<dim>1</dim>
					<dim>1</dim>
				</port>
			</output>
		</layer>
		<layer id="102" name="Convolution_832" type="Convolution" version="opset1">
			<data strides="1, 1" dilations="1, 1" pads_begin="0, 0" pads_end="0, 0" auto_pad="explicit"/>
			<rt_info>
				<attribute name="fused_names" version="0" value="Convolution_832"/>
			</rt_info>
			<input>
				<port id="0" precision="FP32">
					<dim>1</dim>
					<dim>80</dim>
					<dim>160</dim>
					<dim>160</dim>
				</port>
				<port id="1" precision="FP32">
					<dim>80</dim>
					<dim>80</dim>
					<dim>1</dim>
					<dim>1</dim>
				</port>
			</input>
			<output>
				<port id="2" precision="FP32">
					<dim>1</dim>
					<dim>80</dim>
					<dim>160</dim>
					<dim>160</dim>
				</port>
			</output>
		</layer>
		<layer id="103" name="Reshape_852_compressed" type="Const" version="opset1">
			<data element_type="f16" shape="1, 80, 1, 1" offset="671904" size="160"/>
			<output>
				<port id="0" precision="FP16">
					<dim>1</dim>
					<dim>80</dim>
					<dim>1</dim>
					<dim>1</dim>
				</port>
			</output>
		</layer>
		<layer id="104" name="Reshape_852" type="Convert" version="opset1">
			<data destination_type="f32"/>
			<rt_info>
				<attribute name="decompression" version="0"/>
			</rt_info>
			<input>
				<port id="0" precision="FP16">
					<dim>1</dim>
					<dim>80</dim>
					<dim>1</dim>
					<dim>1</dim>
				</port>
			</input>
			<output>
				<port id="1" precision="FP32">
					<dim>1</dim>
					<dim>80</dim>
					<dim>1</dim>
					<dim>1</dim>
				</port>
			</output>
		</layer>
		<layer id="105" name="onnx::Sigmoid_1646" type="Add" version="opset1">
			<data auto_broadcast="numpy"/>
			<rt_info>
				<attribute name="fused_names" version="0" value="Concat_851, Reshape_852, onnx::Sigmoid_1646"/>
			</rt_info>
			<input>
				<port id="0" precision="FP32">
					<dim>1</dim>
					<dim>80</dim>
					<dim>160</dim>
					<dim>160</dim>
				</port>
				<port id="1" precision="FP32">
					<dim>1</dim>
					<dim>80</dim>
					<dim>1</dim>
					<dim>1</dim>
				</port>
			</input>
			<output>
				<port id="2" precision="FP32" names="onnx::Sigmoid_1646">
					<dim>1</dim>
					<dim>80</dim>
					<dim>160</dim>
					<dim>160</dim>
				</port>
			</output>
		</layer>
		<layer id="106" name="input.83" type="Swish" version="opset4">
			<rt_info>
				<attribute name="fused_names" version="0" value="input.83, onnx::Mul_981"/>
			</rt_info>
			<input>
				<port id="0" precision="FP32">
					<dim>1</dim>
					<dim>80</dim>
					<dim>160</dim>
					<dim>160</dim>
				</port>
			</input>
			<output>
				<port id="1" precision="FP32" names="input.83">
					<dim>1</dim>
					<dim>80</dim>
					<dim>160</dim>
					<dim>160</dim>
				</port>
			</output>
		</layer>
		<layer id="107" name="onnx::Conv_1650_compressed" type="Const" version="opset1">
			<data element_type="f16" shape="80, 80, 3, 3" offset="672064" size="115200"/>
			<output>
				<port id="0" precision="FP16">
					<dim>80</dim>
					<dim>80</dim>
					<dim>3</dim>
					<dim>3</dim>
				</port>
			</output>
		</layer>
		<layer id="108" name="onnx::Conv_1650" type="Convert" version="opset1">
			<data destination_type="f32"/>
			<rt_info>
				<attribute name="decompression" version="0"/>
				<attribute name="fused_names" version="0" value="onnx::Conv_1650"/>
			</rt_info>
			<input>
				<port id="0" precision="FP16">
					<dim>80</dim>
					<dim>80</dim>
					<dim>3</dim>
					<dim>3</dim>
				</port>
			</input>
			<output>
				<port id="1" precision="FP32" names="onnx::Conv_1650">
					<dim>80</dim>
					<dim>80</dim>
					<dim>3</dim>
					<dim>3</dim>
				</port>
			</output>
		</layer>
		<layer id="109" name="Convolution_882" type="Convolution" version="opset1">
			<data strides="1, 1" dilations="1, 1" pads_begin="1, 1" pads_end="1, 1" auto_pad="explicit"/>
			<rt_info>
				<attribute name="fused_names" version="0" value="Convolution_882"/>
			</rt_info>
			<input>
				<port id="0" precision="FP32">
					<dim>1</dim>
					<dim>80</dim>
					<dim>160</dim>
					<dim>160</dim>
				</port>
				<port id="1" precision="FP32">
					<dim>80</dim>
					<dim>80</dim>
					<dim>3</dim>
					<dim>3</dim>
				</port>
			</input>
			<output>
				<port id="2" precision="FP32">
					<dim>1</dim>
					<dim>80</dim>
					<dim>160</dim>
					<dim>160</dim>
				</port>
			</output>
		</layer>
		<layer id="110" name="Reshape_902_compressed" type="Const" version="opset1">
			<data element_type="f16" shape="1, 80, 1, 1" offset="787264" size="160"/>
			<output>
				<port id="0" precision="FP16">
					<dim>1</dim>
					<dim>80</dim>
					<dim>1</dim>
					<dim>1</dim>
				</port>
			</output>
		</layer>
		<layer id="111" name="Reshape_902" type="Convert" version="opset1">
			<data destination_type="f32"/>
			<rt_info>
				<attribute name="decompression" version="0"/>
			</rt_info>
			<input>
				<port id="0" precision="FP16">
					<dim>1</dim>
					<dim>80</dim>
					<dim>1</dim>
					<dim>1</dim>
				</port>
			</input>
			<output>
				<port id="1" precision="FP32">
					<dim>1</dim>
					<dim>80</dim>
					<dim>1</dim>
					<dim>1</dim>
				</port>
			</output>
		</layer>
		<layer id="112" name="onnx::Sigmoid_1649" type="Add" version="opset1">
			<data auto_broadcast="numpy"/>
			<rt_info>
				<attribute name="fused_names" version="0" value="Concat_901, Reshape_902, onnx::Sigmoid_1649"/>
			</rt_info>
			<input>
				<port id="0" precision="FP32">
					<dim>1</dim>
					<dim>80</dim>
					<dim>160</dim>
					<dim>160</dim>
				</port>
				<port id="1" precision="FP32">
					<dim>1</dim>
					<dim>80</dim>
					<dim>1</dim>
					<dim>1</dim>
				</port>
			</input>
			<output>
				<port id="2" precision="FP32" names="onnx::Sigmoid_1649">
					<dim>1</dim>
					<dim>80</dim>
					<dim>160</dim>
					<dim>160</dim>
				</port>
			</output>
		</layer>
		<layer id="113" name="onnx::Add_986" type="Swish" version="opset4">
			<rt_info>
				<attribute name="fused_names" version="0" value="onnx::Add_986, onnx::Mul_985"/>
			</rt_info>
			<input>
				<port id="0" precision="FP32">
					<dim>1</dim>
					<dim>80</dim>
					<dim>160</dim>
					<dim>160</dim>
				</port>
			</input>
			<output>
				<port id="1" precision="FP32" names="onnx::Add_986">
					<dim>1</dim>
					<dim>80</dim>
					<dim>160</dim>
					<dim>160</dim>
				</port>
			</output>
		</layer>
		<layer id="114" name="onnx::Concat_987" type="Add" version="opset1">
			<data auto_broadcast="numpy"/>
			<rt_info>
				<attribute name="fused_names" version="0" value="onnx::Concat_987"/>
			</rt_info>
			<input>
				<port id="0" precision="FP32">
					<dim>1</dim>
					<dim>80</dim>
					<dim>160</dim>
					<dim>160</dim>
				</port>
				<port id="1" precision="FP32">
					<dim>1</dim>
					<dim>80</dim>
					<dim>160</dim>
					<dim>160</dim>
				</port>
			</input>
			<output>
				<port id="2" precision="FP32" names="onnx::Concat_987">
					<dim>1</dim>
					<dim>80</dim>
					<dim>160</dim>
					<dim>160</dim>
				</port>
			</output>
		</layer>
		<layer id="115" name="onnx::Conv_1626_compressed" type="Const" version="opset1">
			<data element_type="f16" shape="80, 160, 1, 1" offset="787424" size="25600"/>
			<output>
				<port id="0" precision="FP16">
					<dim>80</dim>
					<dim>160</dim>
					<dim>1</dim>
					<dim>1</dim>
				</port>
			</output>
		</layer>
		<layer id="116" name="onnx::Conv_1626" type="Convert" version="opset1">
			<data destination_type="f32"/>
			<rt_info>
				<attribute name="decompression" version="0"/>
				<attribute name="fused_names" version="0" value="onnx::Conv_1626"/>
			</rt_info>
			<input>
				<port id="0" precision="FP16">
					<dim>80</dim>
					<dim>160</dim>
					<dim>1</dim>
					<dim>1</dim>
				</port>
			</input>
			<output>
				<port id="1" precision="FP32" names="onnx::Conv_1626">
					<dim>80</dim>
					<dim>160</dim>
					<dim>1</dim>
					<dim>1</dim>
				</port>
			</output>
		</layer>
		<layer id="117" name="Convolution_479" type="Convolution" version="opset1">
			<data strides="1, 1" dilations="1, 1" pads_begin="0, 0" pads_end="0, 0" auto_pad="explicit"/>
			<rt_info>
				<attribute name="fused_names" version="0" value="Convolution_479"/>
			</rt_info>
			<input>
				<port id="0" precision="FP32">
					<dim>1</dim>
					<dim>160</dim>
					<dim>160</dim>
					<dim>160</dim>
				</port>
				<port id="1" precision="FP32">
					<dim>80</dim>
					<dim>160</dim>
					<dim>1</dim>
					<dim>1</dim>
				</port>
			</input>
			<output>
				<port id="2" precision="FP32">
					<dim>1</dim>
					<dim>80</dim>
					<dim>160</dim>
					<dim>160</dim>
				</port>
			</output>
		</layer>
		<layer id="118" name="Reshape_499_compressed" type="Const" version="opset1">
			<data element_type="f16" shape="1, 80, 1, 1" offset="813024" size="160"/>
			<output>
				<port id="0" precision="FP16">
					<dim>1</dim>
					<dim>80</dim>
					<dim>1</dim>
					<dim>1</dim>
				</port>
			</output>
		</layer>
		<layer id="119" name="Reshape_499" type="Convert" version="opset1">
			<data destination_type="f32"/>
			<rt_info>
				<attribute name="decompression" version="0"/>
			</rt_info>
			<input>
				<port id="0" precision="FP16">
					<dim>1</dim>
					<dim>80</dim>
					<dim>1</dim>
					<dim>1</dim>
				</port>
			</input>
			<output>
				<port id="1" precision="FP32">
					<dim>1</dim>
					<dim>80</dim>
					<dim>1</dim>
					<dim>1</dim>
				</port>
			</output>
		</layer>
		<layer id="120" name="onnx::Sigmoid_1625" type="Add" version="opset1">
			<data auto_broadcast="numpy"/>
			<rt_info>
				<attribute name="fused_names" version="0" value="Concat_498, Reshape_499, onnx::Sigmoid_1625"/>
			</rt_info>
			<input>
				<port id="0" precision="FP32">
					<dim>1</dim>
					<dim>80</dim>
					<dim>160</dim>
					<dim>160</dim>
				</port>
				<port id="1" precision="FP32">
					<dim>1</dim>
					<dim>80</dim>
					<dim>1</dim>
					<dim>1</dim>
				</port>
			</input>
			<output>
				<port id="2" precision="FP32" names="onnx::Sigmoid_1625">
					<dim>1</dim>
					<dim>80</dim>
					<dim>160</dim>
					<dim>160</dim>
				</port>
			</output>
		</layer>
		<layer id="121" name="onnx::Concat_951" type="Swish" version="opset4">
			<rt_info>
				<attribute name="fused_names" version="0" value="onnx::Concat_951, onnx::Mul_950"/>
			</rt_info>
			<input>
				<port id="0" precision="FP32">
					<dim>1</dim>
					<dim>80</dim>
					<dim>160</dim>
					<dim>160</dim>
				</port>
			</input>
			<output>
				<port id="1" precision="FP32" names="onnx::Concat_951">
					<dim>1</dim>
					<dim>80</dim>
					<dim>160</dim>
					<dim>160</dim>
				</port>
			</output>
		</layer>
		<layer id="122" name="input.91" type="Concat" version="opset1">
			<data axis="1"/>
			<rt_info>
				<attribute name="fused_names" version="0" value="input.91"/>
			</rt_info>
			<input>
				<port id="0" precision="FP32">
					<dim>1</dim>
					<dim>80</dim>
					<dim>160</dim>
					<dim>160</dim>
				</port>
				<port id="1" precision="FP32">
					<dim>1</dim>
					<dim>80</dim>
					<dim>160</dim>
					<dim>160</dim>
				</port>
			</input>
			<output>
				<port id="2" precision="FP32" names="input.91">
					<dim>1</dim>
					<dim>160</dim>
					<dim>160</dim>
					<dim>160</dim>
				</port>
			</output>
		</layer>
		<layer id="123" name="onnx::Conv_1653_compressed" type="Const" version="opset1">
			<data element_type="f16" shape="160, 160, 1, 1" offset="813184" size="51200"/>
			<output>
				<port id="0" precision="FP16">
					<dim>160</dim>
					<dim>160</dim>
					<dim>1</dim>
					<dim>1</dim>
				</port>
			</output>
		</layer>
		<layer id="124" name="onnx::Conv_1653" type="Convert" version="opset1">
			<data destination_type="f32"/>
			<rt_info>
				<attribute name="decompression" version="0"/>
				<attribute name="fused_names" version="0" value="onnx::Conv_1653"/>
			</rt_info>
			<input>
				<port id="0" precision="FP16">
					<dim>160</dim>
					<dim>160</dim>
					<dim>1</dim>
					<dim>1</dim>
				</port>
			</input>
			<output>
				<port id="1" precision="FP32" names="onnx::Conv_1653">
					<dim>160</dim>
					<dim>160</dim>
					<dim>1</dim>
					<dim>1</dim>
				</port>
			</output>
		</layer>
		<layer id="125" name="Convolution_934" type="Convolution" version="opset1">
			<data strides="1, 1" dilations="1, 1" pads_begin="0, 0" pads_end="0, 0" auto_pad="explicit"/>
			<rt_info>
				<attribute name="fused_names" version="0" value="Convolution_934"/>
			</rt_info>
			<input>
				<port id="0" precision="FP32">
					<dim>1</dim>
					<dim>160</dim>
					<dim>160</dim>
					<dim>160</dim>
				</port>
				<port id="1" precision="FP32">
					<dim>160</dim>
					<dim>160</dim>
					<dim>1</dim>
					<dim>1</dim>
				</port>
			</input>
			<output>
				<port id="2" precision="FP32">
					<dim>1</dim>
					<dim>160</dim>
					<dim>160</dim>
					<dim>160</dim>
				</port>
			</output>
		</layer>
		<layer id="126" name="Reshape_954_compressed" type="Const" version="opset1">
			<data element_type="f16" shape="1, 160, 1, 1" offset="864384" size="320"/>
			<output>
				<port id="0" precision="FP16">
					<dim>1</dim>
					<dim>160</dim>
					<dim>1</dim>
					<dim>1</dim>
				</port>
			</output>
		</layer>
		<layer id="127" name="Reshape_954" type="Convert" version="opset1">
			<data destination_type="f32"/>
			<rt_info>
				<attribute name="decompression" version="0"/>
			</rt_info>
			<input>
				<port id="0" precision="FP16">
					<dim>1</dim>
					<dim>160</dim>
					<dim>1</dim>
					<dim>1</dim>
				</port>
			</input>
			<output>
				<port id="1" precision="FP32">
					<dim>1</dim>
					<dim>160</dim>
					<dim>1</dim>
					<dim>1</dim>
				</port>
			</output>
		</layer>
		<layer id="128" name="onnx::Sigmoid_1652" type="Add" version="opset1">
			<data auto_broadcast="numpy"/>
			<rt_info>
				<attribute name="fused_names" version="0" value="Concat_953, Reshape_954, onnx::Sigmoid_1652"/>
			</rt_info>
			<input>
				<port id="0" precision="FP32">
					<dim>1</dim>
					<dim>160</dim>
					<dim>160</dim>
					<dim>160</dim>
				</port>
				<port id="1" precision="FP32">
					<dim>1</dim>
					<dim>160</dim>
					<dim>1</dim>
					<dim>1</dim>
				</port>
			</input>
			<output>
				<port id="2" precision="FP32" names="onnx::Sigmoid_1652">
					<dim>1</dim>
					<dim>160</dim>
					<dim>160</dim>
					<dim>160</dim>
				</port>
			</output>
		</layer>
		<layer id="129" name="input.99" type="Swish" version="opset4">
			<rt_info>
				<attribute name="fused_names" version="0" value="input.99, onnx::Mul_991"/>
			</rt_info>
			<input>
				<port id="0" precision="FP32">
					<dim>1</dim>
					<dim>160</dim>
					<dim>160</dim>
					<dim>160</dim>
				</port>
			</input>
			<output>
				<port id="1" precision="FP32" names="input.99">
					<dim>1</dim>
					<dim>160</dim>
					<dim>160</dim>
					<dim>160</dim>
				</port>
			</output>
		</layer>
		<layer id="130" name="onnx::Conv_1656_compressed" type="Const" version="opset1">
			<data element_type="f16" shape="320, 160, 3, 3" offset="864704" size="921600"/>
			<output>
				<port id="0" precision="FP16">
					<dim>320</dim>
					<dim>160</dim>
					<dim>3</dim>
					<dim>3</dim>
				</port>
			</output>
		</layer>
		<layer id="131" name="onnx::Conv_1656" type="Convert" version="opset1">
			<data destination_type="f32"/>
			<rt_info>
				<attribute name="decompression" version="0"/>
				<attribute name="fused_names" version="0" value="onnx::Conv_1656"/>
			</rt_info>
			<input>
				<port id="0" precision="FP16">
					<dim>320</dim>
					<dim>160</dim>
					<dim>3</dim>
					<dim>3</dim>
				</port>
			</input>
			<output>
				<port id="1" precision="FP32" names="onnx::Conv_1656">
					<dim>320</dim>
					<dim>160</dim>
					<dim>3</dim>
					<dim>3</dim>
				</port>
			</output>
		</layer>
		<layer id="132" name="Convolution_984" type="Convolution" version="opset1">
			<data strides="2, 2" dilations="1, 1" pads_begin="1, 1" pads_end="1, 1" auto_pad="explicit"/>
			<rt_info>
				<attribute name="fused_names" version="0" value="Convolution_984"/>
			</rt_info>
			<input>
				<port id="0" precision="FP32">
					<dim>1</dim>
					<dim>160</dim>
					<dim>160</dim>
					<dim>160</dim>
				</port>
				<port id="1" precision="FP32">
					<dim>320</dim>
					<dim>160</dim>
					<dim>3</dim>
					<dim>3</dim>
				</port>
			</input>
			<output>
				<port id="2" precision="FP32">
					<dim>1</dim>
					<dim>320</dim>
					<dim>80</dim>
					<dim>80</dim>
				</port>
			</output>
		</layer>
		<layer id="133" name="Reshape_1004_compressed" type="Const" version="opset1">
			<data element_type="f16" shape="1, 320, 1, 1" offset="1786304" size="640"/>
			<output>
				<port id="0" precision="FP16">
					<dim>1</dim>
					<dim>320</dim>
					<dim>1</dim>
					<dim>1</dim>
				</port>
			</output>
		</layer>
		<layer id="134" name="Reshape_1004" type="Convert" version="opset1">
			<data destination_type="f32"/>
			<rt_info>
				<attribute name="decompression" version="0"/>
			</rt_info>
			<input>
				<port id="0" precision="FP16">
					<dim>1</dim>
					<dim>320</dim>
					<dim>1</dim>
					<dim>1</dim>
				</port>
			</input>
			<output>
				<port id="1" precision="FP32">
					<dim>1</dim>
					<dim>320</dim>
					<dim>1</dim>
					<dim>1</dim>
				</port>
			</output>
		</layer>
		<layer id="135" name="onnx::Sigmoid_1655" type="Add" version="opset1">
			<data auto_broadcast="numpy"/>
			<rt_info>
				<attribute name="fused_names" version="0" value="Concat_1003, Reshape_1004, onnx::Sigmoid_1655"/>
			</rt_info>
			<input>
				<port id="0" precision="FP32">
					<dim>1</dim>
					<dim>320</dim>
					<dim>80</dim>
					<dim>80</dim>
				</port>
				<port id="1" precision="FP32">
					<dim>1</dim>
					<dim>320</dim>
					<dim>1</dim>
					<dim>1</dim>
				</port>
			</input>
			<output>
				<port id="2" precision="FP32" names="onnx::Sigmoid_1655">
					<dim>1</dim>
					<dim>320</dim>
					<dim>80</dim>
					<dim>80</dim>
				</port>
			</output>
		</layer>
		<layer id="136" name="input.107" type="Swish" version="opset4">
			<rt_info>
				<attribute name="fused_names" version="0" value="input.107, onnx::Mul_995"/>
			</rt_info>
			<input>
				<port id="0" precision="FP32">
					<dim>1</dim>
					<dim>320</dim>
					<dim>80</dim>
					<dim>80</dim>
				</port>
			</input>
			<output>
				<port id="1" precision="FP32" names="input.107">
					<dim>1</dim>
					<dim>320</dim>
					<dim>80</dim>
					<dim>80</dim>
				</port>
			</output>
		</layer>
		<layer id="137" name="onnx::Conv_1659_compressed" type="Const" version="opset1">
			<data element_type="f16" shape="160, 320, 1, 1" offset="1786944" size="102400"/>
			<output>
				<port id="0" precision="FP16">
					<dim>160</dim>
					<dim>320</dim>
					<dim>1</dim>
					<dim>1</dim>
				</port>
			</output>
		</layer>
		<layer id="138" name="onnx::Conv_1659" type="Convert" version="opset1">
			<data destination_type="f32"/>
			<rt_info>
				<attribute name="decompression" version="0"/>
				<attribute name="fused_names" version="0" value="onnx::Conv_1659"/>
			</rt_info>
			<input>
				<port id="0" precision="FP16">
					<dim>160</dim>
					<dim>320</dim>
					<dim>1</dim>
					<dim>1</dim>
				</port>
			</input>
			<output>
				<port id="1" precision="FP32" names="onnx::Conv_1659">
					<dim>160</dim>
					<dim>320</dim>
					<dim>1</dim>
					<dim>1</dim>
				</port>
			</output>
		</layer>
		<layer id="139" name="Convolution_1034" type="Convolution" version="opset1">
			<data strides="1, 1" dilations="1, 1" pads_begin="0, 0" pads_end="0, 0" auto_pad="explicit"/>
			<rt_info>
				<attribute name="fused_names" version="0" value="Convolution_1034"/>
			</rt_info>
			<input>
				<port id="0" precision="FP32">
					<dim>1</dim>
					<dim>320</dim>
					<dim>80</dim>
					<dim>80</dim>
				</port>
				<port id="1" precision="FP32">
					<dim>160</dim>
					<dim>320</dim>
					<dim>1</dim>
					<dim>1</dim>
				</port>
			</input>
			<output>
				<port id="2" precision="FP32">
					<dim>1</dim>
					<dim>160</dim>
					<dim>80</dim>
					<dim>80</dim>
				</port>
			</output>
		</layer>
		<layer id="140" name="Reshape_1054_compressed" type="Const" version="opset1">
			<data element_type="f16" shape="1, 160, 1, 1" offset="1889344" size="320"/>
			<output>
				<port id="0" precision="FP16">
					<dim>1</dim>
					<dim>160</dim>
					<dim>1</dim>
					<dim>1</dim>
				</port>
			</output>
		</layer>
		<layer id="141" name="Reshape_1054" type="Convert" version="opset1">
			<data destination_type="f32"/>
			<rt_info>
				<attribute name="decompression" version="0"/>
			</rt_info>
			<input>
				<port id="0" precision="FP16">
					<dim>1</dim>
					<dim>160</dim>
					<dim>1</dim>
					<dim>1</dim>
				</port>
			</input>
			<output>
				<port id="1" precision="FP32">
					<dim>1</dim>
					<dim>160</dim>
					<dim>1</dim>
					<dim>1</dim>
				</port>
			</output>
		</layer>
		<layer id="142" name="onnx::Sigmoid_1658" type="Add" version="opset1">
			<data auto_broadcast="numpy"/>
			<rt_info>
				<attribute name="fused_names" version="0" value="Concat_1053, Reshape_1054, onnx::Sigmoid_1658"/>
			</rt_info>
			<input>
				<port id="0" precision="FP32">
					<dim>1</dim>
					<dim>160</dim>
					<dim>80</dim>
					<dim>80</dim>
				</port>
				<port id="1" precision="FP32">
					<dim>1</dim>
					<dim>160</dim>
					<dim>1</dim>
					<dim>1</dim>
				</port>
			</input>
			<output>
				<port id="2" precision="FP32" names="onnx::Sigmoid_1658">
					<dim>1</dim>
					<dim>160</dim>
					<dim>80</dim>
					<dim>80</dim>
				</port>
			</output>
		</layer>
		<layer id="143" name="input.115" type="Swish" version="opset4">
			<rt_info>
				<attribute name="fused_names" version="0" value="input.115, onnx::Mul_999"/>
			</rt_info>
			<input>
				<port id="0" precision="FP32">
					<dim>1</dim>
					<dim>160</dim>
					<dim>80</dim>
					<dim>80</dim>
				</port>
			</input>
			<output>
				<port id="1" precision="FP32" names="input.115">
					<dim>1</dim>
					<dim>160</dim>
					<dim>80</dim>
					<dim>80</dim>
				</port>
			</output>
		</layer>
		<layer id="144" name="onnx::Conv_1665_compressed" type="Const" version="opset1">
			<data element_type="f16" shape="160, 160, 1, 1" offset="1889664" size="51200"/>
			<output>
				<port id="0" precision="FP16">
					<dim>160</dim>
					<dim>160</dim>
					<dim>1</dim>
					<dim>1</dim>
				</port>
			</output>
		</layer>
		<layer id="145" name="onnx::Conv_1665" type="Convert" version="opset1">
			<data destination_type="f32"/>
			<rt_info>
				<attribute name="decompression" version="0"/>
				<attribute name="fused_names" version="0" value="onnx::Conv_1665"/>
			</rt_info>
			<input>
				<port id="0" precision="FP16">
					<dim>160</dim>
					<dim>160</dim>
					<dim>1</dim>
					<dim>1</dim>
				</port>
			</input>
			<output>
				<port id="1" precision="FP32" names="onnx::Conv_1665">
					<dim>160</dim>
					<dim>160</dim>
					<dim>1</dim>
					<dim>1</dim>
				</port>
			</output>
		</layer>
		<layer id="146" name="Convolution_1134" type="Convolution" version="opset1">
			<data strides="1, 1" dilations="1, 1" pads_begin="0, 0" pads_end="0, 0" auto_pad="explicit"/>
			<rt_info>
				<attribute name="fused_names" version="0" value="Convolution_1134"/>
			</rt_info>
			<input>
				<port id="0" precision="FP32">
					<dim>1</dim>
					<dim>160</dim>
					<dim>80</dim>
					<dim>80</dim>
				</port>
				<port id="1" precision="FP32">
					<dim>160</dim>
					<dim>160</dim>
					<dim>1</dim>
					<dim>1</dim>
				</port>
			</input>
			<output>
				<port id="2" precision="FP32">
					<dim>1</dim>
					<dim>160</dim>
					<dim>80</dim>
					<dim>80</dim>
				</port>
			</output>
		</layer>
		<layer id="147" name="Reshape_1154_compressed" type="Const" version="opset1">
			<data element_type="f16" shape="1, 160, 1, 1" offset="1940864" size="320"/>
			<output>
				<port id="0" precision="FP16">
					<dim>1</dim>
					<dim>160</dim>
					<dim>1</dim>
					<dim>1</dim>
				</port>
			</output>
		</layer>
		<layer id="148" name="Reshape_1154" type="Convert" version="opset1">
			<data destination_type="f32"/>
			<rt_info>
				<attribute name="decompression" version="0"/>
			</rt_info>
			<input>
				<port id="0" precision="FP16">
					<dim>1</dim>
					<dim>160</dim>
					<dim>1</dim>
					<dim>1</dim>
				</port>
			</input>
			<output>
				<port id="1" precision="FP32">
					<dim>1</dim>
					<dim>160</dim>
					<dim>1</dim>
					<dim>1</dim>
				</port>
			</output>
		</layer>
		<layer id="149" name="onnx::Sigmoid_1664" type="Add" version="opset1">
			<data auto_broadcast="numpy"/>
			<rt_info>
				<attribute name="fused_names" version="0" value="Concat_1153, Reshape_1154, onnx::Sigmoid_1664"/>
			</rt_info>
			<input>
				<port id="0" precision="FP32">
					<dim>1</dim>
					<dim>160</dim>
					<dim>80</dim>
					<dim>80</dim>
				</port>
				<port id="1" precision="FP32">
					<dim>1</dim>
					<dim>160</dim>
					<dim>1</dim>
					<dim>1</dim>
				</port>
			</input>
			<output>
				<port id="2" precision="FP32" names="onnx::Sigmoid_1664">
					<dim>1</dim>
					<dim>160</dim>
					<dim>80</dim>
					<dim>80</dim>
				</port>
			</output>
		</layer>
		<layer id="150" name="input.127" type="Swish" version="opset4">
			<rt_info>
				<attribute name="fused_names" version="0" value="input.127, onnx::Mul_1007"/>
			</rt_info>
			<input>
				<port id="0" precision="FP32">
					<dim>1</dim>
					<dim>160</dim>
					<dim>80</dim>
					<dim>80</dim>
				</port>
			</input>
			<output>
				<port id="1" precision="FP32" names="input.127">
					<dim>1</dim>
					<dim>160</dim>
					<dim>80</dim>
					<dim>80</dim>
				</port>
			</output>
		</layer>
		<layer id="151" name="onnx::Conv_1668_compressed" type="Const" version="opset1">
			<data element_type="f16" shape="160, 160, 3, 3" offset="1941184" size="460800"/>
			<output>
				<port id="0" precision="FP16">
					<dim>160</dim>
					<dim>160</dim>
					<dim>3</dim>
					<dim>3</dim>
				</port>
			</output>
		</layer>
		<layer id="152" name="onnx::Conv_1668" type="Convert" version="opset1">
			<data destination_type="f32"/>
			<rt_info>
				<attribute name="decompression" version="0"/>
				<attribute name="fused_names" version="0" value="onnx::Conv_1668"/>
			</rt_info>
			<input>
				<port id="0" precision="FP16">
					<dim>160</dim>
					<dim>160</dim>
					<dim>3</dim>
					<dim>3</dim>
				</port>
			</input>
			<output>
				<port id="1" precision="FP32" names="onnx::Conv_1668">
					<dim>160</dim>
					<dim>160</dim>
					<dim>3</dim>
					<dim>3</dim>
				</port>
			</output>
		</layer>
		<layer id="153" name="Convolution_1184" type="Convolution" version="opset1">
			<data strides="1, 1" dilations="1, 1" pads_begin="1, 1" pads_end="1, 1" auto_pad="explicit"/>
			<rt_info>
				<attribute name="fused_names" version="0" value="Convolution_1184"/>
			</rt_info>
			<input>
				<port id="0" precision="FP32">
					<dim>1</dim>
					<dim>160</dim>
					<dim>80</dim>
					<dim>80</dim>
				</port>
				<port id="1" precision="FP32">
					<dim>160</dim>
					<dim>160</dim>
					<dim>3</dim>
					<dim>3</dim>
				</port>
			</input>
			<output>
				<port id="2" precision="FP32">
					<dim>1</dim>
					<dim>160</dim>
					<dim>80</dim>
					<dim>80</dim>
				</port>
			</output>
		</layer>
		<layer id="154" name="Reshape_1204_compressed" type="Const" version="opset1">
			<data element_type="f16" shape="1, 160, 1, 1" offset="2401984" size="320"/>
			<output>
				<port id="0" precision="FP16">
					<dim>1</dim>
					<dim>160</dim>
					<dim>1</dim>
					<dim>1</dim>
				</port>
			</output>
		</layer>
		<layer id="155" name="Reshape_1204" type="Convert" version="opset1">
			<data destination_type="f32"/>
			<rt_info>
				<attribute name="decompression" version="0"/>
			</rt_info>
			<input>
				<port id="0" precision="FP16">
					<dim>1</dim>
					<dim>160</dim>
					<dim>1</dim>
					<dim>1</dim>
				</port>
			</input>
			<output>
				<port id="1" precision="FP32">
					<dim>1</dim>
					<dim>160</dim>
					<dim>1</dim>
					<dim>1</dim>
				</port>
			</output>
		</layer>
		<layer id="156" name="onnx::Sigmoid_1667" type="Add" version="opset1">
			<data auto_broadcast="numpy"/>
			<rt_info>
				<attribute name="fused_names" version="0" value="Concat_1203, Reshape_1204, onnx::Sigmoid_1667"/>
			</rt_info>
			<input>
				<port id="0" precision="FP32">
					<dim>1</dim>
					<dim>160</dim>
					<dim>80</dim>
					<dim>80</dim>
				</port>
				<port id="1" precision="FP32">
					<dim>1</dim>
					<dim>160</dim>
					<dim>1</dim>
					<dim>1</dim>
				</port>
			</input>
			<output>
				<port id="2" precision="FP32" names="onnx::Sigmoid_1667">
					<dim>1</dim>
					<dim>160</dim>
					<dim>80</dim>
					<dim>80</dim>
				</port>
			</output>
		</layer>
		<layer id="157" name="onnx::Add_1012" type="Swish" version="opset4">
			<rt_info>
				<attribute name="fused_names" version="0" value="onnx::Add_1012, onnx::Mul_1011"/>
			</rt_info>
			<input>
				<port id="0" precision="FP32">
					<dim>1</dim>
					<dim>160</dim>
					<dim>80</dim>
					<dim>80</dim>
				</port>
			</input>
			<output>
				<port id="1" precision="FP32" names="onnx::Add_1012">
					<dim>1</dim>
					<dim>160</dim>
					<dim>80</dim>
					<dim>80</dim>
				</port>
			</output>
		</layer>
		<layer id="158" name="input.135" type="Add" version="opset1">
			<data auto_broadcast="numpy"/>
			<rt_info>
				<attribute name="fused_names" version="0" value="input.135"/>
			</rt_info>
			<input>
				<port id="0" precision="FP32">
					<dim>1</dim>
					<dim>160</dim>
					<dim>80</dim>
					<dim>80</dim>
				</port>
				<port id="1" precision="FP32">
					<dim>1</dim>
					<dim>160</dim>
					<dim>80</dim>
					<dim>80</dim>
				</port>
			</input>
			<output>
				<port id="2" precision="FP32" names="input.135">
					<dim>1</dim>
					<dim>160</dim>
					<dim>80</dim>
					<dim>80</dim>
				</port>
			</output>
		</layer>
		<layer id="159" name="onnx::Conv_1671_compressed" type="Const" version="opset1">
			<data element_type="f16" shape="160, 160, 1, 1" offset="2402304" size="51200"/>
			<output>
				<port id="0" precision="FP16">
					<dim>160</dim>
					<dim>160</dim>
					<dim>1</dim>
					<dim>1</dim>
				</port>
			</output>
		</layer>
		<layer id="160" name="onnx::Conv_1671" type="Convert" version="opset1">
			<data destination_type="f32"/>
			<rt_info>
				<attribute name="decompression" version="0"/>
				<attribute name="fused_names" version="0" value="onnx::Conv_1671"/>
			</rt_info>
			<input>
				<port id="0" precision="FP16">
					<dim>160</dim>
					<dim>160</dim>
					<dim>1</dim>
					<dim>1</dim>
				</port>
			</input>
			<output>
				<port id="1" precision="FP32" names="onnx::Conv_1671">
					<dim>160</dim>
					<dim>160</dim>
					<dim>1</dim>
					<dim>1</dim>
				</port>
			</output>
		</layer>
		<layer id="161" name="Convolution_1235" type="Convolution" version="opset1">
			<data strides="1, 1" dilations="1, 1" pads_begin="0, 0" pads_end="0, 0" auto_pad="explicit"/>
			<rt_info>
				<attribute name="fused_names" version="0" value="Convolution_1235"/>
			</rt_info>
			<input>
				<port id="0" precision="FP32">
					<dim>1</dim>
					<dim>160</dim>
					<dim>80</dim>
					<dim>80</dim>
				</port>
				<port id="1" precision="FP32">
					<dim>160</dim>
					<dim>160</dim>
					<dim>1</dim>
					<dim>1</dim>
				</port>
			</input>
			<output>
				<port id="2" precision="FP32">
					<dim>1</dim>
					<dim>160</dim>
					<dim>80</dim>
					<dim>80</dim>
				</port>
			</output>
		</layer>
		<layer id="162" name="Reshape_1255_compressed" type="Const" version="opset1">
			<data element_type="f16" shape="1, 160, 1, 1" offset="2453504" size="320"/>
			<output>
				<port id="0" precision="FP16">
					<dim>1</dim>
					<dim>160</dim>
					<dim>1</dim>
					<dim>1</dim>
				</port>
			</output>
		</layer>
		<layer id="163" name="Reshape_1255" type="Convert" version="opset1">
			<data destination_type="f32"/>
			<rt_info>
				<attribute name="decompression" version="0"/>
			</rt_info>
			<input>
				<port id="0" precision="FP16">
					<dim>1</dim>
					<dim>160</dim>
					<dim>1</dim>
					<dim>1</dim>
				</port>
			</input>
			<output>
				<port id="1" precision="FP32">
					<dim>1</dim>
					<dim>160</dim>
					<dim>1</dim>
					<dim>1</dim>
				</port>
			</output>
		</layer>
		<layer id="164" name="onnx::Sigmoid_1670" type="Add" version="opset1">
			<data auto_broadcast="numpy"/>
			<rt_info>
				<attribute name="fused_names" version="0" value="Concat_1254, Reshape_1255, onnx::Sigmoid_1670"/>
			</rt_info>
			<input>
				<port id="0" precision="FP32">
					<dim>1</dim>
					<dim>160</dim>
					<dim>80</dim>
					<dim>80</dim>
				</port>
				<port id="1" precision="FP32">
					<dim>1</dim>
					<dim>160</dim>
					<dim>1</dim>
					<dim>1</dim>
				</port>
			</input>
			<output>
				<port id="2" precision="FP32" names="onnx::Sigmoid_1670">
					<dim>1</dim>
					<dim>160</dim>
					<dim>80</dim>
					<dim>80</dim>
				</port>
			</output>
		</layer>
		<layer id="165" name="input.143" type="Swish" version="opset4">
			<rt_info>
				<attribute name="fused_names" version="0" value="input.143, onnx::Mul_1016"/>
			</rt_info>
			<input>
				<port id="0" precision="FP32">
					<dim>1</dim>
					<dim>160</dim>
					<dim>80</dim>
					<dim>80</dim>
				</port>
			</input>
			<output>
				<port id="1" precision="FP32" names="input.143">
					<dim>1</dim>
					<dim>160</dim>
					<dim>80</dim>
					<dim>80</dim>
				</port>
			</output>
		</layer>
		<layer id="166" name="onnx::Conv_1674_compressed" type="Const" version="opset1">
			<data element_type="f16" shape="160, 160, 3, 3" offset="2453824" size="460800"/>
			<output>
				<port id="0" precision="FP16">
					<dim>160</dim>
					<dim>160</dim>
					<dim>3</dim>
					<dim>3</dim>
				</port>
			</output>
		</layer>
		<layer id="167" name="onnx::Conv_1674" type="Convert" version="opset1">
			<data destination_type="f32"/>
			<rt_info>
				<attribute name="decompression" version="0"/>
				<attribute name="fused_names" version="0" value="onnx::Conv_1674"/>
			</rt_info>
			<input>
				<port id="0" precision="FP16">
					<dim>160</dim>
					<dim>160</dim>
					<dim>3</dim>
					<dim>3</dim>
				</port>
			</input>
			<output>
				<port id="1" precision="FP32" names="onnx::Conv_1674">
					<dim>160</dim>
					<dim>160</dim>
					<dim>3</dim>
					<dim>3</dim>
				</port>
			</output>
		</layer>
		<layer id="168" name="Convolution_1285" type="Convolution" version="opset1">
			<data strides="1, 1" dilations="1, 1" pads_begin="1, 1" pads_end="1, 1" auto_pad="explicit"/>
			<rt_info>
				<attribute name="fused_names" version="0" value="Convolution_1285"/>
			</rt_info>
			<input>
				<port id="0" precision="FP32">
					<dim>1</dim>
					<dim>160</dim>
					<dim>80</dim>
					<dim>80</dim>
				</port>
				<port id="1" precision="FP32">
					<dim>160</dim>
					<dim>160</dim>
					<dim>3</dim>
					<dim>3</dim>
				</port>
			</input>
			<output>
				<port id="2" precision="FP32">
					<dim>1</dim>
					<dim>160</dim>
					<dim>80</dim>
					<dim>80</dim>
				</port>
			</output>
		</layer>
		<layer id="169" name="Reshape_1305_compressed" type="Const" version="opset1">
			<data element_type="f16" shape="1, 160, 1, 1" offset="2914624" size="320"/>
			<output>
				<port id="0" precision="FP16">
					<dim>1</dim>
					<dim>160</dim>
					<dim>1</dim>
					<dim>1</dim>
				</port>
			</output>
		</layer>
		<layer id="170" name="Reshape_1305" type="Convert" version="opset1">
			<data destination_type="f32"/>
			<rt_info>
				<attribute name="decompression" version="0"/>
			</rt_info>
			<input>
				<port id="0" precision="FP16">
					<dim>1</dim>
					<dim>160</dim>
					<dim>1</dim>
					<dim>1</dim>
				</port>
			</input>
			<output>
				<port id="1" precision="FP32">
					<dim>1</dim>
					<dim>160</dim>
					<dim>1</dim>
					<dim>1</dim>
				</port>
			</output>
		</layer>
		<layer id="171" name="onnx::Sigmoid_1673" type="Add" version="opset1">
			<data auto_broadcast="numpy"/>
			<rt_info>
				<attribute name="fused_names" version="0" value="Concat_1304, Reshape_1305, onnx::Sigmoid_1673"/>
			</rt_info>
			<input>
				<port id="0" precision="FP32">
					<dim>1</dim>
					<dim>160</dim>
					<dim>80</dim>
					<dim>80</dim>
				</port>
				<port id="1" precision="FP32">
					<dim>1</dim>
					<dim>160</dim>
					<dim>1</dim>
					<dim>1</dim>
				</port>
			</input>
			<output>
				<port id="2" precision="FP32" names="onnx::Sigmoid_1673">
					<dim>1</dim>
					<dim>160</dim>
					<dim>80</dim>
					<dim>80</dim>
				</port>
			</output>
		</layer>
		<layer id="172" name="onnx::Add_1021" type="Swish" version="opset4">
			<rt_info>
				<attribute name="fused_names" version="0" value="onnx::Add_1021, onnx::Mul_1020"/>
			</rt_info>
			<input>
				<port id="0" precision="FP32">
					<dim>1</dim>
					<dim>160</dim>
					<dim>80</dim>
					<dim>80</dim>
				</port>
			</input>
			<output>
				<port id="1" precision="FP32" names="onnx::Add_1021">
					<dim>1</dim>
					<dim>160</dim>
					<dim>80</dim>
					<dim>80</dim>
				</port>
			</output>
		</layer>
		<layer id="173" name="input.151" type="Add" version="opset1">
			<data auto_broadcast="numpy"/>
			<rt_info>
				<attribute name="fused_names" version="0" value="input.151"/>
			</rt_info>
			<input>
				<port id="0" precision="FP32">
					<dim>1</dim>
					<dim>160</dim>
					<dim>80</dim>
					<dim>80</dim>
				</port>
				<port id="1" precision="FP32">
					<dim>1</dim>
					<dim>160</dim>
					<dim>80</dim>
					<dim>80</dim>
				</port>
			</input>
			<output>
				<port id="2" precision="FP32" names="input.151">
					<dim>1</dim>
					<dim>160</dim>
					<dim>80</dim>
					<dim>80</dim>
				</port>
			</output>
		</layer>
		<layer id="174" name="onnx::Conv_1677_compressed" type="Const" version="opset1">
			<data element_type="f16" shape="160, 160, 1, 1" offset="2914944" size="51200"/>
			<output>
				<port id="0" precision="FP16">
					<dim>160</dim>
					<dim>160</dim>
					<dim>1</dim>
					<dim>1</dim>
				</port>
			</output>
		</layer>
		<layer id="175" name="onnx::Conv_1677" type="Convert" version="opset1">
			<data destination_type="f32"/>
			<rt_info>
				<attribute name="decompression" version="0"/>
				<attribute name="fused_names" version="0" value="onnx::Conv_1677"/>
			</rt_info>
			<input>
				<port id="0" precision="FP16">
					<dim>160</dim>
					<dim>160</dim>
					<dim>1</dim>
					<dim>1</dim>
				</port>
			</input>
			<output>
				<port id="1" precision="FP32" names="onnx::Conv_1677">
					<dim>160</dim>
					<dim>160</dim>
					<dim>1</dim>
					<dim>1</dim>
				</port>
			</output>
		</layer>
		<layer id="176" name="Convolution_1336" type="Convolution" version="opset1">
			<data strides="1, 1" dilations="1, 1" pads_begin="0, 0" pads_end="0, 0" auto_pad="explicit"/>
			<rt_info>
				<attribute name="fused_names" version="0" value="Convolution_1336"/>
			</rt_info>
			<input>
				<port id="0" precision="FP32">
					<dim>1</dim>
					<dim>160</dim>
					<dim>80</dim>
					<dim>80</dim>
				</port>
				<port id="1" precision="FP32">
					<dim>160</dim>
					<dim>160</dim>
					<dim>1</dim>
					<dim>1</dim>
				</port>
			</input>
			<output>
				<port id="2" precision="FP32">
					<dim>1</dim>
					<dim>160</dim>
					<dim>80</dim>
					<dim>80</dim>
				</port>
			</output>
		</layer>
		<layer id="177" name="Reshape_1356_compressed" type="Const" version="opset1">
			<data element_type="f16" shape="1, 160, 1, 1" offset="2966144" size="320"/>
			<output>
				<port id="0" precision="FP16">
					<dim>1</dim>
					<dim>160</dim>
					<dim>1</dim>
					<dim>1</dim>
				</port>
			</output>
		</layer>
		<layer id="178" name="Reshape_1356" type="Convert" version="opset1">
			<data destination_type="f32"/>
			<rt_info>
				<attribute name="decompression" version="0"/>
			</rt_info>
			<input>
				<port id="0" precision="FP16">
					<dim>1</dim>
					<dim>160</dim>
					<dim>1</dim>
					<dim>1</dim>
				</port>
			</input>
			<output>
				<port id="1" precision="FP32">
					<dim>1</dim>
					<dim>160</dim>
					<dim>1</dim>
					<dim>1</dim>
				</port>
			</output>
		</layer>
		<layer id="179" name="onnx::Sigmoid_1676" type="Add" version="opset1">
			<data auto_broadcast="numpy"/>
			<rt_info>
				<attribute name="fused_names" version="0" value="Concat_1355, Reshape_1356, onnx::Sigmoid_1676"/>
			</rt_info>
			<input>
				<port id="0" precision="FP32">
					<dim>1</dim>
					<dim>160</dim>
					<dim>80</dim>
					<dim>80</dim>
				</port>
				<port id="1" precision="FP32">
					<dim>1</dim>
					<dim>160</dim>
					<dim>1</dim>
					<dim>1</dim>
				</port>
			</input>
			<output>
				<port id="2" precision="FP32" names="onnx::Sigmoid_1676">
					<dim>1</dim>
					<dim>160</dim>
					<dim>80</dim>
					<dim>80</dim>
				</port>
			</output>
		</layer>
		<layer id="180" name="input.159" type="Swish" version="opset4">
			<rt_info>
				<attribute name="fused_names" version="0" value="input.159, onnx::Mul_1025"/>
			</rt_info>
			<input>
				<port id="0" precision="FP32">
					<dim>1</dim>
					<dim>160</dim>
					<dim>80</dim>
					<dim>80</dim>
				</port>
			</input>
			<output>
				<port id="1" precision="FP32" names="input.159">
					<dim>1</dim>
					<dim>160</dim>
					<dim>80</dim>
					<dim>80</dim>
				</port>
			</output>
		</layer>
		<layer id="181" name="onnx::Conv_1680_compressed" type="Const" version="opset1">
			<data element_type="f16" shape="160, 160, 3, 3" offset="2966464" size="460800"/>
			<output>
				<port id="0" precision="FP16">
					<dim>160</dim>
					<dim>160</dim>
					<dim>3</dim>
					<dim>3</dim>
				</port>
			</output>
		</layer>
		<layer id="182" name="onnx::Conv_1680" type="Convert" version="opset1">
			<data destination_type="f32"/>
			<rt_info>
				<attribute name="decompression" version="0"/>
				<attribute name="fused_names" version="0" value="onnx::Conv_1680"/>
			</rt_info>
			<input>
				<port id="0" precision="FP16">
					<dim>160</dim>
					<dim>160</dim>
					<dim>3</dim>
					<dim>3</dim>
				</port>
			</input>
			<output>
				<port id="1" precision="FP32" names="onnx::Conv_1680">
					<dim>160</dim>
					<dim>160</dim>
					<dim>3</dim>
					<dim>3</dim>
				</port>
			</output>
		</layer>
		<layer id="183" name="Convolution_1386" type="Convolution" version="opset1">
			<data strides="1, 1" dilations="1, 1" pads_begin="1, 1" pads_end="1, 1" auto_pad="explicit"/>
			<rt_info>
				<attribute name="fused_names" version="0" value="Convolution_1386"/>
			</rt_info>
			<input>
				<port id="0" precision="FP32">
					<dim>1</dim>
					<dim>160</dim>
					<dim>80</dim>
					<dim>80</dim>
				</port>
				<port id="1" precision="FP32">
					<dim>160</dim>
					<dim>160</dim>
					<dim>3</dim>
					<dim>3</dim>
				</port>
			</input>
			<output>
				<port id="2" precision="FP32">
					<dim>1</dim>
					<dim>160</dim>
					<dim>80</dim>
					<dim>80</dim>
				</port>
			</output>
		</layer>
		<layer id="184" name="Reshape_1406_compressed" type="Const" version="opset1">
			<data element_type="f16" shape="1, 160, 1, 1" offset="3427264" size="320"/>
			<output>
				<port id="0" precision="FP16">
					<dim>1</dim>
					<dim>160</dim>
					<dim>1</dim>
					<dim>1</dim>
				</port>
			</output>
		</layer>
		<layer id="185" name="Reshape_1406" type="Convert" version="opset1">
			<data destination_type="f32"/>
			<rt_info>
				<attribute name="decompression" version="0"/>
			</rt_info>
			<input>
				<port id="0" precision="FP16">
					<dim>1</dim>
					<dim>160</dim>
					<dim>1</dim>
					<dim>1</dim>
				</port>
			</input>
			<output>
				<port id="1" precision="FP32">
					<dim>1</dim>
					<dim>160</dim>
					<dim>1</dim>
					<dim>1</dim>
				</port>
			</output>
		</layer>
		<layer id="186" name="onnx::Sigmoid_1679" type="Add" version="opset1">
			<data auto_broadcast="numpy"/>
			<rt_info>
				<attribute name="fused_names" version="0" value="Concat_1405, Reshape_1406, onnx::Sigmoid_1679"/>
			</rt_info>
			<input>
				<port id="0" precision="FP32">
					<dim>1</dim>
					<dim>160</dim>
					<dim>80</dim>
					<dim>80</dim>
				</port>
				<port id="1" precision="FP32">
					<dim>1</dim>
					<dim>160</dim>
					<dim>1</dim>
					<dim>1</dim>
				</port>
			</input>
			<output>
				<port id="2" precision="FP32" names="onnx::Sigmoid_1679">
					<dim>1</dim>
					<dim>160</dim>
					<dim>80</dim>
					<dim>80</dim>
				</port>
			</output>
		</layer>
		<layer id="187" name="onnx::Add_1030" type="Swish" version="opset4">
			<rt_info>
				<attribute name="fused_names" version="0" value="onnx::Add_1030, onnx::Mul_1029"/>
			</rt_info>
			<input>
				<port id="0" precision="FP32">
					<dim>1</dim>
					<dim>160</dim>
					<dim>80</dim>
					<dim>80</dim>
				</port>
			</input>
			<output>
				<port id="1" precision="FP32" names="onnx::Add_1030">
					<dim>1</dim>
					<dim>160</dim>
					<dim>80</dim>
					<dim>80</dim>
				</port>
			</output>
		</layer>
		<layer id="188" name="input.167" type="Add" version="opset1">
			<data auto_broadcast="numpy"/>
			<rt_info>
				<attribute name="fused_names" version="0" value="input.167"/>
			</rt_info>
			<input>
				<port id="0" precision="FP32">
					<dim>1</dim>
					<dim>160</dim>
					<dim>80</dim>
					<dim>80</dim>
				</port>
				<port id="1" precision="FP32">
					<dim>1</dim>
					<dim>160</dim>
					<dim>80</dim>
					<dim>80</dim>
				</port>
			</input>
			<output>
				<port id="2" precision="FP32" names="input.167">
					<dim>1</dim>
					<dim>160</dim>
					<dim>80</dim>
					<dim>80</dim>
				</port>
			</output>
		</layer>
		<layer id="189" name="onnx::Conv_1683_compressed" type="Const" version="opset1">
			<data element_type="f16" shape="160, 160, 1, 1" offset="3427584" size="51200"/>
			<output>
				<port id="0" precision="FP16">
					<dim>160</dim>
					<dim>160</dim>
					<dim>1</dim>
					<dim>1</dim>
				</port>
			</output>
		</layer>
		<layer id="190" name="onnx::Conv_1683" type="Convert" version="opset1">
			<data destination_type="f32"/>
			<rt_info>
				<attribute name="decompression" version="0"/>
				<attribute name="fused_names" version="0" value="onnx::Conv_1683"/>
			</rt_info>
			<input>
				<port id="0" precision="FP16">
					<dim>160</dim>
					<dim>160</dim>
					<dim>1</dim>
					<dim>1</dim>
				</port>
			</input>
			<output>
				<port id="1" precision="FP32" names="onnx::Conv_1683">
					<dim>160</dim>
					<dim>160</dim>
					<dim>1</dim>
					<dim>1</dim>
				</port>
			</output>
		</layer>
		<layer id="191" name="Convolution_1437" type="Convolution" version="opset1">
			<data strides="1, 1" dilations="1, 1" pads_begin="0, 0" pads_end="0, 0" auto_pad="explicit"/>
			<rt_info>
				<attribute name="fused_names" version="0" value="Convolution_1437"/>
			</rt_info>
			<input>
				<port id="0" precision="FP32">
					<dim>1</dim>
					<dim>160</dim>
					<dim>80</dim>
					<dim>80</dim>
				</port>
				<port id="1" precision="FP32">
					<dim>160</dim>
					<dim>160</dim>
					<dim>1</dim>
					<dim>1</dim>
				</port>
			</input>
			<output>
				<port id="2" precision="FP32">
					<dim>1</dim>
					<dim>160</dim>
					<dim>80</dim>
					<dim>80</dim>
				</port>
			</output>
		</layer>
		<layer id="192" name="Reshape_1457_compressed" type="Const" version="opset1">
			<data element_type="f16" shape="1, 160, 1, 1" offset="3478784" size="320"/>
			<output>
				<port id="0" precision="FP16">
					<dim>1</dim>
					<dim>160</dim>
					<dim>1</dim>
					<dim>1</dim>
				</port>
			</output>
		</layer>
		<layer id="193" name="Reshape_1457" type="Convert" version="opset1">
			<data destination_type="f32"/>
			<rt_info>
				<attribute name="decompression" version="0"/>
			</rt_info>
			<input>
				<port id="0" precision="FP16">
					<dim>1</dim>
					<dim>160</dim>
					<dim>1</dim>
					<dim>1</dim>
				</port>
			</input>
			<output>
				<port id="1" precision="FP32">
					<dim>1</dim>
					<dim>160</dim>
					<dim>1</dim>
					<dim>1</dim>
				</port>
			</output>
		</layer>
		<layer id="194" name="onnx::Sigmoid_1682" type="Add" version="opset1">
			<data auto_broadcast="numpy"/>
			<rt_info>
				<attribute name="fused_names" version="0" value="Concat_1456, Reshape_1457, onnx::Sigmoid_1682"/>
			</rt_info>
			<input>
				<port id="0" precision="FP32">
					<dim>1</dim>
					<dim>160</dim>
					<dim>80</dim>
					<dim>80</dim>
				</port>
				<port id="1" precision="FP32">
					<dim>1</dim>
					<dim>160</dim>
					<dim>1</dim>
					<dim>1</dim>
				</port>
			</input>
			<output>
				<port id="2" precision="FP32" names="onnx::Sigmoid_1682">
					<dim>1</dim>
					<dim>160</dim>
					<dim>80</dim>
					<dim>80</dim>
				</port>
			</output>
		</layer>
		<layer id="195" name="input.175" type="Swish" version="opset4">
			<rt_info>
				<attribute name="fused_names" version="0" value="input.175, onnx::Mul_1034"/>
			</rt_info>
			<input>
				<port id="0" precision="FP32">
					<dim>1</dim>
					<dim>160</dim>
					<dim>80</dim>
					<dim>80</dim>
				</port>
			</input>
			<output>
				<port id="1" precision="FP32" names="input.175">
					<dim>1</dim>
					<dim>160</dim>
					<dim>80</dim>
					<dim>80</dim>
				</port>
			</output>
		</layer>
		<layer id="196" name="onnx::Conv_1686_compressed" type="Const" version="opset1">
			<data element_type="f16" shape="160, 160, 3, 3" offset="3479104" size="460800"/>
			<output>
				<port id="0" precision="FP16">
					<dim>160</dim>
					<dim>160</dim>
					<dim>3</dim>
					<dim>3</dim>
				</port>
			</output>
		</layer>
		<layer id="197" name="onnx::Conv_1686" type="Convert" version="opset1">
			<data destination_type="f32"/>
			<rt_info>
				<attribute name="decompression" version="0"/>
				<attribute name="fused_names" version="0" value="onnx::Conv_1686"/>
			</rt_info>
			<input>
				<port id="0" precision="FP16">
					<dim>160</dim>
					<dim>160</dim>
					<dim>3</dim>
					<dim>3</dim>
				</port>
			</input>
			<output>
				<port id="1" precision="FP32" names="onnx::Conv_1686">
					<dim>160</dim>
					<dim>160</dim>
					<dim>3</dim>
					<dim>3</dim>
				</port>
			</output>
		</layer>
		<layer id="198" name="Convolution_1487" type="Convolution" version="opset1">
			<data strides="1, 1" dilations="1, 1" pads_begin="1, 1" pads_end="1, 1" auto_pad="explicit"/>
			<rt_info>
				<attribute name="fused_names" version="0" value="Convolution_1487"/>
			</rt_info>
			<input>
				<port id="0" precision="FP32">
					<dim>1</dim>
					<dim>160</dim>
					<dim>80</dim>
					<dim>80</dim>
				</port>
				<port id="1" precision="FP32">
					<dim>160</dim>
					<dim>160</dim>
					<dim>3</dim>
					<dim>3</dim>
				</port>
			</input>
			<output>
				<port id="2" precision="FP32">
					<dim>1</dim>
					<dim>160</dim>
					<dim>80</dim>
					<dim>80</dim>
				</port>
			</output>
		</layer>
		<layer id="199" name="Reshape_1507_compressed" type="Const" version="opset1">
			<data element_type="f16" shape="1, 160, 1, 1" offset="3939904" size="320"/>
			<output>
				<port id="0" precision="FP16">
					<dim>1</dim>
					<dim>160</dim>
					<dim>1</dim>
					<dim>1</dim>
				</port>
			</output>
		</layer>
		<layer id="200" name="Reshape_1507" type="Convert" version="opset1">
			<data destination_type="f32"/>
			<rt_info>
				<attribute name="decompression" version="0"/>
			</rt_info>
			<input>
				<port id="0" precision="FP16">
					<dim>1</dim>
					<dim>160</dim>
					<dim>1</dim>
					<dim>1</dim>
				</port>
			</input>
			<output>
				<port id="1" precision="FP32">
					<dim>1</dim>
					<dim>160</dim>
					<dim>1</dim>
					<dim>1</dim>
				</port>
			</output>
		</layer>
		<layer id="201" name="onnx::Sigmoid_1685" type="Add" version="opset1">
			<data auto_broadcast="numpy"/>
			<rt_info>
				<attribute name="fused_names" version="0" value="Concat_1506, Reshape_1507, onnx::Sigmoid_1685"/>
			</rt_info>
			<input>
				<port id="0" precision="FP32">
					<dim>1</dim>
					<dim>160</dim>
					<dim>80</dim>
					<dim>80</dim>
				</port>
				<port id="1" precision="FP32">
					<dim>1</dim>
					<dim>160</dim>
					<dim>1</dim>
					<dim>1</dim>
				</port>
			</input>
			<output>
				<port id="2" precision="FP32" names="onnx::Sigmoid_1685">
					<dim>1</dim>
					<dim>160</dim>
					<dim>80</dim>
					<dim>80</dim>
				</port>
			</output>
		</layer>
		<layer id="202" name="onnx::Add_1039" type="Swish" version="opset4">
			<rt_info>
				<attribute name="fused_names" version="0" value="onnx::Add_1039, onnx::Mul_1038"/>
			</rt_info>
			<input>
				<port id="0" precision="FP32">
					<dim>1</dim>
					<dim>160</dim>
					<dim>80</dim>
					<dim>80</dim>
				</port>
			</input>
			<output>
				<port id="1" precision="FP32" names="onnx::Add_1039">
					<dim>1</dim>
					<dim>160</dim>
					<dim>80</dim>
					<dim>80</dim>
				</port>
			</output>
		</layer>
		<layer id="203" name="input.183" type="Add" version="opset1">
			<data auto_broadcast="numpy"/>
			<rt_info>
				<attribute name="fused_names" version="0" value="input.183"/>
			</rt_info>
			<input>
				<port id="0" precision="FP32">
					<dim>1</dim>
					<dim>160</dim>
					<dim>80</dim>
					<dim>80</dim>
				</port>
				<port id="1" precision="FP32">
					<dim>1</dim>
					<dim>160</dim>
					<dim>80</dim>
					<dim>80</dim>
				</port>
			</input>
			<output>
				<port id="2" precision="FP32" names="input.183">
					<dim>1</dim>
					<dim>160</dim>
					<dim>80</dim>
					<dim>80</dim>
				</port>
			</output>
		</layer>
		<layer id="204" name="onnx::Conv_1689_compressed" type="Const" version="opset1">
			<data element_type="f16" shape="160, 160, 1, 1" offset="3940224" size="51200"/>
			<output>
				<port id="0" precision="FP16">
					<dim>160</dim>
					<dim>160</dim>
					<dim>1</dim>
					<dim>1</dim>
				</port>
			</output>
		</layer>
		<layer id="205" name="onnx::Conv_1689" type="Convert" version="opset1">
			<data destination_type="f32"/>
			<rt_info>
				<attribute name="decompression" version="0"/>
				<attribute name="fused_names" version="0" value="onnx::Conv_1689"/>
			</rt_info>
			<input>
				<port id="0" precision="FP16">
					<dim>160</dim>
					<dim>160</dim>
					<dim>1</dim>
					<dim>1</dim>
				</port>
			</input>
			<output>
				<port id="1" precision="FP32" names="onnx::Conv_1689">
					<dim>160</dim>
					<dim>160</dim>
					<dim>1</dim>
					<dim>1</dim>
				</port>
			</output>
		</layer>
		<layer id="206" name="Convolution_1538" type="Convolution" version="opset1">
			<data strides="1, 1" dilations="1, 1" pads_begin="0, 0" pads_end="0, 0" auto_pad="explicit"/>
			<rt_info>
				<attribute name="fused_names" version="0" value="Convolution_1538"/>
			</rt_info>
			<input>
				<port id="0" precision="FP32">
					<dim>1</dim>
					<dim>160</dim>
					<dim>80</dim>
					<dim>80</dim>
				</port>
				<port id="1" precision="FP32">
					<dim>160</dim>
					<dim>160</dim>
					<dim>1</dim>
					<dim>1</dim>
				</port>
			</input>
			<output>
				<port id="2" precision="FP32">
					<dim>1</dim>
					<dim>160</dim>
					<dim>80</dim>
					<dim>80</dim>
				</port>
			</output>
		</layer>
		<layer id="207" name="Reshape_1558_compressed" type="Const" version="opset1">
			<data element_type="f16" shape="1, 160, 1, 1" offset="3991424" size="320"/>
			<output>
				<port id="0" precision="FP16">
					<dim>1</dim>
					<dim>160</dim>
					<dim>1</dim>
					<dim>1</dim>
				</port>
			</output>
		</layer>
		<layer id="208" name="Reshape_1558" type="Convert" version="opset1">
			<data destination_type="f32"/>
			<rt_info>
				<attribute name="decompression" version="0"/>
			</rt_info>
			<input>
				<port id="0" precision="FP16">
					<dim>1</dim>
					<dim>160</dim>
					<dim>1</dim>
					<dim>1</dim>
				</port>
			</input>
			<output>
				<port id="1" precision="FP32">
					<dim>1</dim>
					<dim>160</dim>
					<dim>1</dim>
					<dim>1</dim>
				</port>
			</output>
		</layer>
		<layer id="209" name="onnx::Sigmoid_1688" type="Add" version="opset1">
			<data auto_broadcast="numpy"/>
			<rt_info>
				<attribute name="fused_names" version="0" value="Concat_1557, Reshape_1558, onnx::Sigmoid_1688"/>
			</rt_info>
			<input>
				<port id="0" precision="FP32">
					<dim>1</dim>
					<dim>160</dim>
					<dim>80</dim>
					<dim>80</dim>
				</port>
				<port id="1" precision="FP32">
					<dim>1</dim>
					<dim>160</dim>
					<dim>1</dim>
					<dim>1</dim>
				</port>
			</input>
			<output>
				<port id="2" precision="FP32" names="onnx::Sigmoid_1688">
					<dim>1</dim>
					<dim>160</dim>
					<dim>80</dim>
					<dim>80</dim>
				</port>
			</output>
		</layer>
		<layer id="210" name="input.191" type="Swish" version="opset4">
			<rt_info>
				<attribute name="fused_names" version="0" value="input.191, onnx::Mul_1043"/>
			</rt_info>
			<input>
				<port id="0" precision="FP32">
					<dim>1</dim>
					<dim>160</dim>
					<dim>80</dim>
					<dim>80</dim>
				</port>
			</input>
			<output>
				<port id="1" precision="FP32" names="input.191">
					<dim>1</dim>
					<dim>160</dim>
					<dim>80</dim>
					<dim>80</dim>
				</port>
			</output>
		</layer>
		<layer id="211" name="onnx::Conv_1692_compressed" type="Const" version="opset1">
			<data element_type="f16" shape="160, 160, 3, 3" offset="3991744" size="460800"/>
			<output>
				<port id="0" precision="FP16">
					<dim>160</dim>
					<dim>160</dim>
					<dim>3</dim>
					<dim>3</dim>
				</port>
			</output>
		</layer>
		<layer id="212" name="onnx::Conv_1692" type="Convert" version="opset1">
			<data destination_type="f32"/>
			<rt_info>
				<attribute name="decompression" version="0"/>
				<attribute name="fused_names" version="0" value="onnx::Conv_1692"/>
			</rt_info>
			<input>
				<port id="0" precision="FP16">
					<dim>160</dim>
					<dim>160</dim>
					<dim>3</dim>
					<dim>3</dim>
				</port>
			</input>
			<output>
				<port id="1" precision="FP32" names="onnx::Conv_1692">
					<dim>160</dim>
					<dim>160</dim>
					<dim>3</dim>
					<dim>3</dim>
				</port>
			</output>
		</layer>
		<layer id="213" name="Convolution_1588" type="Convolution" version="opset1">
			<data strides="1, 1" dilations="1, 1" pads_begin="1, 1" pads_end="1, 1" auto_pad="explicit"/>
			<rt_info>
				<attribute name="fused_names" version="0" value="Convolution_1588"/>
			</rt_info>
			<input>
				<port id="0" precision="FP32">
					<dim>1</dim>
					<dim>160</dim>
					<dim>80</dim>
					<dim>80</dim>
				</port>
				<port id="1" precision="FP32">
					<dim>160</dim>
					<dim>160</dim>
					<dim>3</dim>
					<dim>3</dim>
				</port>
			</input>
			<output>
				<port id="2" precision="FP32">
					<dim>1</dim>
					<dim>160</dim>
					<dim>80</dim>
					<dim>80</dim>
				</port>
			</output>
		</layer>
		<layer id="214" name="Reshape_1608_compressed" type="Const" version="opset1">
			<data element_type="f16" shape="1, 160, 1, 1" offset="4452544" size="320"/>
			<output>
				<port id="0" precision="FP16">
					<dim>1</dim>
					<dim>160</dim>
					<dim>1</dim>
					<dim>1</dim>
				</port>
			</output>
		</layer>
		<layer id="215" name="Reshape_1608" type="Convert" version="opset1">
			<data destination_type="f32"/>
			<rt_info>
				<attribute name="decompression" version="0"/>
			</rt_info>
			<input>
				<port id="0" precision="FP16">
					<dim>1</dim>
					<dim>160</dim>
					<dim>1</dim>
					<dim>1</dim>
				</port>
			</input>
			<output>
				<port id="1" precision="FP32">
					<dim>1</dim>
					<dim>160</dim>
					<dim>1</dim>
					<dim>1</dim>
				</port>
			</output>
		</layer>
		<layer id="216" name="onnx::Sigmoid_1691" type="Add" version="opset1">
			<data auto_broadcast="numpy"/>
			<rt_info>
				<attribute name="fused_names" version="0" value="Concat_1607, Reshape_1608, onnx::Sigmoid_1691"/>
			</rt_info>
			<input>
				<port id="0" precision="FP32">
					<dim>1</dim>
					<dim>160</dim>
					<dim>80</dim>
					<dim>80</dim>
				</port>
				<port id="1" precision="FP32">
					<dim>1</dim>
					<dim>160</dim>
					<dim>1</dim>
					<dim>1</dim>
				</port>
			</input>
			<output>
				<port id="2" precision="FP32" names="onnx::Sigmoid_1691">
					<dim>1</dim>
					<dim>160</dim>
					<dim>80</dim>
					<dim>80</dim>
				</port>
			</output>
		</layer>
		<layer id="217" name="onnx::Add_1048" type="Swish" version="opset4">
			<rt_info>
				<attribute name="fused_names" version="0" value="onnx::Add_1048, onnx::Mul_1047"/>
			</rt_info>
			<input>
				<port id="0" precision="FP32">
					<dim>1</dim>
					<dim>160</dim>
					<dim>80</dim>
					<dim>80</dim>
				</port>
			</input>
			<output>
				<port id="1" precision="FP32" names="onnx::Add_1048">
					<dim>1</dim>
					<dim>160</dim>
					<dim>80</dim>
					<dim>80</dim>
				</port>
			</output>
		</layer>
		<layer id="218" name="input.199" type="Add" version="opset1">
			<data auto_broadcast="numpy"/>
			<rt_info>
				<attribute name="fused_names" version="0" value="input.199"/>
			</rt_info>
			<input>
				<port id="0" precision="FP32">
					<dim>1</dim>
					<dim>160</dim>
					<dim>80</dim>
					<dim>80</dim>
				</port>
				<port id="1" precision="FP32">
					<dim>1</dim>
					<dim>160</dim>
					<dim>80</dim>
					<dim>80</dim>
				</port>
			</input>
			<output>
				<port id="2" precision="FP32" names="input.199">
					<dim>1</dim>
					<dim>160</dim>
					<dim>80</dim>
					<dim>80</dim>
				</port>
			</output>
		</layer>
		<layer id="219" name="onnx::Conv_1695_compressed" type="Const" version="opset1">
			<data element_type="f16" shape="160, 160, 1, 1" offset="4452864" size="51200"/>
			<output>
				<port id="0" precision="FP16">
					<dim>160</dim>
					<dim>160</dim>
					<dim>1</dim>
					<dim>1</dim>
				</port>
			</output>
		</layer>
		<layer id="220" name="onnx::Conv_1695" type="Convert" version="opset1">
			<data destination_type="f32"/>
			<rt_info>
				<attribute name="decompression" version="0"/>
				<attribute name="fused_names" version="0" value="onnx::Conv_1695"/>
			</rt_info>
			<input>
				<port id="0" precision="FP16">
					<dim>160</dim>
					<dim>160</dim>
					<dim>1</dim>
					<dim>1</dim>
				</port>
			</input>
			<output>
				<port id="1" precision="FP32" names="onnx::Conv_1695">
					<dim>160</dim>
					<dim>160</dim>
					<dim>1</dim>
					<dim>1</dim>
				</port>
			</output>
		</layer>
		<layer id="221" name="Convolution_1639" type="Convolution" version="opset1">
			<data strides="1, 1" dilations="1, 1" pads_begin="0, 0" pads_end="0, 0" auto_pad="explicit"/>
			<rt_info>
				<attribute name="fused_names" version="0" value="Convolution_1639"/>
			</rt_info>
			<input>
				<port id="0" precision="FP32">
					<dim>1</dim>
					<dim>160</dim>
					<dim>80</dim>
					<dim>80</dim>
				</port>
				<port id="1" precision="FP32">
					<dim>160</dim>
					<dim>160</dim>
					<dim>1</dim>
					<dim>1</dim>
				</port>
			</input>
			<output>
				<port id="2" precision="FP32">
					<dim>1</dim>
					<dim>160</dim>
					<dim>80</dim>
					<dim>80</dim>
				</port>
			</output>
		</layer>
		<layer id="222" name="Reshape_1659_compressed" type="Const" version="opset1">
			<data element_type="f16" shape="1, 160, 1, 1" offset="4504064" size="320"/>
			<output>
				<port id="0" precision="FP16">
					<dim>1</dim>
					<dim>160</dim>
					<dim>1</dim>
					<dim>1</dim>
				</port>
			</output>
		</layer>
		<layer id="223" name="Reshape_1659" type="Convert" version="opset1">
			<data destination_type="f32"/>
			<rt_info>
				<attribute name="decompression" version="0"/>
			</rt_info>
			<input>
				<port id="0" precision="FP16">
					<dim>1</dim>
					<dim>160</dim>
					<dim>1</dim>
					<dim>1</dim>
				</port>
			</input>
			<output>
				<port id="1" precision="FP32">
					<dim>1</dim>
					<dim>160</dim>
					<dim>1</dim>
					<dim>1</dim>
				</port>
			</output>
		</layer>
		<layer id="224" name="onnx::Sigmoid_1694" type="Add" version="opset1">
			<data auto_broadcast="numpy"/>
			<rt_info>
				<attribute name="fused_names" version="0" value="Concat_1658, Reshape_1659, onnx::Sigmoid_1694"/>
			</rt_info>
			<input>
				<port id="0" precision="FP32">
					<dim>1</dim>
					<dim>160</dim>
					<dim>80</dim>
					<dim>80</dim>
				</port>
				<port id="1" precision="FP32">
					<dim>1</dim>
					<dim>160</dim>
					<dim>1</dim>
					<dim>1</dim>
				</port>
			</input>
			<output>
				<port id="2" precision="FP32" names="onnx::Sigmoid_1694">
					<dim>1</dim>
					<dim>160</dim>
					<dim>80</dim>
					<dim>80</dim>
				</port>
			</output>
		</layer>
		<layer id="225" name="input.207" type="Swish" version="opset4">
			<rt_info>
				<attribute name="fused_names" version="0" value="input.207, onnx::Mul_1052"/>
			</rt_info>
			<input>
				<port id="0" precision="FP32">
					<dim>1</dim>
					<dim>160</dim>
					<dim>80</dim>
					<dim>80</dim>
				</port>
			</input>
			<output>
				<port id="1" precision="FP32" names="input.207">
					<dim>1</dim>
					<dim>160</dim>
					<dim>80</dim>
					<dim>80</dim>
				</port>
			</output>
		</layer>
		<layer id="226" name="onnx::Conv_1698_compressed" type="Const" version="opset1">
			<data element_type="f16" shape="160, 160, 3, 3" offset="4504384" size="460800"/>
			<output>
				<port id="0" precision="FP16">
					<dim>160</dim>
					<dim>160</dim>
					<dim>3</dim>
					<dim>3</dim>
				</port>
			</output>
		</layer>
		<layer id="227" name="onnx::Conv_1698" type="Convert" version="opset1">
			<data destination_type="f32"/>
			<rt_info>
				<attribute name="decompression" version="0"/>
				<attribute name="fused_names" version="0" value="onnx::Conv_1698"/>
			</rt_info>
			<input>
				<port id="0" precision="FP16">
					<dim>160</dim>
					<dim>160</dim>
					<dim>3</dim>
					<dim>3</dim>
				</port>
			</input>
			<output>
				<port id="1" precision="FP32" names="onnx::Conv_1698">
					<dim>160</dim>
					<dim>160</dim>
					<dim>3</dim>
					<dim>3</dim>
				</port>
			</output>
		</layer>
		<layer id="228" name="Convolution_1689" type="Convolution" version="opset1">
			<data strides="1, 1" dilations="1, 1" pads_begin="1, 1" pads_end="1, 1" auto_pad="explicit"/>
			<rt_info>
				<attribute name="fused_names" version="0" value="Convolution_1689"/>
			</rt_info>
			<input>
				<port id="0" precision="FP32">
					<dim>1</dim>
					<dim>160</dim>
					<dim>80</dim>
					<dim>80</dim>
				</port>
				<port id="1" precision="FP32">
					<dim>160</dim>
					<dim>160</dim>
					<dim>3</dim>
					<dim>3</dim>
				</port>
			</input>
			<output>
				<port id="2" precision="FP32">
					<dim>1</dim>
					<dim>160</dim>
					<dim>80</dim>
					<dim>80</dim>
				</port>
			</output>
		</layer>
		<layer id="229" name="Reshape_1709_compressed" type="Const" version="opset1">
			<data element_type="f16" shape="1, 160, 1, 1" offset="4965184" size="320"/>
			<output>
				<port id="0" precision="FP16">
					<dim>1</dim>
					<dim>160</dim>
					<dim>1</dim>
					<dim>1</dim>
				</port>
			</output>
		</layer>
		<layer id="230" name="Reshape_1709" type="Convert" version="opset1">
			<data destination_type="f32"/>
			<rt_info>
				<attribute name="decompression" version="0"/>
			</rt_info>
			<input>
				<port id="0" precision="FP16">
					<dim>1</dim>
					<dim>160</dim>
					<dim>1</dim>
					<dim>1</dim>
				</port>
			</input>
			<output>
				<port id="1" precision="FP32">
					<dim>1</dim>
					<dim>160</dim>
					<dim>1</dim>
					<dim>1</dim>
				</port>
			</output>
		</layer>
		<layer id="231" name="onnx::Sigmoid_1697" type="Add" version="opset1">
			<data auto_broadcast="numpy"/>
			<rt_info>
				<attribute name="fused_names" version="0" value="Concat_1708, Reshape_1709, onnx::Sigmoid_1697"/>
			</rt_info>
			<input>
				<port id="0" precision="FP32">
					<dim>1</dim>
					<dim>160</dim>
					<dim>80</dim>
					<dim>80</dim>
				</port>
				<port id="1" precision="FP32">
					<dim>1</dim>
					<dim>160</dim>
					<dim>1</dim>
					<dim>1</dim>
				</port>
			</input>
			<output>
				<port id="2" precision="FP32" names="onnx::Sigmoid_1697">
					<dim>1</dim>
					<dim>160</dim>
					<dim>80</dim>
					<dim>80</dim>
				</port>
			</output>
		</layer>
		<layer id="232" name="onnx::Add_1057" type="Swish" version="opset4">
			<rt_info>
				<attribute name="fused_names" version="0" value="onnx::Add_1057, onnx::Mul_1056"/>
			</rt_info>
			<input>
				<port id="0" precision="FP32">
					<dim>1</dim>
					<dim>160</dim>
					<dim>80</dim>
					<dim>80</dim>
				</port>
			</input>
			<output>
				<port id="1" precision="FP32" names="onnx::Add_1057">
					<dim>1</dim>
					<dim>160</dim>
					<dim>80</dim>
					<dim>80</dim>
				</port>
			</output>
		</layer>
		<layer id="233" name="input.215" type="Add" version="opset1">
			<data auto_broadcast="numpy"/>
			<rt_info>
				<attribute name="fused_names" version="0" value="input.215"/>
			</rt_info>
			<input>
				<port id="0" precision="FP32">
					<dim>1</dim>
					<dim>160</dim>
					<dim>80</dim>
					<dim>80</dim>
				</port>
				<port id="1" precision="FP32">
					<dim>1</dim>
					<dim>160</dim>
					<dim>80</dim>
					<dim>80</dim>
				</port>
			</input>
			<output>
				<port id="2" precision="FP32" names="input.215">
					<dim>1</dim>
					<dim>160</dim>
					<dim>80</dim>
					<dim>80</dim>
				</port>
			</output>
		</layer>
		<layer id="234" name="onnx::Conv_1701_compressed" type="Const" version="opset1">
			<data element_type="f16" shape="160, 160, 1, 1" offset="4965504" size="51200"/>
			<output>
				<port id="0" precision="FP16">
					<dim>160</dim>
					<dim>160</dim>
					<dim>1</dim>
					<dim>1</dim>
				</port>
			</output>
		</layer>
		<layer id="235" name="onnx::Conv_1701" type="Convert" version="opset1">
			<data destination_type="f32"/>
			<rt_info>
				<attribute name="decompression" version="0"/>
				<attribute name="fused_names" version="0" value="onnx::Conv_1701"/>
			</rt_info>
			<input>
				<port id="0" precision="FP16">
					<dim>160</dim>
					<dim>160</dim>
					<dim>1</dim>
					<dim>1</dim>
				</port>
			</input>
			<output>
				<port id="1" precision="FP32" names="onnx::Conv_1701">
					<dim>160</dim>
					<dim>160</dim>
					<dim>1</dim>
					<dim>1</dim>
				</port>
			</output>
		</layer>
		<layer id="236" name="Convolution_1740" type="Convolution" version="opset1">
			<data strides="1, 1" dilations="1, 1" pads_begin="0, 0" pads_end="0, 0" auto_pad="explicit"/>
			<rt_info>
				<attribute name="fused_names" version="0" value="Convolution_1740"/>
			</rt_info>
			<input>
				<port id="0" precision="FP32">
					<dim>1</dim>
					<dim>160</dim>
					<dim>80</dim>
					<dim>80</dim>
				</port>
				<port id="1" precision="FP32">
					<dim>160</dim>
					<dim>160</dim>
					<dim>1</dim>
					<dim>1</dim>
				</port>
			</input>
			<output>
				<port id="2" precision="FP32">
					<dim>1</dim>
					<dim>160</dim>
					<dim>80</dim>
					<dim>80</dim>
				</port>
			</output>
		</layer>
		<layer id="237" name="Reshape_1760_compressed" type="Const" version="opset1">
			<data element_type="f16" shape="1, 160, 1, 1" offset="5016704" size="320"/>
			<output>
				<port id="0" precision="FP16">
					<dim>1</dim>
					<dim>160</dim>
					<dim>1</dim>
					<dim>1</dim>
				</port>
			</output>
		</layer>
		<layer id="238" name="Reshape_1760" type="Convert" version="opset1">
			<data destination_type="f32"/>
			<rt_info>
				<attribute name="decompression" version="0"/>
			</rt_info>
			<input>
				<port id="0" precision="FP16">
					<dim>1</dim>
					<dim>160</dim>
					<dim>1</dim>
					<dim>1</dim>
				</port>
			</input>
			<output>
				<port id="1" precision="FP32">
					<dim>1</dim>
					<dim>160</dim>
					<dim>1</dim>
					<dim>1</dim>
				</port>
			</output>
		</layer>
		<layer id="239" name="onnx::Sigmoid_1700" type="Add" version="opset1">
			<data auto_broadcast="numpy"/>
			<rt_info>
				<attribute name="fused_names" version="0" value="Concat_1759, Reshape_1760, onnx::Sigmoid_1700"/>
			</rt_info>
			<input>
				<port id="0" precision="FP32">
					<dim>1</dim>
					<dim>160</dim>
					<dim>80</dim>
					<dim>80</dim>
				</port>
				<port id="1" precision="FP32">
					<dim>1</dim>
					<dim>160</dim>
					<dim>1</dim>
					<dim>1</dim>
				</port>
			</input>
			<output>
				<port id="2" precision="FP32" names="onnx::Sigmoid_1700">
					<dim>1</dim>
					<dim>160</dim>
					<dim>80</dim>
					<dim>80</dim>
				</port>
			</output>
		</layer>
		<layer id="240" name="input.223" type="Swish" version="opset4">
			<rt_info>
				<attribute name="fused_names" version="0" value="input.223, onnx::Mul_1061"/>
			</rt_info>
			<input>
				<port id="0" precision="FP32">
					<dim>1</dim>
					<dim>160</dim>
					<dim>80</dim>
					<dim>80</dim>
				</port>
			</input>
			<output>
				<port id="1" precision="FP32" names="input.223">
					<dim>1</dim>
					<dim>160</dim>
					<dim>80</dim>
					<dim>80</dim>
				</port>
			</output>
		</layer>
		<layer id="241" name="onnx::Conv_1704_compressed" type="Const" version="opset1">
			<data element_type="f16" shape="160, 160, 3, 3" offset="5017024" size="460800"/>
			<output>
				<port id="0" precision="FP16">
					<dim>160</dim>
					<dim>160</dim>
					<dim>3</dim>
					<dim>3</dim>
				</port>
			</output>
		</layer>
		<layer id="242" name="onnx::Conv_1704" type="Convert" version="opset1">
			<data destination_type="f32"/>
			<rt_info>
				<attribute name="decompression" version="0"/>
				<attribute name="fused_names" version="0" value="onnx::Conv_1704"/>
			</rt_info>
			<input>
				<port id="0" precision="FP16">
					<dim>160</dim>
					<dim>160</dim>
					<dim>3</dim>
					<dim>3</dim>
				</port>
			</input>
			<output>
				<port id="1" precision="FP32" names="onnx::Conv_1704">
					<dim>160</dim>
					<dim>160</dim>
					<dim>3</dim>
					<dim>3</dim>
				</port>
			</output>
		</layer>
		<layer id="243" name="Convolution_1790" type="Convolution" version="opset1">
			<data strides="1, 1" dilations="1, 1" pads_begin="1, 1" pads_end="1, 1" auto_pad="explicit"/>
			<rt_info>
				<attribute name="fused_names" version="0" value="Convolution_1790"/>
			</rt_info>
			<input>
				<port id="0" precision="FP32">
					<dim>1</dim>
					<dim>160</dim>
					<dim>80</dim>
					<dim>80</dim>
				</port>
				<port id="1" precision="FP32">
					<dim>160</dim>
					<dim>160</dim>
					<dim>3</dim>
					<dim>3</dim>
				</port>
			</input>
			<output>
				<port id="2" precision="FP32">
					<dim>1</dim>
					<dim>160</dim>
					<dim>80</dim>
					<dim>80</dim>
				</port>
			</output>
		</layer>
		<layer id="244" name="Reshape_1810_compressed" type="Const" version="opset1">
			<data element_type="f16" shape="1, 160, 1, 1" offset="5477824" size="320"/>
			<output>
				<port id="0" precision="FP16">
					<dim>1</dim>
					<dim>160</dim>
					<dim>1</dim>
					<dim>1</dim>
				</port>
			</output>
		</layer>
		<layer id="245" name="Reshape_1810" type="Convert" version="opset1">
			<data destination_type="f32"/>
			<rt_info>
				<attribute name="decompression" version="0"/>
			</rt_info>
			<input>
				<port id="0" precision="FP16">
					<dim>1</dim>
					<dim>160</dim>
					<dim>1</dim>
					<dim>1</dim>
				</port>
			</input>
			<output>
				<port id="1" precision="FP32">
					<dim>1</dim>
					<dim>160</dim>
					<dim>1</dim>
					<dim>1</dim>
				</port>
			</output>
		</layer>
		<layer id="246" name="onnx::Sigmoid_1703" type="Add" version="opset1">
			<data auto_broadcast="numpy"/>
			<rt_info>
				<attribute name="fused_names" version="0" value="Concat_1809, Reshape_1810, onnx::Sigmoid_1703"/>
			</rt_info>
			<input>
				<port id="0" precision="FP32">
					<dim>1</dim>
					<dim>160</dim>
					<dim>80</dim>
					<dim>80</dim>
				</port>
				<port id="1" precision="FP32">
					<dim>1</dim>
					<dim>160</dim>
					<dim>1</dim>
					<dim>1</dim>
				</port>
			</input>
			<output>
				<port id="2" precision="FP32" names="onnx::Sigmoid_1703">
					<dim>1</dim>
					<dim>160</dim>
					<dim>80</dim>
					<dim>80</dim>
				</port>
			</output>
		</layer>
		<layer id="247" name="onnx::Add_1066" type="Swish" version="opset4">
			<rt_info>
				<attribute name="fused_names" version="0" value="onnx::Add_1066, onnx::Mul_1065"/>
			</rt_info>
			<input>
				<port id="0" precision="FP32">
					<dim>1</dim>
					<dim>160</dim>
					<dim>80</dim>
					<dim>80</dim>
				</port>
			</input>
			<output>
				<port id="1" precision="FP32" names="onnx::Add_1066">
					<dim>1</dim>
					<dim>160</dim>
					<dim>80</dim>
					<dim>80</dim>
				</port>
			</output>
		</layer>
		<layer id="248" name="input.231" type="Add" version="opset1">
			<data auto_broadcast="numpy"/>
			<rt_info>
				<attribute name="fused_names" version="0" value="input.231"/>
			</rt_info>
			<input>
				<port id="0" precision="FP32">
					<dim>1</dim>
					<dim>160</dim>
					<dim>80</dim>
					<dim>80</dim>
				</port>
				<port id="1" precision="FP32">
					<dim>1</dim>
					<dim>160</dim>
					<dim>80</dim>
					<dim>80</dim>
				</port>
			</input>
			<output>
				<port id="2" precision="FP32" names="input.231">
					<dim>1</dim>
					<dim>160</dim>
					<dim>80</dim>
					<dim>80</dim>
				</port>
			</output>
		</layer>
		<layer id="249" name="onnx::Conv_1707_compressed" type="Const" version="opset1">
			<data element_type="f16" shape="160, 160, 1, 1" offset="5478144" size="51200"/>
			<output>
				<port id="0" precision="FP16">
					<dim>160</dim>
					<dim>160</dim>
					<dim>1</dim>
					<dim>1</dim>
				</port>
			</output>
		</layer>
		<layer id="250" name="onnx::Conv_1707" type="Convert" version="opset1">
			<data destination_type="f32"/>
			<rt_info>
				<attribute name="decompression" version="0"/>
				<attribute name="fused_names" version="0" value="onnx::Conv_1707"/>
			</rt_info>
			<input>
				<port id="0" precision="FP16">
					<dim>160</dim>
					<dim>160</dim>
					<dim>1</dim>
					<dim>1</dim>
				</port>
			</input>
			<output>
				<port id="1" precision="FP32" names="onnx::Conv_1707">
					<dim>160</dim>
					<dim>160</dim>
					<dim>1</dim>
					<dim>1</dim>
				</port>
			</output>
		</layer>
		<layer id="251" name="Convolution_1841" type="Convolution" version="opset1">
			<data strides="1, 1" dilations="1, 1" pads_begin="0, 0" pads_end="0, 0" auto_pad="explicit"/>
			<rt_info>
				<attribute name="fused_names" version="0" value="Convolution_1841"/>
			</rt_info>
			<input>
				<port id="0" precision="FP32">
					<dim>1</dim>
					<dim>160</dim>
					<dim>80</dim>
					<dim>80</dim>
				</port>
				<port id="1" precision="FP32">
					<dim>160</dim>
					<dim>160</dim>
					<dim>1</dim>
					<dim>1</dim>
				</port>
			</input>
			<output>
				<port id="2" precision="FP32">
					<dim>1</dim>
					<dim>160</dim>
					<dim>80</dim>
					<dim>80</dim>
				</port>
			</output>
		</layer>
		<layer id="252" name="Reshape_1861_compressed" type="Const" version="opset1">
			<data element_type="f16" shape="1, 160, 1, 1" offset="5529344" size="320"/>
			<output>
				<port id="0" precision="FP16">
					<dim>1</dim>
					<dim>160</dim>
					<dim>1</dim>
					<dim>1</dim>
				</port>
			</output>
		</layer>
		<layer id="253" name="Reshape_1861" type="Convert" version="opset1">
			<data destination_type="f32"/>
			<rt_info>
				<attribute name="decompression" version="0"/>
			</rt_info>
			<input>
				<port id="0" precision="FP16">
					<dim>1</dim>
					<dim>160</dim>
					<dim>1</dim>
					<dim>1</dim>
				</port>
			</input>
			<output>
				<port id="1" precision="FP32">
					<dim>1</dim>
					<dim>160</dim>
					<dim>1</dim>
					<dim>1</dim>
				</port>
			</output>
		</layer>
		<layer id="254" name="onnx::Sigmoid_1706" type="Add" version="opset1">
			<data auto_broadcast="numpy"/>
			<rt_info>
				<attribute name="fused_names" version="0" value="Concat_1860, Reshape_1861, onnx::Sigmoid_1706"/>
			</rt_info>
			<input>
				<port id="0" precision="FP32">
					<dim>1</dim>
					<dim>160</dim>
					<dim>80</dim>
					<dim>80</dim>
				</port>
				<port id="1" precision="FP32">
					<dim>1</dim>
					<dim>160</dim>
					<dim>1</dim>
					<dim>1</dim>
				</port>
			</input>
			<output>
				<port id="2" precision="FP32" names="onnx::Sigmoid_1706">
					<dim>1</dim>
					<dim>160</dim>
					<dim>80</dim>
					<dim>80</dim>
				</port>
			</output>
		</layer>
		<layer id="255" name="input.239" type="Swish" version="opset4">
			<rt_info>
				<attribute name="fused_names" version="0" value="input.239, onnx::Mul_1070"/>
			</rt_info>
			<input>
				<port id="0" precision="FP32">
					<dim>1</dim>
					<dim>160</dim>
					<dim>80</dim>
					<dim>80</dim>
				</port>
			</input>
			<output>
				<port id="1" precision="FP32" names="input.239">
					<dim>1</dim>
					<dim>160</dim>
					<dim>80</dim>
					<dim>80</dim>
				</port>
			</output>
		</layer>
		<layer id="256" name="onnx::Conv_1710_compressed" type="Const" version="opset1">
			<data element_type="f16" shape="160, 160, 3, 3" offset="5529664" size="460800"/>
			<output>
				<port id="0" precision="FP16">
					<dim>160</dim>
					<dim>160</dim>
					<dim>3</dim>
					<dim>3</dim>
				</port>
			</output>
		</layer>
		<layer id="257" name="onnx::Conv_1710" type="Convert" version="opset1">
			<data destination_type="f32"/>
			<rt_info>
				<attribute name="decompression" version="0"/>
				<attribute name="fused_names" version="0" value="onnx::Conv_1710"/>
			</rt_info>
			<input>
				<port id="0" precision="FP16">
					<dim>160</dim>
					<dim>160</dim>
					<dim>3</dim>
					<dim>3</dim>
				</port>
			</input>
			<output>
				<port id="1" precision="FP32" names="onnx::Conv_1710">
					<dim>160</dim>
					<dim>160</dim>
					<dim>3</dim>
					<dim>3</dim>
				</port>
			</output>
		</layer>
		<layer id="258" name="Convolution_1891" type="Convolution" version="opset1">
			<data strides="1, 1" dilations="1, 1" pads_begin="1, 1" pads_end="1, 1" auto_pad="explicit"/>
			<rt_info>
				<attribute name="fused_names" version="0" value="Convolution_1891"/>
			</rt_info>
			<input>
				<port id="0" precision="FP32">
					<dim>1</dim>
					<dim>160</dim>
					<dim>80</dim>
					<dim>80</dim>
				</port>
				<port id="1" precision="FP32">
					<dim>160</dim>
					<dim>160</dim>
					<dim>3</dim>
					<dim>3</dim>
				</port>
			</input>
			<output>
				<port id="2" precision="FP32">
					<dim>1</dim>
					<dim>160</dim>
					<dim>80</dim>
					<dim>80</dim>
				</port>
			</output>
		</layer>
		<layer id="259" name="Reshape_1911_compressed" type="Const" version="opset1">
			<data element_type="f16" shape="1, 160, 1, 1" offset="5990464" size="320"/>
			<output>
				<port id="0" precision="FP16">
					<dim>1</dim>
					<dim>160</dim>
					<dim>1</dim>
					<dim>1</dim>
				</port>
			</output>
		</layer>
		<layer id="260" name="Reshape_1911" type="Convert" version="opset1">
			<data destination_type="f32"/>
			<rt_info>
				<attribute name="decompression" version="0"/>
			</rt_info>
			<input>
				<port id="0" precision="FP16">
					<dim>1</dim>
					<dim>160</dim>
					<dim>1</dim>
					<dim>1</dim>
				</port>
			</input>
			<output>
				<port id="1" precision="FP32">
					<dim>1</dim>
					<dim>160</dim>
					<dim>1</dim>
					<dim>1</dim>
				</port>
			</output>
		</layer>
		<layer id="261" name="onnx::Sigmoid_1709" type="Add" version="opset1">
			<data auto_broadcast="numpy"/>
			<rt_info>
				<attribute name="fused_names" version="0" value="Concat_1910, Reshape_1911, onnx::Sigmoid_1709"/>
			</rt_info>
			<input>
				<port id="0" precision="FP32">
					<dim>1</dim>
					<dim>160</dim>
					<dim>80</dim>
					<dim>80</dim>
				</port>
				<port id="1" precision="FP32">
					<dim>1</dim>
					<dim>160</dim>
					<dim>1</dim>
					<dim>1</dim>
				</port>
			</input>
			<output>
				<port id="2" precision="FP32" names="onnx::Sigmoid_1709">
					<dim>1</dim>
					<dim>160</dim>
					<dim>80</dim>
					<dim>80</dim>
				</port>
			</output>
		</layer>
		<layer id="262" name="onnx::Add_1075" type="Swish" version="opset4">
			<rt_info>
				<attribute name="fused_names" version="0" value="onnx::Add_1075, onnx::Mul_1074"/>
			</rt_info>
			<input>
				<port id="0" precision="FP32">
					<dim>1</dim>
					<dim>160</dim>
					<dim>80</dim>
					<dim>80</dim>
				</port>
			</input>
			<output>
				<port id="1" precision="FP32" names="onnx::Add_1075">
					<dim>1</dim>
					<dim>160</dim>
					<dim>80</dim>
					<dim>80</dim>
				</port>
			</output>
		</layer>
		<layer id="263" name="input.247" type="Add" version="opset1">
			<data auto_broadcast="numpy"/>
			<rt_info>
				<attribute name="fused_names" version="0" value="input.247"/>
			</rt_info>
			<input>
				<port id="0" precision="FP32">
					<dim>1</dim>
					<dim>160</dim>
					<dim>80</dim>
					<dim>80</dim>
				</port>
				<port id="1" precision="FP32">
					<dim>1</dim>
					<dim>160</dim>
					<dim>80</dim>
					<dim>80</dim>
				</port>
			</input>
			<output>
				<port id="2" precision="FP32" names="input.247">
					<dim>1</dim>
					<dim>160</dim>
					<dim>80</dim>
					<dim>80</dim>
				</port>
			</output>
		</layer>
		<layer id="264" name="onnx::Conv_1713_compressed" type="Const" version="opset1">
			<data element_type="f16" shape="160, 160, 1, 1" offset="5990784" size="51200"/>
			<output>
				<port id="0" precision="FP16">
					<dim>160</dim>
					<dim>160</dim>
					<dim>1</dim>
					<dim>1</dim>
				</port>
			</output>
		</layer>
		<layer id="265" name="onnx::Conv_1713" type="Convert" version="opset1">
			<data destination_type="f32"/>
			<rt_info>
				<attribute name="decompression" version="0"/>
				<attribute name="fused_names" version="0" value="onnx::Conv_1713"/>
			</rt_info>
			<input>
				<port id="0" precision="FP16">
					<dim>160</dim>
					<dim>160</dim>
					<dim>1</dim>
					<dim>1</dim>
				</port>
			</input>
			<output>
				<port id="1" precision="FP32" names="onnx::Conv_1713">
					<dim>160</dim>
					<dim>160</dim>
					<dim>1</dim>
					<dim>1</dim>
				</port>
			</output>
		</layer>
		<layer id="266" name="Convolution_1942" type="Convolution" version="opset1">
			<data strides="1, 1" dilations="1, 1" pads_begin="0, 0" pads_end="0, 0" auto_pad="explicit"/>
			<rt_info>
				<attribute name="fused_names" version="0" value="Convolution_1942"/>
			</rt_info>
			<input>
				<port id="0" precision="FP32">
					<dim>1</dim>
					<dim>160</dim>
					<dim>80</dim>
					<dim>80</dim>
				</port>
				<port id="1" precision="FP32">
					<dim>160</dim>
					<dim>160</dim>
					<dim>1</dim>
					<dim>1</dim>
				</port>
			</input>
			<output>
				<port id="2" precision="FP32">
					<dim>1</dim>
					<dim>160</dim>
					<dim>80</dim>
					<dim>80</dim>
				</port>
			</output>
		</layer>
		<layer id="267" name="Reshape_1962_compressed" type="Const" version="opset1">
			<data element_type="f16" shape="1, 160, 1, 1" offset="6041984" size="320"/>
			<output>
				<port id="0" precision="FP16">
					<dim>1</dim>
					<dim>160</dim>
					<dim>1</dim>
					<dim>1</dim>
				</port>
			</output>
		</layer>
		<layer id="268" name="Reshape_1962" type="Convert" version="opset1">
			<data destination_type="f32"/>
			<rt_info>
				<attribute name="decompression" version="0"/>
			</rt_info>
			<input>
				<port id="0" precision="FP16">
					<dim>1</dim>
					<dim>160</dim>
					<dim>1</dim>
					<dim>1</dim>
				</port>
			</input>
			<output>
				<port id="1" precision="FP32">
					<dim>1</dim>
					<dim>160</dim>
					<dim>1</dim>
					<dim>1</dim>
				</port>
			</output>
		</layer>
		<layer id="269" name="onnx::Sigmoid_1712" type="Add" version="opset1">
			<data auto_broadcast="numpy"/>
			<rt_info>
				<attribute name="fused_names" version="0" value="Concat_1961, Reshape_1962, onnx::Sigmoid_1712"/>
			</rt_info>
			<input>
				<port id="0" precision="FP32">
					<dim>1</dim>
					<dim>160</dim>
					<dim>80</dim>
					<dim>80</dim>
				</port>
				<port id="1" precision="FP32">
					<dim>1</dim>
					<dim>160</dim>
					<dim>1</dim>
					<dim>1</dim>
				</port>
			</input>
			<output>
				<port id="2" precision="FP32" names="onnx::Sigmoid_1712">
					<dim>1</dim>
					<dim>160</dim>
					<dim>80</dim>
					<dim>80</dim>
				</port>
			</output>
		</layer>
		<layer id="270" name="input.255" type="Swish" version="opset4">
			<rt_info>
				<attribute name="fused_names" version="0" value="input.255, onnx::Mul_1079"/>
			</rt_info>
			<input>
				<port id="0" precision="FP32">
					<dim>1</dim>
					<dim>160</dim>
					<dim>80</dim>
					<dim>80</dim>
				</port>
			</input>
			<output>
				<port id="1" precision="FP32" names="input.255">
					<dim>1</dim>
					<dim>160</dim>
					<dim>80</dim>
					<dim>80</dim>
				</port>
			</output>
		</layer>
		<layer id="271" name="onnx::Conv_1716_compressed" type="Const" version="opset1">
			<data element_type="f16" shape="160, 160, 3, 3" offset="6042304" size="460800"/>
			<output>
				<port id="0" precision="FP16">
					<dim>160</dim>
					<dim>160</dim>
					<dim>3</dim>
					<dim>3</dim>
				</port>
			</output>
		</layer>
		<layer id="272" name="onnx::Conv_1716" type="Convert" version="opset1">
			<data destination_type="f32"/>
			<rt_info>
				<attribute name="decompression" version="0"/>
				<attribute name="fused_names" version="0" value="onnx::Conv_1716"/>
			</rt_info>
			<input>
				<port id="0" precision="FP16">
					<dim>160</dim>
					<dim>160</dim>
					<dim>3</dim>
					<dim>3</dim>
				</port>
			</input>
			<output>
				<port id="1" precision="FP32" names="onnx::Conv_1716">
					<dim>160</dim>
					<dim>160</dim>
					<dim>3</dim>
					<dim>3</dim>
				</port>
			</output>
		</layer>
		<layer id="273" name="Convolution_1992" type="Convolution" version="opset1">
			<data strides="1, 1" dilations="1, 1" pads_begin="1, 1" pads_end="1, 1" auto_pad="explicit"/>
			<rt_info>
				<attribute name="fused_names" version="0" value="Convolution_1992"/>
			</rt_info>
			<input>
				<port id="0" precision="FP32">
					<dim>1</dim>
					<dim>160</dim>
					<dim>80</dim>
					<dim>80</dim>
				</port>
				<port id="1" precision="FP32">
					<dim>160</dim>
					<dim>160</dim>
					<dim>3</dim>
					<dim>3</dim>
				</port>
			</input>
			<output>
				<port id="2" precision="FP32">
					<dim>1</dim>
					<dim>160</dim>
					<dim>80</dim>
					<dim>80</dim>
				</port>
			</output>
		</layer>
		<layer id="274" name="Reshape_2012_compressed" type="Const" version="opset1">
			<data element_type="f16" shape="1, 160, 1, 1" offset="6503104" size="320"/>
			<output>
				<port id="0" precision="FP16">
					<dim>1</dim>
					<dim>160</dim>
					<dim>1</dim>
					<dim>1</dim>
				</port>
			</output>
		</layer>
		<layer id="275" name="Reshape_2012" type="Convert" version="opset1">
			<data destination_type="f32"/>
			<rt_info>
				<attribute name="decompression" version="0"/>
			</rt_info>
			<input>
				<port id="0" precision="FP16">
					<dim>1</dim>
					<dim>160</dim>
					<dim>1</dim>
					<dim>1</dim>
				</port>
			</input>
			<output>
				<port id="1" precision="FP32">
					<dim>1</dim>
					<dim>160</dim>
					<dim>1</dim>
					<dim>1</dim>
				</port>
			</output>
		</layer>
		<layer id="276" name="onnx::Sigmoid_1715" type="Add" version="opset1">
			<data auto_broadcast="numpy"/>
			<rt_info>
				<attribute name="fused_names" version="0" value="Concat_2011, Reshape_2012, onnx::Sigmoid_1715"/>
			</rt_info>
			<input>
				<port id="0" precision="FP32">
					<dim>1</dim>
					<dim>160</dim>
					<dim>80</dim>
					<dim>80</dim>
				</port>
				<port id="1" precision="FP32">
					<dim>1</dim>
					<dim>160</dim>
					<dim>1</dim>
					<dim>1</dim>
				</port>
			</input>
			<output>
				<port id="2" precision="FP32" names="onnx::Sigmoid_1715">
					<dim>1</dim>
					<dim>160</dim>
					<dim>80</dim>
					<dim>80</dim>
				</port>
			</output>
		</layer>
		<layer id="277" name="onnx::Add_1084" type="Swish" version="opset4">
			<rt_info>
				<attribute name="fused_names" version="0" value="onnx::Add_1084, onnx::Mul_1083"/>
			</rt_info>
			<input>
				<port id="0" precision="FP32">
					<dim>1</dim>
					<dim>160</dim>
					<dim>80</dim>
					<dim>80</dim>
				</port>
			</input>
			<output>
				<port id="1" precision="FP32" names="onnx::Add_1084">
					<dim>1</dim>
					<dim>160</dim>
					<dim>80</dim>
					<dim>80</dim>
				</port>
			</output>
		</layer>
		<layer id="278" name="input.263" type="Add" version="opset1">
			<data auto_broadcast="numpy"/>
			<rt_info>
				<attribute name="fused_names" version="0" value="input.263"/>
			</rt_info>
			<input>
				<port id="0" precision="FP32">
					<dim>1</dim>
					<dim>160</dim>
					<dim>80</dim>
					<dim>80</dim>
				</port>
				<port id="1" precision="FP32">
					<dim>1</dim>
					<dim>160</dim>
					<dim>80</dim>
					<dim>80</dim>
				</port>
			</input>
			<output>
				<port id="2" precision="FP32" names="input.263">
					<dim>1</dim>
					<dim>160</dim>
					<dim>80</dim>
					<dim>80</dim>
				</port>
			</output>
		</layer>
		<layer id="279" name="onnx::Conv_1719_compressed" type="Const" version="opset1">
			<data element_type="f16" shape="160, 160, 1, 1" offset="6503424" size="51200"/>
			<output>
				<port id="0" precision="FP16">
					<dim>160</dim>
					<dim>160</dim>
					<dim>1</dim>
					<dim>1</dim>
				</port>
			</output>
		</layer>
		<layer id="280" name="onnx::Conv_1719" type="Convert" version="opset1">
			<data destination_type="f32"/>
			<rt_info>
				<attribute name="decompression" version="0"/>
				<attribute name="fused_names" version="0" value="onnx::Conv_1719"/>
			</rt_info>
			<input>
				<port id="0" precision="FP16">
					<dim>160</dim>
					<dim>160</dim>
					<dim>1</dim>
					<dim>1</dim>
				</port>
			</input>
			<output>
				<port id="1" precision="FP32" names="onnx::Conv_1719">
					<dim>160</dim>
					<dim>160</dim>
					<dim>1</dim>
					<dim>1</dim>
				</port>
			</output>
		</layer>
		<layer id="281" name="Convolution_2043" type="Convolution" version="opset1">
			<data strides="1, 1" dilations="1, 1" pads_begin="0, 0" pads_end="0, 0" auto_pad="explicit"/>
			<rt_info>
				<attribute name="fused_names" version="0" value="Convolution_2043"/>
			</rt_info>
			<input>
				<port id="0" precision="FP32">
					<dim>1</dim>
					<dim>160</dim>
					<dim>80</dim>
					<dim>80</dim>
				</port>
				<port id="1" precision="FP32">
					<dim>160</dim>
					<dim>160</dim>
					<dim>1</dim>
					<dim>1</dim>
				</port>
			</input>
			<output>
				<port id="2" precision="FP32">
					<dim>1</dim>
					<dim>160</dim>
					<dim>80</dim>
					<dim>80</dim>
				</port>
			</output>
		</layer>
		<layer id="282" name="Reshape_2063_compressed" type="Const" version="opset1">
			<data element_type="f16" shape="1, 160, 1, 1" offset="6554624" size="320"/>
			<output>
				<port id="0" precision="FP16">
					<dim>1</dim>
					<dim>160</dim>
					<dim>1</dim>
					<dim>1</dim>
				</port>
			</output>
		</layer>
		<layer id="283" name="Reshape_2063" type="Convert" version="opset1">
			<data destination_type="f32"/>
			<rt_info>
				<attribute name="decompression" version="0"/>
			</rt_info>
			<input>
				<port id="0" precision="FP16">
					<dim>1</dim>
					<dim>160</dim>
					<dim>1</dim>
					<dim>1</dim>
				</port>
			</input>
			<output>
				<port id="1" precision="FP32">
					<dim>1</dim>
					<dim>160</dim>
					<dim>1</dim>
					<dim>1</dim>
				</port>
			</output>
		</layer>
		<layer id="284" name="onnx::Sigmoid_1718" type="Add" version="opset1">
			<data auto_broadcast="numpy"/>
			<rt_info>
				<attribute name="fused_names" version="0" value="Concat_2062, Reshape_2063, onnx::Sigmoid_1718"/>
			</rt_info>
			<input>
				<port id="0" precision="FP32">
					<dim>1</dim>
					<dim>160</dim>
					<dim>80</dim>
					<dim>80</dim>
				</port>
				<port id="1" precision="FP32">
					<dim>1</dim>
					<dim>160</dim>
					<dim>1</dim>
					<dim>1</dim>
				</port>
			</input>
			<output>
				<port id="2" precision="FP32" names="onnx::Sigmoid_1718">
					<dim>1</dim>
					<dim>160</dim>
					<dim>80</dim>
					<dim>80</dim>
				</port>
			</output>
		</layer>
		<layer id="285" name="input.271" type="Swish" version="opset4">
			<rt_info>
				<attribute name="fused_names" version="0" value="input.271, onnx::Mul_1088"/>
			</rt_info>
			<input>
				<port id="0" precision="FP32">
					<dim>1</dim>
					<dim>160</dim>
					<dim>80</dim>
					<dim>80</dim>
				</port>
			</input>
			<output>
				<port id="1" precision="FP32" names="input.271">
					<dim>1</dim>
					<dim>160</dim>
					<dim>80</dim>
					<dim>80</dim>
				</port>
			</output>
		</layer>
		<layer id="286" name="onnx::Conv_1722_compressed" type="Const" version="opset1">
			<data element_type="f16" shape="160, 160, 3, 3" offset="6554944" size="460800"/>
			<output>
				<port id="0" precision="FP16">
					<dim>160</dim>
					<dim>160</dim>
					<dim>3</dim>
					<dim>3</dim>
				</port>
			</output>
		</layer>
		<layer id="287" name="onnx::Conv_1722" type="Convert" version="opset1">
			<data destination_type="f32"/>
			<rt_info>
				<attribute name="decompression" version="0"/>
				<attribute name="fused_names" version="0" value="onnx::Conv_1722"/>
			</rt_info>
			<input>
				<port id="0" precision="FP16">
					<dim>160</dim>
					<dim>160</dim>
					<dim>3</dim>
					<dim>3</dim>
				</port>
			</input>
			<output>
				<port id="1" precision="FP32" names="onnx::Conv_1722">
					<dim>160</dim>
					<dim>160</dim>
					<dim>3</dim>
					<dim>3</dim>
				</port>
			</output>
		</layer>
		<layer id="288" name="Convolution_2093" type="Convolution" version="opset1">
			<data strides="1, 1" dilations="1, 1" pads_begin="1, 1" pads_end="1, 1" auto_pad="explicit"/>
			<rt_info>
				<attribute name="fused_names" version="0" value="Convolution_2093"/>
			</rt_info>
			<input>
				<port id="0" precision="FP32">
					<dim>1</dim>
					<dim>160</dim>
					<dim>80</dim>
					<dim>80</dim>
				</port>
				<port id="1" precision="FP32">
					<dim>160</dim>
					<dim>160</dim>
					<dim>3</dim>
					<dim>3</dim>
				</port>
			</input>
			<output>
				<port id="2" precision="FP32">
					<dim>1</dim>
					<dim>160</dim>
					<dim>80</dim>
					<dim>80</dim>
				</port>
			</output>
		</layer>
		<layer id="289" name="Reshape_2113_compressed" type="Const" version="opset1">
			<data element_type="f16" shape="1, 160, 1, 1" offset="7015744" size="320"/>
			<output>
				<port id="0" precision="FP16">
					<dim>1</dim>
					<dim>160</dim>
					<dim>1</dim>
					<dim>1</dim>
				</port>
			</output>
		</layer>
		<layer id="290" name="Reshape_2113" type="Convert" version="opset1">
			<data destination_type="f32"/>
			<rt_info>
				<attribute name="decompression" version="0"/>
			</rt_info>
			<input>
				<port id="0" precision="FP16">
					<dim>1</dim>
					<dim>160</dim>
					<dim>1</dim>
					<dim>1</dim>
				</port>
			</input>
			<output>
				<port id="1" precision="FP32">
					<dim>1</dim>
					<dim>160</dim>
					<dim>1</dim>
					<dim>1</dim>
				</port>
			</output>
		</layer>
		<layer id="291" name="onnx::Sigmoid_1721" type="Add" version="opset1">
			<data auto_broadcast="numpy"/>
			<rt_info>
				<attribute name="fused_names" version="0" value="Concat_2112, Reshape_2113, onnx::Sigmoid_1721"/>
			</rt_info>
			<input>
				<port id="0" precision="FP32">
					<dim>1</dim>
					<dim>160</dim>
					<dim>80</dim>
					<dim>80</dim>
				</port>
				<port id="1" precision="FP32">
					<dim>1</dim>
					<dim>160</dim>
					<dim>1</dim>
					<dim>1</dim>
…
		<edge from-layer="511" from-port="1" to-layer="512" to-port="1"/>
		<edge from-layer="512" from-port="2" to-layer="515" to-port="0"/>
		<edge from-layer="513" from-port="0" to-layer="514" to-port="0"/>
		<edge from-layer="514" from-port="1" to-layer="515" to-port="1"/>
		<edge from-layer="515" from-port="2" to-layer="516" to-port="0"/>
		<edge from-layer="516" from-port="1" to-layer="517" to-port="0"/>
		<edge from-layer="517" from-port="2" to-layer="520" to-port="0"/>
		<edge from-layer="517" from-port="2" to-layer="532" to-port="1"/>
		<edge from-layer="518" from-port="0" to-layer="519" to-port="0"/>
		<edge from-layer="519" from-port="1" to-layer="520" to-port="1"/>
		<edge from-layer="520" from-port="2" to-layer="523" to-port="0"/>
		<edge from-layer="521" from-port="0" to-layer="522" to-port="0"/>
		<edge from-layer="522" from-port="1" to-layer="523" to-port="1"/>
		<edge from-layer="523" from-port="2" to-layer="524" to-port="0"/>
		<edge from-layer="524" from-port="1" to-layer="527" to-port="0"/>
		<edge from-layer="525" from-port="0" to-layer="526" to-port="0"/>
		<edge from-layer="526" from-port="1" to-layer="527" to-port="1"/>
		<edge from-layer="527" from-port="2" to-layer="530" to-port="0"/>
		<edge from-layer="528" from-port="0" to-layer="529" to-port="0"/>
		<edge from-layer="529" from-port="1" to-layer="530" to-port="1"/>
		<edge from-layer="530" from-port="2" to-layer="531" to-port="0"/>
		<edge from-layer="531" from-port="1" to-layer="532" to-port="0"/>
		<edge from-layer="532" from-port="2" to-layer="540" to-port="0"/>
		<edge from-layer="533" from-port="0" to-layer="534" to-port="0"/>
		<edge from-layer="534" from-port="1" to-layer="535" to-port="1"/>
		<edge from-layer="535" from-port="2" to-layer="538" to-port="0"/>
		<edge from-layer="536" from-port="0" to-layer="537" to-port="0"/>
		<edge from-layer="537" from-port="1" to-layer="538" to-port="1"/>
		<edge from-layer="538" from-port="2" to-layer="539" to-port="0"/>
		<edge from-layer="539" from-port="1" to-layer="540" to-port="1"/>
		<edge from-layer="540" from-port="2" to-layer="543" to-port="0"/>
		<edge from-layer="541" from-port="0" to-layer="542" to-port="0"/>
		<edge from-layer="542" from-port="1" to-layer="543" to-port="1"/>
		<edge from-layer="543" from-port="2" to-layer="546" to-port="0"/>
		<edge from-layer="544" from-port="0" to-layer="545" to-port="0"/>
		<edge from-layer="545" from-port="1" to-layer="546" to-port="1"/>
		<edge from-layer="546" from-port="2" to-layer="547" to-port="0"/>
		<edge from-layer="547" from-port="1" to-layer="550" to-port="0"/>
		<edge from-layer="547" from-port="1" to-layer="664" to-port="1"/>
		<edge from-layer="548" from-port="0" to-layer="549" to-port="0"/>
		<edge from-layer="549" from-port="1" to-layer="550" to-port="1"/>
		<edge from-layer="550" from-port="2" to-layer="553" to-port="0"/>
		<edge from-layer="551" from-port="0" to-layer="552" to-port="0"/>
		<edge from-layer="552" from-port="1" to-layer="553" to-port="1"/>
		<edge from-layer="553" from-port="2" to-layer="554" to-port="0"/>
		<edge from-layer="554" from-port="1" to-layer="557" to-port="0"/>
		<edge from-layer="555" from-port="0" to-layer="556" to-port="0"/>
		<edge from-layer="556" from-port="1" to-layer="557" to-port="1"/>
		<edge from-layer="557" from-port="2" to-layer="560" to-port="0"/>
		<edge from-layer="558" from-port="0" to-layer="559" to-port="0"/>
		<edge from-layer="559" from-port="1" to-layer="560" to-port="1"/>
		<edge from-layer="560" from-port="2" to-layer="561" to-port="0"/>
		<edge from-layer="561" from-port="1" to-layer="562" to-port="0"/>
		<edge from-layer="561" from-port="1" to-layer="563" to-port="0"/>
		<edge from-layer="561" from-port="1" to-layer="564" to-port="0"/>
		<edge from-layer="561" from-port="1" to-layer="565" to-port="0"/>
		<edge from-layer="562" from-port="1" to-layer="565" to-port="1"/>
		<edge from-layer="563" from-port="1" to-layer="565" to-port="2"/>
		<edge from-layer="564" from-port="1" to-layer="565" to-port="3"/>
		<edge from-layer="565" from-port="4" to-layer="568" to-port="0"/>
		<edge from-layer="566" from-port="0" to-layer="567" to-port="0"/>
		<edge from-layer="567" from-port="1" to-layer="568" to-port="1"/>
		<edge from-layer="568" from-port="2" to-layer="571" to-port="0"/>
		<edge from-layer="569" from-port="0" to-layer="570" to-port="0"/>
		<edge from-layer="570" from-port="1" to-layer="571" to-port="1"/>
		<edge from-layer="571" from-port="2" to-layer="572" to-port="0"/>
		<edge from-layer="572" from-port="1" to-layer="575" to-port="0"/>
		<edge from-layer="572" from-port="1" to-layer="638" to-port="0"/>
		<edge from-layer="573" from-port="0" to-layer="574" to-port="0"/>
		<edge from-layer="574" from-port="1" to-layer="575" to-port="1"/>
		<edge from-layer="575" from-port="2" to-layer="578" to-port="0"/>
		<edge from-layer="576" from-port="0" to-layer="577" to-port="0"/>
		<edge from-layer="577" from-port="1" to-layer="578" to-port="1"/>
		<edge from-layer="578" from-port="2" to-layer="579" to-port="0"/>
		<edge from-layer="579" from-port="1" to-layer="582" to-port="0"/>
		<edge from-layer="580" from-port="0" to-layer="581" to-port="0"/>
		<edge from-layer="581" from-port="1" to-layer="582" to-port="1"/>
		<edge from-layer="582" from-port="2" to-layer="585" to-port="0"/>
		<edge from-layer="583" from-port="0" to-layer="584" to-port="0"/>
		<edge from-layer="584" from-port="1" to-layer="585" to-port="1"/>
		<edge from-layer="585" from-port="2" to-layer="586" to-port="0"/>
		<edge from-layer="586" from-port="1" to-layer="589" to-port="0"/>
		<edge from-layer="587" from-port="0" to-layer="588" to-port="0"/>
		<edge from-layer="588" from-port="1" to-layer="589" to-port="1"/>
		<edge from-layer="589" from-port="2" to-layer="592" to-port="0"/>
		<edge from-layer="590" from-port="0" to-layer="591" to-port="0"/>
		<edge from-layer="591" from-port="1" to-layer="592" to-port="1"/>
		<edge from-layer="592" from-port="2" to-layer="593" to-port="0"/>
		<edge from-layer="593" from-port="1" to-layer="596" to-port="0"/>
		<edge from-layer="594" from-port="0" to-layer="595" to-port="0"/>
		<edge from-layer="595" from-port="1" to-layer="596" to-port="1"/>
		<edge from-layer="596" from-port="2" to-layer="599" to-port="0"/>
		<edge from-layer="597" from-port="0" to-layer="598" to-port="0"/>
		<edge from-layer="598" from-port="1" to-layer="599" to-port="1"/>
		<edge from-layer="599" from-port="2" to-layer="600" to-port="0"/>
		<edge from-layer="600" from-port="1" to-layer="603" to-port="0"/>
		<edge from-layer="601" from-port="0" to-layer="602" to-port="0"/>
		<edge from-layer="602" from-port="1" to-layer="603" to-port="1"/>
		<edge from-layer="603" from-port="2" to-layer="606" to-port="0"/>
		<edge from-layer="604" from-port="0" to-layer="605" to-port="0"/>
		<edge from-layer="605" from-port="1" to-layer="606" to-port="1"/>
		<edge from-layer="606" from-port="2" to-layer="607" to-port="0"/>
		<edge from-layer="607" from-port="1" to-layer="610" to-port="0"/>
		<edge from-layer="608" from-port="0" to-layer="609" to-port="0"/>
		<edge from-layer="609" from-port="1" to-layer="610" to-port="1"/>
		<edge from-layer="610" from-port="2" to-layer="613" to-port="0"/>
		<edge from-layer="611" from-port="0" to-layer="612" to-port="0"/>
		<edge from-layer="612" from-port="1" to-layer="613" to-port="1"/>
		<edge from-layer="613" from-port="2" to-layer="614" to-port="0"/>
		<edge from-layer="614" from-port="1" to-layer="617" to-port="0"/>
		<edge from-layer="615" from-port="0" to-layer="616" to-port="0"/>
		<edge from-layer="616" from-port="1" to-layer="617" to-port="1"/>
		<edge from-layer="617" from-port="2" to-layer="620" to-port="0"/>
		<edge from-layer="618" from-port="0" to-layer="619" to-port="0"/>
		<edge from-layer="619" from-port="1" to-layer="620" to-port="1"/>
		<edge from-layer="620" from-port="2" to-layer="621" to-port="0"/>
		<edge from-layer="621" from-port="1" to-layer="624" to-port="0"/>
		<edge from-layer="622" from-port="0" to-layer="623" to-port="0"/>
		<edge from-layer="623" from-port="1" to-layer="624" to-port="1"/>
		<edge from-layer="624" from-port="2" to-layer="627" to-port="0"/>
		<edge from-layer="625" from-port="0" to-layer="626" to-port="0"/>
		<edge from-layer="626" from-port="1" to-layer="627" to-port="1"/>
		<edge from-layer="627" from-port="2" to-layer="628" to-port="0"/>
		<edge from-layer="628" from-port="1" to-layer="631" to-port="0"/>
		<edge from-layer="629" from-port="0" to-layer="630" to-port="0"/>
		<edge from-layer="630" from-port="1" to-layer="631" to-port="1"/>
		<edge from-layer="631" from-port="2" to-layer="634" to-port="0"/>
		<edge from-layer="632" from-port="0" to-layer="633" to-port="0"/>
		<edge from-layer="633" from-port="1" to-layer="634" to-port="1"/>
		<edge from-layer="634" from-port="2" to-layer="635" to-port="0"/>
		<edge from-layer="635" from-port="1" to-layer="643" to-port="0"/>
		<edge from-layer="636" from-port="0" to-layer="637" to-port="0"/>
		<edge from-layer="637" from-port="1" to-layer="638" to-port="1"/>
		<edge from-layer="638" from-port="2" to-layer="641" to-port="0"/>
		<edge from-layer="639" from-port="0" to-layer="640" to-port="0"/>
		<edge from-layer="640" from-port="1" to-layer="641" to-port="1"/>
		<edge from-layer="641" from-port="2" to-layer="642" to-port="0"/>
		<edge from-layer="642" from-port="1" to-layer="643" to-port="1"/>
		<edge from-layer="643" from-port="2" to-layer="646" to-port="0"/>
		<edge from-layer="644" from-port="0" to-layer="645" to-port="0"/>
		<edge from-layer="645" from-port="1" to-layer="646" to-port="1"/>
		<edge from-layer="646" from-port="2" to-layer="649" to-port="0"/>
		<edge from-layer="647" from-port="0" to-layer="648" to-port="0"/>
		<edge from-layer="648" from-port="1" to-layer="649" to-port="1"/>
		<edge from-layer="649" from-port="2" to-layer="650" to-port="0"/>
		<edge from-layer="650" from-port="1" to-layer="653" to-port="0"/>
		<edge from-layer="651" from-port="0" to-layer="652" to-port="0"/>
		<edge from-layer="652" from-port="1" to-layer="653" to-port="1"/>
		<edge from-layer="653" from-port="2" to-layer="656" to-port="0"/>
		<edge from-layer="654" from-port="0" to-layer="655" to-port="0"/>
		<edge from-layer="655" from-port="1" to-layer="656" to-port="1"/>
		<edge from-layer="656" from-port="2" to-layer="657" to-port="0"/>
		<edge from-layer="657" from-port="1" to-layer="658" to-port="0"/>
		<edge from-layer="657" from-port="1" to-layer="663" to-port="0"/>
		<edge from-layer="657" from-port="1" to-layer="1043" to-port="1"/>
		<edge from-layer="658" from-port="1" to-layer="659" to-port="0"/>
		<edge from-layer="659" from-port="1" to-layer="661" to-port="0"/>
		<edge from-layer="660" from-port="0" to-layer="661" to-port="1"/>
		<edge from-layer="660" from-port="0" to-layer="663" to-port="2"/>
		<edge from-layer="660" from-port="0" to-layer="752" to-port="1"/>
		<edge from-layer="660" from-port="0" to-layer="754" to-port="2"/>
		<edge from-layer="661" from-port="2" to-layer="662" to-port="0"/>
		<edge from-layer="662" from-port="1" to-layer="663" to-port="1"/>
		<edge from-layer="663" from-port="3" to-layer="664" to-port="0"/>
		<edge from-layer="664" from-port="2" to-layer="667" to-port="0"/>
		<edge from-layer="664" from-port="2" to-layer="730" to-port="0"/>
		<edge from-layer="665" from-port="0" to-layer="666" to-port="0"/>
		<edge from-layer="666" from-port="1" to-layer="667" to-port="1"/>
		<edge from-layer="667" from-port="2" to-layer="670" to-port="0"/>
		<edge from-layer="668" from-port="0" to-layer="669" to-port="0"/>
		<edge from-layer="669" from-port="1" to-layer="670" to-port="1"/>
		<edge from-layer="670" from-port="2" to-layer="671" to-port="0"/>
		<edge from-layer="671" from-port="1" to-layer="674" to-port="0"/>
		<edge from-layer="672" from-port="0" to-layer="673" to-port="0"/>
		<edge from-layer="673" from-port="1" to-layer="674" to-port="1"/>
		<edge from-layer="674" from-port="2" to-layer="677" to-port="0"/>
		<edge from-layer="675" from-port="0" to-layer="676" to-port="0"/>
		<edge from-layer="676" from-port="1" to-layer="677" to-port="1"/>
		<edge from-layer="677" from-port="2" to-layer="678" to-port="0"/>
		<edge from-layer="678" from-port="1" to-layer="681" to-port="0"/>
		<edge from-layer="679" from-port="0" to-layer="680" to-port="0"/>
		<edge from-layer="680" from-port="1" to-layer="681" to-port="1"/>
		<edge from-layer="681" from-port="2" to-layer="684" to-port="0"/>
		<edge from-layer="682" from-port="0" to-layer="683" to-port="0"/>
		<edge from-layer="683" from-port="1" to-layer="684" to-port="1"/>
		<edge from-layer="684" from-port="2" to-layer="685" to-port="0"/>
		<edge from-layer="685" from-port="1" to-layer="688" to-port="0"/>
		<edge from-layer="686" from-port="0" to-layer="687" to-port="0"/>
		<edge from-layer="687" from-port="1" to-layer="688" to-port="1"/>
		<edge from-layer="688" from-port="2" to-layer="691" to-port="0"/>
		<edge from-layer="689" from-port="0" to-layer="690" to-port="0"/>
		<edge from-layer="690" from-port="1" to-layer="691" to-port="1"/>
		<edge from-layer="691" from-port="2" to-layer="692" to-port="0"/>
		<edge from-layer="692" from-port="1" to-layer="695" to-port="0"/>
		<edge from-layer="693" from-port="0" to-layer="694" to-port="0"/>
		<edge from-layer="694" from-port="1" to-layer="695" to-port="1"/>
		<edge from-layer="695" from-port="2" to-layer="698" to-port="0"/>
		<edge from-layer="696" from-port="0" to-layer="697" to-port="0"/>
		<edge from-layer="697" from-port="1" to-layer="698" to-port="1"/>
		<edge from-layer="698" from-port="2" to-layer="699" to-port="0"/>
		<edge from-layer="699" from-port="1" to-layer="702" to-port="0"/>
		<edge from-layer="700" from-port="0" to-layer="701" to-port="0"/>
		<edge from-layer="701" from-port="1" to-layer="702" to-port="1"/>
		<edge from-layer="702" from-port="2" to-layer="705" to-port="0"/>
		<edge from-layer="703" from-port="0" to-layer="704" to-port="0"/>
		<edge from-layer="704" from-port="1" to-layer="705" to-port="1"/>
		<edge from-layer="705" from-port="2" to-layer="706" to-port="0"/>
		<edge from-layer="706" from-port="1" to-layer="709" to-port="0"/>
		<edge from-layer="707" from-port="0" to-layer="708" to-port="0"/>
		<edge from-layer="708" from-port="1" to-layer="709" to-port="1"/>
		<edge from-layer="709" from-port="2" to-layer="712" to-port="0"/>
		<edge from-layer="710" from-port="0" to-layer="711" to-port="0"/>
		<edge from-layer="711" from-port="1" to-layer="712" to-port="1"/>
		<edge from-layer="712" from-port="2" to-layer="713" to-port="0"/>
		<edge from-layer="713" from-port="1" to-layer="716" to-port="0"/>
		<edge from-layer="714" from-port="0" to-layer="715" to-port="0"/>
		<edge from-layer="715" from-port="1" to-layer="716" to-port="1"/>
		<edge from-layer="716" from-port="2" to-layer="719" to-port="0"/>
		<edge from-layer="717" from-port="0" to-layer="718" to-port="0"/>
		<edge from-layer="718" from-port="1" to-layer="719" to-port="1"/>
		<edge from-layer="719" from-port="2" to-layer="720" to-port="0"/>
		<edge from-layer="720" from-port="1" to-layer="723" to-port="0"/>
		<edge from-layer="721" from-port="0" to-layer="722" to-port="0"/>
		<edge from-layer="722" from-port="1" to-layer="723" to-port="1"/>
		<edge from-layer="723" from-port="2" to-layer="726" to-port="0"/>
		<edge from-layer="724" from-port="0" to-layer="725" to-port="0"/>
		<edge from-layer="725" from-port="1" to-layer="726" to-port="1"/>
		<edge from-layer="726" from-port="2" to-layer="727" to-port="0"/>
		<edge from-layer="727" from-port="1" to-layer="735" to-port="0"/>
		<edge from-layer="728" from-port="0" to-layer="729" to-port="0"/>
		<edge from-layer="729" from-port="1" to-layer="730" to-port="1"/>
		<edge from-layer="730" from-port="2" to-layer="733" to-port="0"/>
		<edge from-layer="731" from-port="0" to-layer="732" to-port="0"/>
		<edge from-layer="732" from-port="1" to-layer="733" to-port="1"/>
		<edge from-layer="733" from-port="2" to-layer="734" to-port="0"/>
		<edge from-layer="734" from-port="1" to-layer="735" to-port="1"/>
		<edge from-layer="735" from-port="2" to-layer="738" to-port="0"/>
		<edge from-layer="736" from-port="0" to-layer="737" to-port="0"/>
		<edge from-layer="737" from-port="1" to-layer="738" to-port="1"/>
		<edge from-layer="738" from-port="2" to-layer="741" to-port="0"/>
		<edge from-layer="739" from-port="0" to-layer="740" to-port="0"/>
		<edge from-layer="740" from-port="1" to-layer="741" to-port="1"/>
		<edge from-layer="741" from-port="2" to-layer="742" to-port="0"/>
		<edge from-layer="742" from-port="1" to-layer="745" to-port="0"/>
		<edge from-layer="743" from-port="0" to-layer="744" to-port="0"/>
		<edge from-layer="744" from-port="1" to-layer="745" to-port="1"/>
		<edge from-layer="745" from-port="2" to-layer="748" to-port="0"/>
		<edge from-layer="746" from-port="0" to-layer="747" to-port="0"/>
		<edge from-layer="747" from-port="1" to-layer="748" to-port="1"/>
		<edge from-layer="748" from-port="2" to-layer="749" to-port="0"/>
		<edge from-layer="749" from-port="1" to-layer="750" to-port="0"/>
		<edge from-layer="749" from-port="1" to-layer="754" to-port="0"/>
		<edge from-layer="749" from-port="1" to-layer="899" to-port="1"/>
		<edge from-layer="750" from-port="1" to-layer="751" to-port="0"/>
		<edge from-layer="751" from-port="1" to-layer="752" to-port="0"/>
		<edge from-layer="752" from-port="2" to-layer="753" to-port="0"/>
		<edge from-layer="753" from-port="1" to-layer="754" to-port="1"/>
		<edge from-layer="754" from-port="3" to-layer="755" to-port="0"/>
		<edge from-layer="755" from-port="2" to-layer="758" to-port="0"/>
		<edge from-layer="755" from-port="2" to-layer="821" to-port="0"/>
		<edge from-layer="756" from-port="0" to-layer="757" to-port="0"/>
		<edge from-layer="757" from-port="1" to-layer="758" to-port="1"/>
		<edge from-layer="758" from-port="2" to-layer="761" to-port="0"/>
		<edge from-layer="759" from-port="0" to-layer="760" to-port="0"/>
		<edge from-layer="760" from-port="1" to-layer="761" to-port="1"/>
		<edge from-layer="761" from-port="2" to-layer="762" to-port="0"/>
		<edge from-layer="762" from-port="1" to-layer="765" to-port="0"/>
		<edge from-layer="763" from-port="0" to-layer="764" to-port="0"/>
		<edge from-layer="764" from-port="1" to-layer="765" to-port="1"/>
		<edge from-layer="765" from-port="2" to-layer="768" to-port="0"/>
		<edge from-layer="766" from-port="0" to-layer="767" to-port="0"/>
		<edge from-layer="767" from-port="1" to-layer="768" to-port="1"/>
		<edge from-layer="768" from-port="2" to-layer="769" to-port="0"/>
		<edge from-layer="769" from-port="1" to-layer="772" to-port="0"/>
		<edge from-layer="770" from-port="0" to-layer="771" to-port="0"/>
		<edge from-layer="771" from-port="1" to-layer="772" to-port="1"/>
		<edge from-layer="772" from-port="2" to-layer="775" to-port="0"/>
		<edge from-layer="773" from-port="0" to-layer="774" to-port="0"/>
		<edge from-layer="774" from-port="1" to-layer="775" to-port="1"/>
		<edge from-layer="775" from-port="2" to-layer="776" to-port="0"/>
		<edge from-layer="776" from-port="1" to-layer="779" to-port="0"/>
		<edge from-layer="777" from-port="0" to-layer="778" to-port="0"/>
		<edge from-layer="778" from-port="1" to-layer="779" to-port="1"/>
		<edge from-layer="779" from-port="2" to-layer="782" to-port="0"/>
		<edge from-layer="780" from-port="0" to-layer="781" to-port="0"/>
		<edge from-layer="781" from-port="1" to-layer="782" to-port="1"/>
		<edge from-layer="782" from-port="2" to-layer="783" to-port="0"/>
		<edge from-layer="783" from-port="1" to-layer="786" to-port="0"/>
		<edge from-layer="784" from-port="0" to-layer="785" to-port="0"/>
		<edge from-layer="785" from-port="1" to-layer="786" to-port="1"/>
		<edge from-layer="786" from-port="2" to-layer="789" to-port="0"/>
		<edge from-layer="787" from-port="0" to-layer="788" to-port="0"/>
		<edge from-layer="788" from-port="1" to-layer="789" to-port="1"/>
		<edge from-layer="789" from-port="2" to-layer="790" to-port="0"/>
		<edge from-layer="790" from-port="1" to-layer="793" to-port="0"/>
		<edge from-layer="791" from-port="0" to-layer="792" to-port="0"/>
		<edge from-layer="792" from-port="1" to-layer="793" to-port="1"/>
		<edge from-layer="793" from-port="2" to-layer="796" to-port="0"/>
		<edge from-layer="794" from-port="0" to-layer="795" to-port="0"/>
		<edge from-layer="795" from-port="1" to-layer="796" to-port="1"/>
		<edge from-layer="796" from-port="2" to-layer="797" to-port="0"/>
		<edge from-layer="797" from-port="1" to-layer="800" to-port="0"/>
		<edge from-layer="798" from-port="0" to-layer="799" to-port="0"/>
		<edge from-layer="799" from-port="1" to-layer="800" to-port="1"/>
		<edge from-layer="800" from-port="2" to-layer="803" to-port="0"/>
		<edge from-layer="801" from-port="0" to-layer="802" to-port="0"/>
		<edge from-layer="802" from-port="1" to-layer="803" to-port="1"/>
		<edge from-layer="803" from-port="2" to-layer="804" to-port="0"/>
		<edge from-layer="804" from-port="1" to-layer="807" to-port="0"/>
		<edge from-layer="805" from-port="0" to-layer="806" to-port="0"/>
		<edge from-layer="806" from-port="1" to-layer="807" to-port="1"/>
		<edge from-layer="807" from-port="2" to-layer="810" to-port="0"/>
		<edge from-layer="808" from-port="0" to-layer="809" to-port="0"/>
		<edge from-layer="809" from-port="1" to-layer="810" to-port="1"/>
		<edge from-layer="810" from-port="2" to-layer="811" to-port="0"/>
		<edge from-layer="811" from-port="1" to-layer="814" to-port="0"/>
		<edge from-layer="812" from-port="0" to-layer="813" to-port="0"/>
		<edge from-layer="813" from-port="1" to-layer="814" to-port="1"/>
		<edge from-layer="814" from-port="2" to-layer="817" to-port="0"/>
		<edge from-layer="815" from-port="0" to-layer="816" to-port="0"/>
		<edge from-layer="816" from-port="1" to-layer="817" to-port="1"/>
		<edge from-layer="817" from-port="2" to-layer="818" to-port="0"/>
		<edge from-layer="818" from-port="1" to-layer="826" to-port="0"/>
		<edge from-layer="819" from-port="0" to-layer="820" to-port="0"/>
		<edge from-layer="820" from-port="1" to-layer="821" to-port="1"/>
		<edge from-layer="821" from-port="2" to-layer="824" to-port="0"/>
		<edge from-layer="822" from-port="0" to-layer="823" to-port="0"/>
		<edge from-layer="823" from-port="1" to-layer="824" to-port="1"/>
		<edge from-layer="824" from-port="2" to-layer="825" to-port="0"/>
		<edge from-layer="825" from-port="1" to-layer="826" to-port="1"/>
		<edge from-layer="826" from-port="2" to-layer="829" to-port="0"/>
		<edge from-layer="827" from-port="0" to-layer="828" to-port="0"/>
		<edge from-layer="828" from-port="1" to-layer="829" to-port="1"/>
		<edge from-layer="829" from-port="2" to-layer="832" to-port="0"/>
		<edge from-layer="830" from-port="0" to-layer="831" to-port="0"/>
		<edge from-layer="831" from-port="1" to-layer="832" to-port="1"/>
		<edge from-layer="832" from-port="2" to-layer="833" to-port="0"/>
		<edge from-layer="833" from-port="1" to-layer="836" to-port="0"/>
		<edge from-layer="833" from-port="1" to-layer="894" to-port="0"/>
		<edge from-layer="834" from-port="0" to-layer="835" to-port="0"/>
		<edge from-layer="835" from-port="1" to-layer="836" to-port="1"/>
		<edge from-layer="836" from-port="2" to-layer="839" to-port="0"/>
		<edge from-layer="837" from-port="0" to-layer="838" to-port="0"/>
		<edge from-layer="838" from-port="1" to-layer="839" to-port="1"/>
		<edge from-layer="839" from-port="2" to-layer="840" to-port="0"/>
		<edge from-layer="840" from-port="1" to-layer="870" to-port="0"/>
		<edge from-layer="840" from-port="1" to-layer="843" to-port="0"/>
		<edge from-layer="841" from-port="0" to-layer="842" to-port="0"/>
		<edge from-layer="842" from-port="1" to-layer="843" to-port="1"/>
		<edge from-layer="843" from-port="2" to-layer="846" to-port="0"/>
		<edge from-layer="844" from-port="0" to-layer="845" to-port="0"/>
		<edge from-layer="845" from-port="1" to-layer="846" to-port="1"/>
		<edge from-layer="846" from-port="2" to-layer="847" to-port="0"/>
		<edge from-layer="847" from-port="1" to-layer="850" to-port="0"/>
		<edge from-layer="848" from-port="0" to-layer="849" to-port="0"/>
		<edge from-layer="849" from-port="1" to-layer="850" to-port="1"/>
		<edge from-layer="850" from-port="2" to-layer="853" to-port="0"/>
		<edge from-layer="851" from-port="0" to-layer="852" to-port="0"/>
		<edge from-layer="852" from-port="1" to-layer="853" to-port="1"/>
		<edge from-layer="853" from-port="2" to-layer="854" to-port="0"/>
		<edge from-layer="854" from-port="1" to-layer="863" to-port="0"/>
		<edge from-layer="854" from-port="1" to-layer="857" to-port="0"/>
		<edge from-layer="855" from-port="0" to-layer="856" to-port="0"/>
		<edge from-layer="856" from-port="1" to-layer="857" to-port="1"/>
		<edge from-layer="857" from-port="2" to-layer="860" to-port="0"/>
		<edge from-layer="858" from-port="0" to-layer="859" to-port="0"/>
		<edge from-layer="859" from-port="1" to-layer="860" to-port="1"/>
		<edge from-layer="860" from-port="2" to-layer="889" to-port="0"/>
		<edge from-layer="861" from-port="0" to-layer="862" to-port="0"/>
		<edge from-layer="862" from-port="1" to-layer="863" to-port="1"/>
		<edge from-layer="863" from-port="2" to-layer="866" to-port="0"/>
		<edge from-layer="864" from-port="0" to-layer="865" to-port="0"/>
		<edge from-layer="865" from-port="1" to-layer="866" to-port="1"/>
		<edge from-layer="866" from-port="2" to-layer="867" to-port="0"/>
		<edge from-layer="867" from-port="1" to-layer="889" to-port="1"/>
		<edge from-layer="868" from-port="0" to-layer="869" to-port="0"/>
		<edge from-layer="869" from-port="1" to-layer="870" to-port="1"/>
		<edge from-layer="870" from-port="2" to-layer="873" to-port="0"/>
		<edge from-layer="871" from-port="0" to-layer="872" to-port="0"/>
		<edge from-layer="872" from-port="1" to-layer="873" to-port="1"/>
		<edge from-layer="873" from-port="2" to-layer="874" to-port="0"/>
		<edge from-layer="874" from-port="1" to-layer="877" to-port="0"/>
		<edge from-layer="875" from-port="0" to-layer="876" to-port="0"/>
		<edge from-layer="876" from-port="1" to-layer="877" to-port="1"/>
		<edge from-layer="877" from-port="2" to-layer="880" to-port="0"/>
		<edge from-layer="878" from-port="0" to-layer="879" to-port="0"/>
		<edge from-layer="879" from-port="1" to-layer="880" to-port="1"/>
		<edge from-layer="880" from-port="2" to-layer="881" to-port="0"/>
		<edge from-layer="881" from-port="1" to-layer="884" to-port="0"/>
		<edge from-layer="882" from-port="0" to-layer="883" to-port="0"/>
		<edge from-layer="883" from-port="1" to-layer="884" to-port="1"/>
		<edge from-layer="884" from-port="2" to-layer="887" to-port="0"/>
		<edge from-layer="885" from-port="0" to-layer="886" to-port="0"/>
		<edge from-layer="886" from-port="1" to-layer="887" to-port="1"/>
		<edge from-layer="887" from-port="2" to-layer="888" to-port="0"/>
		<edge from-layer="888" from-port="1" to-layer="889" to-port="2"/>
		<edge from-layer="889" from-port="3" to-layer="891" to-port="0"/>
		<edge from-layer="890" from-port="0" to-layer="891" to-port="1"/>
		<edge from-layer="891" from-port="2" to-layer="1180" to-port="0"/>
		<edge from-layer="892" from-port="0" to-layer="893" to-port="0"/>
		<edge from-layer="893" from-port="1" to-layer="894" to-port="1"/>
		<edge from-layer="894" from-port="2" to-layer="897" to-port="0"/>
		<edge from-layer="895" from-port="0" to-layer="896" to-port="0"/>
		<edge from-layer="896" from-port="1" to-layer="897" to-port="1"/>
		<edge from-layer="897" from-port="2" to-layer="898" to-port="0"/>
		<edge from-layer="898" from-port="1" to-layer="899" to-port="0"/>
		<edge from-layer="899" from-port="2" to-layer="902" to-port="0"/>
		<edge from-layer="899" from-port="2" to-layer="965" to-port="0"/>
		<edge from-layer="900" from-port="0" to-layer="901" to-port="0"/>
		<edge from-layer="901" from-port="1" to-layer="902" to-port="1"/>
		<edge from-layer="902" from-port="2" to-layer="905" to-port="0"/>
		<edge from-layer="903" from-port="0" to-layer="904" to-port="0"/>
		<edge from-layer="904" from-port="1" to-layer="905" to-port="1"/>
		<edge from-layer="905" from-port="2" to-layer="906" to-port="0"/>
		<edge from-layer="906" from-port="1" to-layer="909" to-port="0"/>
		<edge from-layer="907" from-port="0" to-layer="908" to-port="0"/>
		<edge from-layer="908" from-port="1" to-layer="909" to-port="1"/>
		<edge from-layer="909" from-port="2" to-layer="912" to-port="0"/>
		<edge from-layer="910" from-port="0" to-layer="911" to-port="0"/>
		<edge from-layer="911" from-port="1" to-layer="912" to-port="1"/>
		<edge from-layer="912" from-port="2" to-layer="913" to-port="0"/>
		<edge from-layer="913" from-port="1" to-layer="916" to-port="0"/>
		<edge from-layer="914" from-port="0" to-layer="915" to-port="0"/>
		<edge from-layer="915" from-port="1" to-layer="916" to-port="1"/>
		<edge from-layer="916" from-port="2" to-layer="919" to-port="0"/>
		<edge from-layer="917" from-port="0" to-layer="918" to-port="0"/>
		<edge from-layer="918" from-port="1" to-layer="919" to-port="1"/>
		<edge from-layer="919" from-port="2" to-layer="920" to-port="0"/>
		<edge from-layer="920" from-port="1" to-layer="923" to-port="0"/>
		<edge from-layer="921" from-port="0" to-layer="922" to-port="0"/>
		<edge from-layer="922" from-port="1" to-layer="923" to-port="1"/>
		<edge from-layer="923" from-port="2" to-layer="926" to-port="0"/>
		<edge from-layer="924" from-port="0" to-layer="925" to-port="0"/>
		<edge from-layer="925" from-port="1" to-layer="926" to-port="1"/>
		<edge from-layer="926" from-port="2" to-layer="927" to-port="0"/>
		<edge from-layer="927" from-port="1" to-layer="930" to-port="0"/>
		<edge from-layer="928" from-port="0" to-layer="929" to-port="0"/>
		<edge from-layer="929" from-port="1" to-layer="930" to-port="1"/>
		<edge from-layer="930" from-port="2" to-layer="933" to-port="0"/>
		<edge from-layer="931" from-port="0" to-layer="932" to-port="0"/>
		<edge from-layer="932" from-port="1" to-layer="933" to-port="1"/>
		<edge from-layer="933" from-port="2" to-layer="934" to-port="0"/>
		<edge from-layer="934" from-port="1" to-layer="937" to-port="0"/>
		<edge from-layer="935" from-port="0" to-layer="936" to-port="0"/>
		<edge from-layer="936" from-port="1" to-layer="937" to-port="1"/>
		<edge from-layer="937" from-port="2" to-layer="940" to-port="0"/>
		<edge from-layer="938" from-port="0" to-layer="939" to-port="0"/>
		<edge from-layer="939" from-port="1" to-layer="940" to-port="1"/>
		<edge from-layer="940" from-port="2" to-layer="941" to-port="0"/>
		<edge from-layer="941" from-port="1" to-layer="944" to-port="0"/>
		<edge from-layer="942" from-port="0" to-layer="943" to-port="0"/>
		<edge from-layer="943" from-port="1" to-layer="944" to-port="1"/>
		<edge from-layer="944" from-port="2" to-layer="947" to-port="0"/>
		<edge from-layer="945" from-port="0" to-layer="946" to-port="0"/>
		<edge from-layer="946" from-port="1" to-layer="947" to-port="1"/>
		<edge from-layer="947" from-port="2" to-layer="948" to-port="0"/>
		<edge from-layer="948" from-port="1" to-layer="951" to-port="0"/>
		<edge from-layer="949" from-port="0" to-layer="950" to-port="0"/>
		<edge from-layer="950" from-port="1" to-layer="951" to-port="1"/>
		<edge from-layer="951" from-port="2" to-layer="954" to-port="0"/>
		<edge from-layer="952" from-port="0" to-layer="953" to-port="0"/>
		<edge from-layer="953" from-port="1" to-layer="954" to-port="1"/>
		<edge from-layer="954" from-port="2" to-layer="955" to-port="0"/>
		<edge from-layer="955" from-port="1" to-layer="958" to-port="0"/>
		<edge from-layer="956" from-port="0" to-layer="957" to-port="0"/>
		<edge from-layer="957" from-port="1" to-layer="958" to-port="1"/>
		<edge from-layer="958" from-port="2" to-layer="961" to-port="0"/>
		<edge from-layer="959" from-port="0" to-layer="960" to-port="0"/>
		<edge from-layer="960" from-port="1" to-layer="961" to-port="1"/>
		<edge from-layer="961" from-port="2" to-layer="962" to-port="0"/>
		<edge from-layer="962" from-port="1" to-layer="970" to-port="0"/>
		<edge from-layer="963" from-port="0" to-layer="964" to-port="0"/>
		<edge from-layer="964" from-port="1" to-layer="965" to-port="1"/>
		<edge from-layer="965" from-port="2" to-layer="968" to-port="0"/>
		<edge from-layer="966" from-port="0" to-layer="967" to-port="0"/>
		<edge from-layer="967" from-port="1" to-layer="968" to-port="1"/>
		<edge from-layer="968" from-port="2" to-layer="969" to-port="0"/>
		<edge from-layer="969" from-port="1" to-layer="970" to-port="1"/>
		<edge from-layer="970" from-port="2" to-layer="973" to-port="0"/>
		<edge from-layer="971" from-port="0" to-layer="972" to-port="0"/>
		<edge from-layer="972" from-port="1" to-layer="973" to-port="1"/>
		<edge from-layer="973" from-port="2" to-layer="976" to-port="0"/>
		<edge from-layer="974" from-port="0" to-layer="975" to-port="0"/>
		<edge from-layer="975" from-port="1" to-layer="976" to-port="1"/>
		<edge from-layer="976" from-port="2" to-layer="977" to-port="0"/>
		<edge from-layer="977" from-port="1" to-layer="980" to-port="0"/>
		<edge from-layer="977" from-port="1" to-layer="1038" to-port="0"/>
		<edge from-layer="978" from-port="0" to-layer="979" to-port="0"/>
		<edge from-layer="979" from-port="1" to-layer="980" to-port="1"/>
		<edge from-layer="980" from-port="2" to-layer="983" to-port="0"/>
		<edge from-layer="981" from-port="0" to-layer="982" to-port="0"/>
		<edge from-layer="982" from-port="1" to-layer="983" to-port="1"/>
		<edge from-layer="983" from-port="2" to-layer="984" to-port="0"/>
		<edge from-layer="984" from-port="1" to-layer="1014" to-port="0"/>
		<edge from-layer="984" from-port="1" to-layer="987" to-port="0"/>
		<edge from-layer="985" from-port="0" to-layer="986" to-port="0"/>
		<edge from-layer="986" from-port="1" to-layer="987" to-port="1"/>
		<edge from-layer="987" from-port="2" to-layer="990" to-port="0"/>
		<edge from-layer="988" from-port="0" to-layer="989" to-port="0"/>
		<edge from-layer="989" from-port="1" to-layer="990" to-port="1"/>
		<edge from-layer="990" from-port="2" to-layer="991" to-port="0"/>
		<edge from-layer="991" from-port="1" to-layer="994" to-port="0"/>
		<edge from-layer="992" from-port="0" to-layer="993" to-port="0"/>
		<edge from-layer="993" from-port="1" to-layer="994" to-port="1"/>
		<edge from-layer="994" from-port="2" to-layer="997" to-port="0"/>
		<edge from-layer="995" from-port="0" to-layer="996" to-port="0"/>
		<edge from-layer="996" from-port="1" to-layer="997" to-port="1"/>
		<edge from-layer="997" from-port="2" to-layer="998" to-port="0"/>
		<edge from-layer="998" from-port="1" to-layer="1007" to-port="0"/>
		<edge from-layer="998" from-port="1" to-layer="1001" to-port="0"/>
		<edge from-layer="999" from-port="0" to-layer="1000" to-port="0"/>
		<edge from-layer="1000" from-port="1" to-layer="1001" to-port="1"/>
		<edge from-layer="1001" from-port="2" to-layer="1004" to-port="0"/>
		<edge from-layer="1002" from-port="0" to-layer="1003" to-port="0"/>
		<edge from-layer="1003" from-port="1" to-layer="1004" to-port="1"/>
		<edge from-layer="1004" from-port="2" to-layer="1033" to-port="0"/>
		<edge from-layer="1005" from-port="0" to-layer="1006" to-port="0"/>
		<edge from-layer="1006" from-port="1" to-layer="1007" to-port="1"/>
		<edge from-layer="1007" from-port="2" to-layer="1010" to-port="0"/>
		<edge from-layer="1008" from-port="0" to-layer="1009" to-port="0"/>
		<edge from-layer="1009" from-port="1" to-layer="1010" to-port="1"/>
		<edge from-layer="1010" from-port="2" to-layer="1011" to-port="0"/>
		<edge from-layer="1011" from-port="1" to-layer="1033" to-port="1"/>
		<edge from-layer="1012" from-port="0" to-layer="1013" to-port="0"/>
		<edge from-layer="1013" from-port="1" to-layer="1014" to-port="1"/>
		<edge from-layer="1014" from-port="2" to-layer="1017" to-port="0"/>
		<edge from-layer="1015" from-port="0" to-layer="1016" to-port="0"/>
		<edge from-layer="1016" from-port="1" to-layer="1017" to-port="1"/>
		<edge from-layer="1017" from-port="2" to-layer="1018" to-port="0"/>
		<edge from-layer="1018" from-port="1" to-layer="1021" to-port="0"/>
		<edge from-layer="1019" from-port="0" to-layer="1020" to-port="0"/>
		<edge from-layer="1020" from-port="1" to-layer="1021" to-port="1"/>
		<edge from-layer="1021" from-port="2" to-layer="1024" to-port="0"/>
		<edge from-layer="1022" from-port="0" to-layer="1023" to-port="0"/>
		<edge from-layer="1023" from-port="1" to-layer="1024" to-port="1"/>
		<edge from-layer="1024" from-port="2" to-layer="1025" to-port="0"/>
		<edge from-layer="1025" from-port="1" to-layer="1028" to-port="0"/>
		<edge from-layer="1026" from-port="0" to-layer="1027" to-port="0"/>
		<edge from-layer="1027" from-port="1" to-layer="1028" to-port="1"/>
		<edge from-layer="1028" from-port="2" to-layer="1031" to-port="0"/>
		<edge from-layer="1029" from-port="0" to-layer="1030" to-port="0"/>
		<edge from-layer="1030" from-port="1" to-layer="1031" to-port="1"/>
		<edge from-layer="1031" from-port="2" to-layer="1032" to-port="0"/>
		<edge from-layer="1032" from-port="1" to-layer="1033" to-port="2"/>
		<edge from-layer="1033" from-port="3" to-layer="1035" to-port="0"/>
		<edge from-layer="1034" from-port="0" to-layer="1035" to-port="1"/>
		<edge from-layer="1035" from-port="2" to-layer="1180" to-port="1"/>
		<edge from-layer="1036" from-port="0" to-layer="1037" to-port="0"/>
		<edge from-layer="1037" from-port="1" to-layer="1038" to-port="1"/>
		<edge from-layer="1038" from-port="2" to-layer="1041" to-port="0"/>
		<edge from-layer="1039" from-port="0" to-layer="1040" to-port="0"/>
		<edge from-layer="1040" from-port="1" to-layer="1041" to-port="1"/>
		<edge from-layer="1041" from-port="2" to-layer="1042" to-port="0"/>
		<edge from-layer="1042" from-port="1" to-layer="1043" to-port="0"/>
		<edge from-layer="1043" from-port="2" to-layer="1046" to-port="0"/>
		<edge from-layer="1043" from-port="2" to-layer="1109" to-port="0"/>
		<edge from-layer="1044" from-port="0" to-layer="1045" to-port="0"/>
		<edge from-layer="1045" from-port="1" to-layer="1046" to-port="1"/>
		<edge from-layer="1046" from-port="2" to-layer="1049" to-port="0"/>
		<edge from-layer="1047" from-port="0" to-layer="1048" to-port="0"/>
		<edge from-layer="1048" from-port="1" to-layer="1049" to-port="1"/>
		<edge from-layer="1049" from-port="2" to-layer="1050" to-port="0"/>
		<edge from-layer="1050" from-port="1" to-layer="1053" to-port="0"/>
		<edge from-layer="1051" from-port="0" to-layer="1052" to-port="0"/>
		<edge from-layer="1052" from-port="1" to-layer="1053" to-port="1"/>
		<edge from-layer="1053" from-port="2" to-layer="1056" to-port="0"/>
		<edge from-layer="1054" from-port="0" to-layer="1055" to-port="0"/>
		<edge from-layer="1055" from-port="1" to-layer="1056" to-port="1"/>
		<edge from-layer="1056" from-port="2" to-layer="1057" to-port="0"/>
		<edge from-layer="1057" from-port="1" to-layer="1060" to-port="0"/>
		<edge from-layer="1058" from-port="0" to-layer="1059" to-port="0"/>
		<edge from-layer="1059" from-port="1" to-layer="1060" to-port="1"/>
		<edge from-layer="1060" from-port="2" to-layer="1063" to-port="0"/>
		<edge from-layer="1061" from-port="0" to-layer="1062" to-port="0"/>
		<edge from-layer="1062" from-port="1" to-layer="1063" to-port="1"/>
		<edge from-layer="1063" from-port="2" to-layer="1064" to-port="0"/>
		<edge from-layer="1064" from-port="1" to-layer="1067" to-port="0"/>
		<edge from-layer="1065" from-port="0" to-layer="1066" to-port="0"/>
		<edge from-layer="1066" from-port="1" to-layer="1067" to-port="1"/>
		<edge from-layer="1067" from-port="2" to-layer="1070" to-port="0"/>
		<edge from-layer="1068" from-port="0" to-layer="1069" to-port="0"/>
		<edge from-layer="1069" from-port="1" to-layer="1070" to-port="1"/>
		<edge from-layer="1070" from-port="2" to-layer="1071" to-port="0"/>
		<edge from-layer="1071" from-port="1" to-layer="1074" to-port="0"/>
		<edge from-layer="1072" from-port="0" to-layer="1073" to-port="0"/>
		<edge from-layer="1073" from-port="1" to-layer="1074" to-port="1"/>
		<edge from-layer="1074" from-port="2" to-layer="1077" to-port="0"/>
		<edge from-layer="1075" from-port="0" to-layer="1076" to-port="0"/>
		<edge from-layer="1076" from-port="1" to-layer="1077" to-port="1"/>
		<edge from-layer="1077" from-port="2" to-layer="1078" to-port="0"/>
		<edge from-layer="1078" from-port="1" to-layer="1081" to-port="0"/>
		<edge from-layer="1079" from-port="0" to-layer="1080" to-port="0"/>
		<edge from-layer="1080" from-port="1" to-layer="1081" to-port="1"/>
		<edge from-layer="1081" from-port="2" to-layer="1084" to-port="0"/>
		<edge from-layer="1082" from-port="0" to-layer="1083" to-port="0"/>
		<edge from-layer="1083" from-port="1" to-layer="1084" to-port="1"/>
		<edge from-layer="1084" from-port="2" to-layer="1085" to-port="0"/>
		<edge from-layer="1085" from-port="1" to-layer="1088" to-port="0"/>
		<edge from-layer="1086" from-port="0" to-layer="1087" to-port="0"/>
		<edge from-layer="1087" from-port="1" to-layer="1088" to-port="1"/>
		<edge from-layer="1088" from-port="2" to-layer="1091" to-port="0"/>
		<edge from-layer="1089" from-port="0" to-layer="1090" to-port="0"/>
		<edge from-layer="1090" from-port="1" to-layer="1091" to-port="1"/>
		<edge from-layer="1091" from-port="2" to-layer="1092" to-port="0"/>
		<edge from-layer="1092" from-port="1" to-layer="1095" to-port="0"/>
		<edge from-layer="1093" from-port="0" to-layer="1094" to-port="0"/>
		<edge from-layer="1094" from-port="1" to-layer="1095" to-port="1"/>
		<edge from-layer="1095" from-port="2" to-layer="1098" to-port="0"/>
		<edge from-layer="1096" from-port="0" to-layer="1097" to-port="0"/>
		<edge from-layer="1097" from-port="1" to-layer="1098" to-port="1"/>
		<edge from-layer="1098" from-port="2" to-layer="1099" to-port="0"/>
		<edge from-layer="1099" from-port="1" to-layer="1102" to-port="0"/>
		<edge from-layer="1100" from-port="0" to-layer="1101" to-port="0"/>
		<edge from-layer="1101" from-port="1" to-layer="1102" to-port="1"/>
		<edge from-layer="1102" from-port="2" to-layer="1105" to-port="0"/>
		<edge from-layer="1103" from-port="0" to-layer="1104" to-port="0"/>
		<edge from-layer="1104" from-port="1" to-layer="1105" to-port="1"/>
		<edge from-layer="1105" from-port="2" to-layer="1106" to-port="0"/>
		<edge from-layer="1106" from-port="1" to-layer="1114" to-port="0"/>
		<edge from-layer="1107" from-port="0" to-layer="1108" to-port="0"/>
		<edge from-layer="1108" from-port="1" to-layer="1109" to-port="1"/>
		<edge from-layer="1109" from-port="2" to-layer="1112" to-port="0"/>
		<edge from-layer="1110" from-port="0" to-layer="1111" to-port="0"/>
		<edge from-layer="1111" from-port="1" to-layer="1112" to-port="1"/>
		<edge from-layer="1112" from-port="2" to-layer="1113" to-port="0"/>
		<edge from-layer="1113" from-port="1" to-layer="1114" to-port="1"/>
		<edge from-layer="1114" from-port="2" to-layer="1117" to-port="0"/>
		<edge from-layer="1115" from-port="0" to-layer="1116" to-port="0"/>
		<edge from-layer="1116" from-port="1" to-layer="1117" to-port="1"/>
		<edge from-layer="1117" from-port="2" to-layer="1120" to-port="0"/>
		<edge from-layer="1118" from-port="0" to-layer="1119" to-port="0"/>
		<edge from-layer="1119" from-port="1" to-layer="1120" to-port="1"/>
		<edge from-layer="1120" from-port="2" to-layer="1121" to-port="0"/>
		<edge from-layer="1121" from-port="1" to-layer="1124" to-port="0"/>
		<edge from-layer="1122" from-port="0" to-layer="1123" to-port="0"/>
		<edge from-layer="1123" from-port="1" to-layer="1124" to-port="1"/>
		<edge from-layer="1124" from-port="2" to-layer="1127" to-port="0"/>
		<edge from-layer="1125" from-port="0" to-layer="1126" to-port="0"/>
		<edge from-layer="1126" from-port="1" to-layer="1127" to-port="1"/>
		<edge from-layer="1127" from-port="2" to-layer="1128" to-port="0"/>
		<edge from-layer="1128" from-port="1" to-layer="1131" to-port="0"/>
		<edge from-layer="1128" from-port="1" to-layer="1158" to-port="0"/>
		<edge from-layer="1129" from-port="0" to-layer="1130" to-port="0"/>
		<edge from-layer="1130" from-port="1" to-layer="1131" to-port="1"/>
		<edge from-layer="1131" from-port="2" to-layer="1134" to-port="0"/>
		<edge from-layer="1132" from-port="0" to-layer="1133" to-port="0"/>
		<edge from-layer="1133" from-port="1" to-layer="1134" to-port="1"/>
		<edge from-layer="1134" from-port="2" to-layer="1135" to-port="0"/>
		<edge from-layer="1135" from-port="1" to-layer="1138" to-port="0"/>
		<edge from-layer="1136" from-port="0" to-layer="1137" to-port="0"/>
		<edge from-layer="1137" from-port="1" to-layer="1138" to-port="1"/>
		<edge from-layer="1138" from-port="2" to-layer="1141" to-port="0"/>
		<edge from-layer="1139" from-port="0" to-layer="1140" to-port="0"/>
		<edge from-layer="1140" from-port="1" to-layer="1141" to-port="1"/>
		<edge from-layer="1141" from-port="2" to-layer="1142" to-port="0"/>
		<edge from-layer="1142" from-port="1" to-layer="1145" to-port="0"/>
		<edge from-layer="1142" from-port="1" to-layer="1151" to-port="0"/>
		<edge from-layer="1143" from-port="0" to-layer="1144" to-port="0"/>
		<edge from-layer="1144" from-port="1" to-layer="1145" to-port="1"/>
		<edge from-layer="1145" from-port="2" to-layer="1148" to-port="0"/>
		<edge from-layer="1146" from-port="0" to-layer="1147" to-port="0"/>
		<edge from-layer="1147" from-port="1" to-layer="1148" to-port="1"/>
		<edge from-layer="1148" from-port="2" to-layer="1177" to-port="0"/>
		<edge from-layer="1149" from-port="0" to-layer="1150" to-port="0"/>
		<edge from-layer="1150" from-port="1" to-layer="1151" to-port="1"/>
		<edge from-layer="1151" from-port="2" to-layer="1154" to-port="0"/>
		<edge from-layer="1152" from-port="0" to-layer="1153" to-port="0"/>
		<edge from-layer="1153" from-port="1" to-layer="1154" to-port="1"/>
		<edge from-layer="1154" from-port="2" to-layer="1155" to-port="0"/>
		<edge from-layer="1155" from-port="1" to-layer="1177" to-port="1"/>
		<edge from-layer="1156" from-port="0" to-layer="1157" to-port="0"/>
		<edge from-layer="1157" from-port="1" to-layer="1158" to-port="1"/>
		<edge from-layer="1158" from-port="2" to-layer="1161" to-port="0"/>
		<edge from-layer="1159" from-port="0" to-layer="1160" to-port="0"/>
		<edge from-layer="1160" from-port="1" to-layer="1161" to-port="1"/>
		<edge from-layer="1161" from-port="2" to-layer="1162" to-port="0"/>
		<edge from-layer="1162" from-port="1" to-layer="1165" to-port="0"/>
		<edge from-layer="1163" from-port="0" to-layer="1164" to-port="0"/>
		<edge from-layer="1164" from-port="1" to-layer="1165" to-port="1"/>
		<edge from-layer="1165" from-port="2" to-layer="1168" to-port="0"/>
		<edge from-layer="1166" from-port="0" to-layer="1167" to-port="0"/>
		<edge from-layer="1167" from-port="1" to-layer="1168" to-port="1"/>
		<edge from-layer="1168" from-port="2" to-layer="1169" to-port="0"/>
		<edge from-layer="1169" from-port="1" to-layer="1172" to-port="0"/>
		<edge from-layer="1170" from-port="0" to-layer="1171" to-port="0"/>
		<edge from-layer="1171" from-port="1" to-layer="1172" to-port="1"/>
		<edge from-layer="1172" from-port="2" to-layer="1175" to-port="0"/>
		<edge from-layer="1173" from-port="0" to-layer="1174" to-port="0"/>
		<edge from-layer="1174" from-port="1" to-layer="1175" to-port="1"/>
		<edge from-layer="1175" from-port="2" to-layer="1176" to-port="0"/>
		<edge from-layer="1176" from-port="1" to-layer="1177" to-port="2"/>
		<edge from-layer="1177" from-port="3" to-layer="1179" to-port="0"/>
		<edge from-layer="1178" from-port="0" to-layer="1179" to-port="1"/>
		<edge from-layer="1179" from-port="2" to-layer="1180" to-port="2"/>
		<edge from-layer="1180" from-port="3" to-layer="1182" to-port="0"/>
		<edge from-layer="1181" from-port="0" to-layer="1182" to-port="1"/>
		<edge from-layer="1182" from-port="2" to-layer="1183" to-port="0"/>
	</edges>
	<meta_data>
		<MO_version value="2022.1.0-7019-cdb9bec7210-releases/2022/1"/>
		<Runtime_version value="2022.1.0-7019-cdb9bec7210-releases/2022/1"/>
		<legacy_path value="False"/>
		<cli_parameters>
			<caffe_parser_path value="DIR"/>
			<compress_fp16 value="True"/>
			<data_type value="FP32"/>
			<disable_nhwc_to_nchw value="False"/>
			<disable_omitting_optional value="False"/>
			<disable_resnet_optimization value="False"/>
			<disable_weights_compression value="False"/>
			<enable_concat_optimization value="False"/>
			<enable_flattening_nested_params value="False"/>
			<enable_ssd_gluoncv value="False"/>
			<extensions value="DIR"/>
			<framework value="onnx"/>
			<freeze_placeholder_with_value value="{}"/>
			<input_model value="DIR\yolox_x.onnx"/>
			<input_model_is_text value="False"/>
			<input_shape value="[1,3,640,640]"/>
			<k value="DIR\CustomLayersMapping.xml"/>
			<layout value="()"/>
			<layout_values value="{}"/>
			<legacy_mxnet_model value="False"/>
			<log_level value="ERROR"/>
			<mean_scale_values value="{}"/>
			<mean_values value="()"/>
			<model_name value="yolox_x"/>
			<output_dir value="DIR"/>
			<placeholder_data_types value="{}"/>
			<placeholder_shapes value="(1, 3, 640, 640)"/>
			<progress value="False"/>
			<remove_memory value="False"/>
			<remove_output_softmax value="False"/>
			<reverse_input_channels value="False"/>
			<save_params_from_nd value="False"/>
			<scale_values value="()"/>
			<silent value="False"/>
			<source_layout value="()"/>
			<static_shape value="False"/>
			<stream_output value="False"/>
			<target_layout value="()"/>
			<transform value=""/>
			<use_legacy_frontend value="False"/>
			<use_new_frontend value="False"/>
			<unset unset_cli_parameters="batch, counts, disable_fusing, finegrain_fusing, input, input_checkpoint, input_meta_graph, input_proto, input_symbol, mean_file, mean_file_offsets, nd_prefix_name, output, pretrained_model_name, saved_model_dir, saved_model_tags, scale, tensorboard_logdir, tensorflow_custom_layer_libraries, tensorflow_custom_operations_config_update, tensorflow_object_detection_api_pipeline_config, tensorflow_use_custom_operations_config, transformations_config"/>
		</cli_parameters>
	</meta_data>
</net>
