<?xml version="1.0" ?>
<net name="yolox_x" version="10">
	<layers>
		<layer id="0" name="3383338727417" type="Const" version="opset1">
			<data offset="0" size="2" shape="" element_type="f16"/>
			<output>
				<port id="0" precision="FP16"/>
			</output>
		</layer>
		<layer id="1" name="3384338828185" type="Const" version="opset1">
			<data offset="2" size="2" shape="" element_type="f16"/>
			<output>
				<port id="0" precision="FP16"/>
			</output>
		</layer>
		<layer id="2" name="3385338928323" type="Const" version="opset1">
			<data offset="0" size="2" shape="" element_type="f16"/>
			<output>
				<port id="0" precision="FP16"/>
			</output>
		</layer>
		<layer id="3" name="3386339026667" type="Const" version="opset1">
			<data offset="2" size="2" shape="" element_type="f16"/>
			<output>
				<port id="0" precision="FP16"/>
			</output>
		</layer>
		<layer id="4" name="3743374728425" type="Const" version="opset1">
			<data offset="4" size="2" shape="" element_type="f16"/>
			<output>
				<port id="0" precision="FP16"/>
			</output>
		</layer>
		<layer id="5" name="3744374826373" type="Const" version="opset1">
			<data offset="6" size="2" shape="" element_type="f16"/>
			<output>
				<port id="0" precision="FP16"/>
			</output>
		</layer>
		<layer id="6" name="3745374928719" type="Const" version="opset1">
			<data offset="4" size="2" shape="" element_type="f16"/>
			<output>
				<port id="0" precision="FP16"/>
			</output>
		</layer>
		<layer id="7" name="3746375029937" type="Const" version="opset1">
			<data offset="6" size="2" shape="" element_type="f16"/>
			<output>
				<port id="0" precision="FP16"/>
			</output>
		</layer>
		<layer id="8" name="6385638927669" type="Const" version="opset1">
			<data offset="8" size="2" shape="" element_type="f16"/>
			<output>
				<port id="0" precision="FP16"/>
			</output>
		</layer>
		<layer id="9" name="6386639027534" type="Const" version="opset1">
			<data offset="10" size="2" shape="" element_type="f16"/>
			<output>
				<port id="0" precision="FP16"/>
			</output>
		</layer>
		<layer id="10" name="6387639127357" type="Const" version="opset1">
			<data offset="8" size="2" shape="" element_type="f16"/>
			<output>
				<port id="0" precision="FP16"/>
			</output>
		</layer>
		<layer id="11" name="6388639228497" type="Const" version="opset1">
			<data offset="10" size="2" shape="" element_type="f16"/>
			<output>
				<port id="0" precision="FP16"/>
			</output>
		</layer>
		<layer id="12" name="4803480729643" type="Const" version="opset1">
			<data offset="12" size="2" shape="" element_type="f16"/>
			<output>
				<port id="0" precision="FP16"/>
			</output>
		</layer>
		<layer id="13" name="4804480828851" type="Const" version="opset1">
			<data offset="14" size="2" shape="" element_type="f16"/>
			<output>
				<port id="0" precision="FP16"/>
			</output>
		</layer>
		<layer id="14" name="4805480926589" type="Const" version="opset1">
			<data offset="12" size="2" shape="" element_type="f16"/>
			<output>
				<port id="0" precision="FP16"/>
			</output>
		</layer>
		<layer id="15" name="4806481027411" type="Const" version="opset1">
			<data offset="14" size="2" shape="" element_type="f16"/>
			<output>
				<port id="0" precision="FP16"/>
			</output>
		</layer>
		<layer id="16" name="8579858326919" type="Const" version="opset1">
			<data offset="16" size="2" shape="" element_type="f16"/>
			<output>
				<port id="0" precision="FP16"/>
			</output>
		</layer>
		<layer id="17" name="8580858430069" type="Const" version="opset1">
			<data offset="18" size="2" shape="" element_type="f16"/>
			<output>
				<port id="0" precision="FP16"/>
			</output>
		</layer>
		<layer id="18" name="8581858529412" type="Const" version="opset1">
			<data offset="16" size="2" shape="" element_type="f16"/>
			<output>
				<port id="0" precision="FP16"/>
			</output>
		</layer>
		<layer id="19" name="8582858626895" type="Const" version="opset1">
			<data offset="18" size="2" shape="" element_type="f16"/>
			<output>
				<port id="0" precision="FP16"/>
			</output>
		</layer>
		<layer id="20" name="5463546726163" type="Const" version="opset1">
			<data offset="20" size="2" shape="" element_type="f16"/>
			<output>
				<port id="0" precision="FP16"/>
			</output>
		</layer>
		<layer id="21" name="5464546827693" type="Const" version="opset1">
			<data offset="22" size="2" shape="" element_type="f16"/>
			<output>
				<port id="0" precision="FP16"/>
			</output>
		</layer>
		<layer id="22" name="5465546926307" type="Const" version="opset1">
			<data offset="20" size="2" shape="" element_type="f16"/>
			<output>
				<port id="0" precision="FP16"/>
			</output>
		</layer>
		<layer id="23" name="5466547026955" type="Const" version="opset1">
			<data offset="22" size="2" shape="" element_type="f16"/>
			<output>
				<port id="0" precision="FP16"/>
			</output>
		</layer>
		<layer id="24" name="4313431727024" type="Const" version="opset1">
			<data offset="24" size="2" shape="" element_type="f16"/>
			<output>
				<port id="0" precision="FP16"/>
			</output>
		</layer>
		<layer id="25" name="4314431829781" type="Const" version="opset1">
			<data offset="26" size="2" shape="" element_type="f16"/>
			<output>
				<port id="0" precision="FP16"/>
			</output>
		</layer>
		<layer id="26" name="4315431927336" type="Const" version="opset1">
			<data offset="24" size="2" shape="" element_type="f16"/>
			<output>
				<port id="0" precision="FP16"/>
			</output>
		</layer>
		<layer id="27" name="4316432029415" type="Const" version="opset1">
			<data offset="26" size="2" shape="" element_type="f16"/>
			<output>
				<port id="0" precision="FP16"/>
			</output>
		</layer>
		<layer id="28" name="4763476728755" type="Const" version="opset1">
			<data offset="28" size="2" shape="" element_type="f16"/>
			<output>
				<port id="0" precision="FP16"/>
			</output>
		</layer>
		<layer id="29" name="4764476829067" type="Const" version="opset1">
			<data offset="30" size="2" shape="" element_type="f16"/>
			<output>
				<port id="0" precision="FP16"/>
			</output>
		</layer>
		<layer id="30" name="4765476929298" type="Const" version="opset1">
			<data offset="28" size="2" shape="" element_type="f16"/>
			<output>
				<port id="0" precision="FP16"/>
			</output>
		</layer>
		<layer id="31" name="4766477026829" type="Const" version="opset1">
			<data offset="30" size="2" shape="" element_type="f16"/>
			<output>
				<port id="0" precision="FP16"/>
			</output>
		</layer>
		<layer id="32" name="5383538728722" type="Const" version="opset1">
			<data offset="32" size="2" shape="" element_type="f16"/>
			<output>
				<port id="0" precision="FP16"/>
			</output>
		</layer>
		<layer id="33" name="5384538826478" type="Const" version="opset1">
			<data offset="34" size="2" shape="" element_type="f16"/>
			<output>
				<port id="0" precision="FP16"/>
			</output>
		</layer>
		<layer id="34" name="5385538928272" type="Const" version="opset1">
			<data offset="32" size="2" shape="" element_type="f16"/>
			<output>
				<port id="0" precision="FP16"/>
			</output>
		</layer>
		<layer id="35" name="5386539026376" type="Const" version="opset1">
			<data offset="34" size="2" shape="" element_type="f16"/>
			<output>
				<port id="0" precision="FP16"/>
			</output>
		</layer>
		<layer id="36" name="6485648927723" type="Const" version="opset1">
			<data offset="36" size="2" shape="" element_type="f16"/>
			<output>
				<port id="0" precision="FP16"/>
			</output>
		</layer>
		<layer id="37" name="6486649028392" type="Const" version="opset1">
			<data offset="38" size="2" shape="" element_type="f16"/>
			<output>
				<port id="0" precision="FP16"/>
			</output>
		</layer>
		<layer id="38" name="6487649128809" type="Const" version="opset1">
			<data offset="36" size="2" shape="" element_type="f16"/>
			<output>
				<port id="0" precision="FP16"/>
			</output>
		</layer>
		<layer id="39" name="6488649229205" type="Const" version="opset1">
			<data offset="38" size="2" shape="" element_type="f16"/>
			<output>
				<port id="0" precision="FP16"/>
			</output>
		</layer>
		<layer id="40" name="4573457729712" type="Const" version="opset1">
			<data offset="40" size="2" shape="" element_type="f16"/>
			<output>
				<port id="0" precision="FP16"/>
			</output>
		</layer>
		<layer id="41" name="4574457827438" type="Const" version="opset1">
			<data offset="42" size="2" shape="" element_type="f16"/>
			<output>
				<port id="0" precision="FP16"/>
			</output>
		</layer>
		<layer id="42" name="4575457926985" type="Const" version="opset1">
			<data offset="40" size="2" shape="" element_type="f16"/>
			<output>
				<port id="0" precision="FP16"/>
			</output>
		</layer>
		<layer id="43" name="4576458029199" type="Const" version="opset1">
			<data offset="42" size="2" shape="" element_type="f16"/>
			<output>
				<port id="0" precision="FP16"/>
			</output>
		</layer>
		<layer id="44" name="3183318729061" type="Const" version="opset1">
			<data offset="44" size="2" shape="" element_type="f16"/>
			<output>
				<port id="0" precision="FP16"/>
			</output>
		</layer>
		<layer id="45" name="3184318828878" type="Const" version="opset1">
			<data offset="46" size="2" shape="" element_type="f16"/>
			<output>
				<port id="0" precision="FP16"/>
			</output>
		</layer>
		<layer id="46" name="3185318927600" type="Const" version="opset1">
			<data offset="44" size="2" shape="" element_type="f16"/>
			<output>
				<port id="0" precision="FP16"/>
			</output>
		</layer>
		<layer id="47" name="3186319026082" type="Const" version="opset1">
			<data offset="46" size="2" shape="" element_type="f16"/>
			<output>
				<port id="0" precision="FP16"/>
			</output>
		</layer>
		<layer id="48" name="5103510726922" type="Const" version="opset1">
			<data offset="48" size="2" shape="" element_type="f16"/>
			<output>
				<port id="0" precision="FP16"/>
			</output>
		</layer>
		<layer id="49" name="5104510829997" type="Const" version="opset1">
			<data offset="50" size="2" shape="" element_type="f16"/>
			<output>
				<port id="0" precision="FP16"/>
			</output>
		</layer>
		<layer id="50" name="5105510928500" type="Const" version="opset1">
			<data offset="48" size="2" shape="" element_type="f16"/>
			<output>
				<port id="0" precision="FP16"/>
			</output>
		</layer>
		<layer id="51" name="5106511028290" type="Const" version="opset1">
			<data offset="50" size="2" shape="" element_type="f16"/>
			<output>
				<port id="0" precision="FP16"/>
			</output>
		</layer>
		<layer id="52" name="8549855329457" type="Const" version="opset1">
			<data offset="52" size="2" shape="" element_type="f16"/>
			<output>
				<port id="0" precision="FP16"/>
			</output>
		</layer>
		<layer id="53" name="8550855430081" type="Const" version="opset1">
			<data offset="54" size="2" shape="" element_type="f16"/>
			<output>
				<port id="0" precision="FP16"/>
			</output>
		</layer>
		<layer id="54" name="8551855527930" type="Const" version="opset1">
			<data offset="52" size="2" shape="" element_type="f16"/>
			<output>
				<port id="0" precision="FP16"/>
			</output>
		</layer>
		<layer id="55" name="8552855629718" type="Const" version="opset1">
			<data offset="54" size="2" shape="" element_type="f16"/>
			<output>
				<port id="0" precision="FP16"/>
			</output>
		</layer>
		<layer id="56" name="8349835329148" type="Const" version="opset1">
			<data offset="56" size="2" shape="" element_type="f16"/>
			<output>
				<port id="0" precision="FP16"/>
			</output>
		</layer>
		<layer id="57" name="8350835427288" type="Const" version="opset1">
			<data offset="58" size="2" shape="" element_type="f16"/>
			<output>
				<port id="0" precision="FP16"/>
			</output>
		</layer>
		<layer id="58" name="8351835528485" type="Const" version="opset1">
			<data offset="56" size="2" shape="" element_type="f16"/>
			<output>
				<port id="0" precision="FP16"/>
			</output>
		</layer>
		<layer id="59" name="8352835629022" type="Const" version="opset1">
			<data offset="58" size="2" shape="" element_type="f16"/>
			<output>
				<port id="0" precision="FP16"/>
			</output>
		</layer>
		<layer id="60" name="3943394728566" type="Const" version="opset1">
			<data offset="60" size="2" shape="" element_type="f16"/>
			<output>
				<port id="0" precision="FP16"/>
			</output>
		</layer>
		<layer id="61" name="3944394829670" type="Const" version="opset1">
			<data offset="62" size="2" shape="" element_type="f16"/>
			<output>
				<port id="0" precision="FP16"/>
			</output>
		</layer>
		<layer id="62" name="3945394926253" type="Const" version="opset1">
			<data offset="60" size="2" shape="" element_type="f16"/>
			<output>
				<port id="0" precision="FP16"/>
			</output>
		</layer>
		<layer id="63" name="3946395026193" type="Const" version="opset1">
			<data offset="62" size="2" shape="" element_type="f16"/>
			<output>
				<port id="0" precision="FP16"/>
			</output>
		</layer>
		<layer id="64" name="4243424727213" type="Const" version="opset1">
			<data offset="64" size="2" shape="" element_type="f16"/>
			<output>
				<port id="0" precision="FP16"/>
			</output>
		</layer>
		<layer id="65" name="4244424827066" type="Const" version="opset1">
			<data offset="66" size="2" shape="" element_type="f16"/>
			<output>
				<port id="0" precision="FP16"/>
			</output>
		</layer>
		<layer id="66" name="4245424929130" type="Const" version="opset1">
			<data offset="64" size="2" shape="" element_type="f16"/>
			<output>
				<port id="0" precision="FP16"/>
			</output>
		</layer>
		<layer id="67" name="4246425026754" type="Const" version="opset1">
			<data offset="66" size="2" shape="" element_type="f16"/>
			<output>
				<port id="0" precision="FP16"/>
			</output>
		</layer>
		<layer id="68" name="3953395729037" type="Const" version="opset1">
			<data offset="68" size="2" shape="" element_type="f16"/>
			<output>
				<port id="0" precision="FP16"/>
			</output>
		</layer>
		<layer id="69" name="3954395828269" type="Const" version="opset1">
			<data offset="70" size="2" shape="" element_type="f16"/>
			<output>
				<port id="0" precision="FP16"/>
			</output>
		</layer>
		<layer id="70" name="3955395928149" type="Const" version="opset1">
			<data offset="68" size="2" shape="" element_type="f16"/>
			<output>
				<port id="0" precision="FP16"/>
			</output>
		</layer>
		<layer id="71" name="3956396027486" type="Const" version="opset1">
			<data offset="70" size="2" shape="" element_type="f16"/>
			<output>
				<port id="0" precision="FP16"/>
			</output>
		</layer>
		<layer id="72" name="4783478727705" type="Const" version="opset1">
			<data offset="60" size="2" shape="" element_type="f16"/>
			<output>
				<port id="0" precision="FP16"/>
			</output>
		</layer>
		<layer id="73" name="4784478827018" type="Const" version="opset1">
			<data offset="72" size="2" shape="" element_type="f16"/>
			<output>
				<port id="0" precision="FP16"/>
			</output>
		</layer>
		<layer id="74" name="4785478927603" type="Const" version="opset1">
			<data offset="60" size="2" shape="" element_type="f16"/>
			<output>
				<port id="0" precision="FP16"/>
			</output>
		</layer>
		<layer id="75" name="4786479026139" type="Const" version="opset1">
			<data offset="72" size="2" shape="" element_type="f16"/>
			<output>
				<port id="0" precision="FP16"/>
			</output>
		</layer>
		<layer id="76" name="3643364727909" type="Const" version="opset1">
			<data offset="74" size="2" shape="" element_type="f16"/>
			<output>
				<port id="0" precision="FP16"/>
			</output>
		</layer>
		<layer id="77" name="3644364829754" type="Const" version="opset1">
			<data offset="76" size="2" shape="" element_type="f16"/>
			<output>
				<port id="0" precision="FP16"/>
			</output>
		</layer>
		<layer id="78" name="3645364926787" type="Const" version="opset1">
			<data offset="74" size="2" shape="" element_type="f16"/>
			<output>
				<port id="0" precision="FP16"/>
			</output>
		</layer>
		<layer id="79" name="3646365029340" type="Const" version="opset1">
			<data offset="76" size="2" shape="" element_type="f16"/>
			<output>
				<port id="0" precision="FP16"/>
			</output>
		</layer>
		<layer id="80" name="4793479728344" type="Const" version="opset1">
			<data offset="78" size="2" shape="" element_type="f16"/>
			<output>
				<port id="0" precision="FP16"/>
			</output>
		</layer>
		<layer id="81" name="4794479826013" type="Const" version="opset1">
			<data offset="80" size="2" shape="" element_type="f16"/>
			<output>
				<port id="0" precision="FP16"/>
			</output>
		</layer>
		<layer id="82" name="4795479926436" type="Const" version="opset1">
			<data offset="78" size="2" shape="" element_type="f16"/>
			<output>
				<port id="0" precision="FP16"/>
			</output>
		</layer>
		<layer id="83" name="4796480027885" type="Const" version="opset1">
			<data offset="80" size="2" shape="" element_type="f16"/>
			<output>
				<port id="0" precision="FP16"/>
			</output>
		</layer>
		<layer id="84" name="3063306726094" type="Const" version="opset1">
			<data offset="82" size="2" shape="" element_type="f16"/>
			<output>
				<port id="0" precision="FP16"/>
			</output>
		</layer>
		<layer id="85" name="3064306829124" type="Const" version="opset1">
			<data offset="84" size="2" shape="" element_type="f16"/>
			<output>
				<port id="0" precision="FP16"/>
			</output>
		</layer>
		<layer id="86" name="3065306928587" type="Const" version="opset1">
			<data offset="82" size="2" shape="" element_type="f16"/>
			<output>
				<port id="0" precision="FP16"/>
			</output>
		</layer>
		<layer id="87" name="3066307028899" type="Const" version="opset1">
			<data offset="84" size="2" shape="" element_type="f16"/>
			<output>
				<port id="0" precision="FP16"/>
			</output>
		</layer>
		<layer id="88" name="5785578927588" type="Const" version="opset1">
			<data offset="86" size="2" shape="" element_type="f16"/>
			<output>
				<port id="0" precision="FP16"/>
			</output>
		</layer>
		<layer id="89" name="5786579026526" type="Const" version="opset1">
			<data offset="88" size="2" shape="" element_type="f16"/>
			<output>
				<port id="0" precision="FP16"/>
			</output>
		</layer>
		<layer id="90" name="5787579129370" type="Const" version="opset1">
			<data offset="86" size="2" shape="" element_type="f16"/>
			<output>
				<port id="0" precision="FP16"/>
			</output>
		</layer>
		<layer id="91" name="5788579229289" type="Const" version="opset1">
			<data offset="88" size="2" shape="" element_type="f16"/>
			<output>
				<port id="0" precision="FP16"/>
			</output>
		</layer>
		<layer id="92" name="3073307727948" type="Const" version="opset1">
			<data offset="90" size="2" shape="" element_type="f16"/>
			<output>
				<port id="0" precision="FP16"/>
			</output>
		</layer>
		<layer id="93" name="3074307828761" type="Const" version="opset1">
			<data offset="92" size="2" shape="" element_type="f16"/>
			<output>
				<port id="0" precision="FP16"/>
			</output>
		</layer>
		<layer id="94" name="3075307928815" type="Const" version="opset1">
			<data offset="90" size="2" shape="" element_type="f16"/>
			<output>
				<port id="0" precision="FP16"/>
			</output>
		</layer>
		<layer id="95" name="3076308026565" type="Const" version="opset1">
			<data offset="92" size="2" shape="" element_type="f16"/>
			<output>
				<port id="0" precision="FP16"/>
			</output>
		</layer>
		<layer id="96" name="2843284727759" type="Const" version="opset1">
			<data offset="94" size="2" shape="" element_type="f16"/>
			<output>
				<port id="0" precision="FP16"/>
			</output>
		</layer>
		<layer id="97" name="2844284826241" type="Const" version="opset1">
			<data offset="96" size="2" shape="" element_type="f16"/>
			<output>
				<port id="0" precision="FP16"/>
			</output>
		</layer>
		<layer id="98" name="2845284928578" type="Const" version="opset1">
			<data offset="94" size="2" shape="" element_type="f16"/>
			<output>
				<port id="0" precision="FP16"/>
			</output>
		</layer>
		<layer id="99" name="2846285027903" type="Const" version="opset1">
			<data offset="96" size="2" shape="" element_type="f16"/>
			<output>
				<port id="0" precision="FP16"/>
			</output>
		</layer>
		<layer id="100" name="5845584926553" type="Const" version="opset1">
			<data offset="98" size="2" shape="" element_type="f16"/>
			<output>
				<port id="0" precision="FP16"/>
			</output>
		</layer>
		<layer id="101" name="5846585026415" type="Const" version="opset1">
			<data offset="72" size="2" shape="" element_type="f16"/>
			<output>
				<port id="0" precision="FP16"/>
			</output>
		</layer>
		<layer id="102" name="5847585129463" type="Const" version="opset1">
			<data offset="98" size="2" shape="" element_type="f16"/>
			<output>
				<port id="0" precision="FP16"/>
			</output>
		</layer>
		<layer id="103" name="5848585227609" type="Const" version="opset1">
			<data offset="72" size="2" shape="" element_type="f16"/>
			<output>
				<port id="0" precision="FP16"/>
			</output>
		</layer>
		<layer id="104" name="2853285726328" type="Const" version="opset1">
			<data offset="100" size="2" shape="" element_type="f16"/>
			<output>
				<port id="0" precision="FP16"/>
			</output>
		</layer>
		<layer id="105" name="2854285828611" type="Const" version="opset1">
			<data offset="102" size="2" shape="" element_type="f16"/>
			<output>
				<port id="0" precision="FP16"/>
			</output>
		</layer>
		<layer id="106" name="2855285929562" type="Const" version="opset1">
			<data offset="100" size="2" shape="" element_type="f16"/>
			<output>
				<port id="0" precision="FP16"/>
			</output>
		</layer>
		<layer id="107" name="2856286027633" type="Const" version="opset1">
			<data offset="102" size="2" shape="" element_type="f16"/>
			<output>
				<port id="0" precision="FP16"/>
			</output>
		</layer>
		<layer id="108" name="3463346726883" type="Const" version="opset1">
			<data offset="104" size="2" shape="" element_type="f16"/>
			<output>
				<port id="0" precision="FP16"/>
			</output>
		</layer>
		<layer id="109" name="3464346827159" type="Const" version="opset1">
			<data offset="106" size="2" shape="" element_type="f16"/>
			<output>
				<port id="0" precision="FP16"/>
			</output>
		</layer>
		<layer id="110" name="3465346929136" type="Const" version="opset1">
			<data offset="104" size="2" shape="" element_type="f16"/>
			<output>
				<port id="0" precision="FP16"/>
			</output>
		</layer>
		<layer id="111" name="3466347027819" type="Const" version="opset1">
			<data offset="106" size="2" shape="" element_type="f16"/>
			<output>
				<port id="0" precision="FP16"/>
			</output>
		</layer>
		<layer id="112" name="5665566926226" type="Const" version="opset1">
			<data offset="108" size="2" shape="" element_type="f16"/>
			<output>
				<port id="0" precision="FP16"/>
			</output>
		</layer>
		<layer id="113" name="5666567027186" type="Const" version="opset1">
			<data offset="110" size="2" shape="" element_type="f16"/>
			<output>
				<port id="0" precision="FP16"/>
			</output>
		</layer>
		<layer id="114" name="5667567128749" type="Const" version="opset1">
			<data offset="108" size="2" shape="" element_type="f16"/>
			<output>
				<port id="0" precision="FP16"/>
			</output>
		</layer>
		<layer id="115" name="5668567227120" type="Const" version="opset1">
			<data offset="110" size="2" shape="" element_type="f16"/>
			<output>
				<port id="0" precision="FP16"/>
			</output>
		</layer>
		<layer id="116" name="3473347728020" type="Const" version="opset1">
			<data offset="112" size="2" shape="" element_type="f16"/>
			<output>
				<port id="0" precision="FP16"/>
			</output>
		</layer>
		<layer id="117" name="3474347828182" type="Const" version="opset1">
			<data offset="114" size="2" shape="" element_type="f16"/>
			<output>
				<port id="0" precision="FP16"/>
			</output>
		</layer>
		<layer id="118" name="3475347928647" type="Const" version="opset1">
			<data offset="112" size="2" shape="" element_type="f16"/>
			<output>
				<port id="0" precision="FP16"/>
			</output>
		</layer>
		<layer id="119" name="3476348029988" type="Const" version="opset1">
			<data offset="114" size="2" shape="" element_type="f16"/>
			<output>
				<port id="0" precision="FP16"/>
			</output>
		</layer>
		<layer id="120" name="3163316727432" type="Const" version="opset1">
			<data offset="116" size="2" shape="" element_type="f16"/>
			<output>
				<port id="0" precision="FP16"/>
			</output>
		</layer>
		<layer id="121" name="3164316826514" type="Const" version="opset1">
			<data offset="118" size="2" shape="" element_type="f16"/>
			<output>
				<port id="0" precision="FP16"/>
			</output>
		</layer>
		<layer id="122" name="3165316927672" type="Const" version="opset1">
			<data offset="116" size="2" shape="" element_type="f16"/>
			<output>
				<port id="0" precision="FP16"/>
			</output>
		</layer>
		<layer id="123" name="3166317026772" type="Const" version="opset1">
			<data offset="118" size="2" shape="" element_type="f16"/>
			<output>
				<port id="0" precision="FP16"/>
			</output>
		</layer>
		<layer id="124" name="3503350728599" type="Const" version="opset1">
			<data offset="120" size="2" shape="" element_type="f16"/>
			<output>
				<port id="0" precision="FP16"/>
			</output>
		</layer>
		<layer id="125" name="3504350827852" type="Const" version="opset1">
			<data offset="122" size="2" shape="" element_type="f16"/>
			<output>
				<port id="0" precision="FP16"/>
			</output>
		</layer>
		<layer id="126" name="3505350926280" type="Const" version="opset1">
			<data offset="120" size="2" shape="" element_type="f16"/>
			<output>
				<port id="0" precision="FP16"/>
			</output>
		</layer>
		<layer id="127" name="3506351028086" type="Const" version="opset1">
			<data offset="122" size="2" shape="" element_type="f16"/>
			<output>
				<port id="0" precision="FP16"/>
			</output>
		</layer>
		<layer id="128" name="3173317729583" type="Const" version="opset1">
			<data offset="124" size="2" shape="" element_type="f16"/>
			<output>
				<port id="0" precision="FP16"/>
			</output>
		</layer>
		<layer id="129" name="3174317826856" type="Const" version="opset1">
			<data offset="126" size="2" shape="" element_type="f16"/>
			<output>
				<port id="0" precision="FP16"/>
			</output>
		</layer>
		<layer id="130" name="3175317926115" type="Const" version="opset1">
			<data offset="124" size="2" shape="" element_type="f16"/>
			<output>
				<port id="0" precision="FP16"/>
			</output>
		</layer>
		<layer id="131" name="3176318028548" type="Const" version="opset1">
			<data offset="126" size="2" shape="" element_type="f16"/>
			<output>
				<port id="0" precision="FP16"/>
			</output>
		</layer>
		<layer id="132" name="3603360729139" type="Const" version="opset1">
			<data offset="128" size="2" shape="" element_type="f16"/>
			<output>
				<port id="0" precision="FP16"/>
			</output>
		</layer>
		<layer id="133" name="3604360829532" type="Const" version="opset1">
			<data offset="130" size="2" shape="" element_type="f16"/>
			<output>
				<port id="0" precision="FP16"/>
			</output>
		</layer>
		<layer id="134" name="3605360928575" type="Const" version="opset1">
			<data offset="128" size="2" shape="" element_type="f16"/>
			<output>
				<port id="0" precision="FP16"/>
			</output>
		</layer>
		<layer id="135" name="3606361028617" type="Const" version="opset1">
			<data offset="130" size="2" shape="" element_type="f16"/>
			<output>
				<port id="0" precision="FP16"/>
			</output>
		</layer>
		<layer id="136" name="4063406727984" type="Const" version="opset1">
			<data offset="132" size="2" shape="" element_type="f16"/>
			<output>
				<port id="0" precision="FP16"/>
			</output>
		</layer>
		<layer id="137" name="4064406826364" type="Const" version="opset1">
			<data offset="134" size="2" shape="" element_type="f16"/>
			<output>
				<port id="0" precision="FP16"/>
			</output>
		</layer>
		<layer id="138" name="4065406928512" type="Const" version="opset1">
			<data offset="132" size="2" shape="" element_type="f16"/>
			<output>
				<port id="0" precision="FP16"/>
			</output>
		</layer>
		<layer id="139" name="4066407026934" type="Const" version="opset1">
			<data offset="134" size="2" shape="" element_type="f16"/>
			<output>
				<port id="0" precision="FP16"/>
			</output>
		</layer>
		<layer id="140" name="3613361729565" type="Const" version="opset1">
			<data offset="136" size="2" shape="" element_type="f16"/>
			<output>
				<port id="0" precision="FP16"/>
			</output>
		</layer>
		<layer id="141" name="3614361828041" type="Const" version="opset1">
			<data offset="138" size="2" shape="" element_type="f16"/>
			<output>
				<port id="0" precision="FP16"/>
			</output>
		</layer>
		<layer id="142" name="3615361926613" type="Const" version="opset1">
			<data offset="136" size="2" shape="" element_type="f16"/>
			<output>
				<port id="0" precision="FP16"/>
			</output>
		</layer>
		<layer id="143" name="3616362028698" type="Const" version="opset1">
			<data offset="138" size="2" shape="" element_type="f16"/>
			<output>
				<port id="0" precision="FP16"/>
			</output>
		</layer>
		<layer id="144" name="2923292726988" type="Const" version="opset1">
			<data offset="140" size="2" shape="" element_type="f16"/>
			<output>
				<port id="0" precision="FP16"/>
			</output>
		</layer>
		<layer id="145" name="2924292826286" type="Const" version="opset1">
			<data offset="142" size="2" shape="" element_type="f16"/>
			<output>
				<port id="0" precision="FP16"/>
			</output>
		</layer>
		<layer id="146" name="2925292926532" type="Const" version="opset1">
			<data offset="140" size="2" shape="" element_type="f16"/>
			<output>
				<port id="0" precision="FP16"/>
			</output>
		</layer>
		<layer id="147" name="2926293026718" type="Const" version="opset1">
			<data offset="142" size="2" shape="" element_type="f16"/>
			<output>
				<port id="0" precision="FP16"/>
			</output>
		</layer>
		<layer id="148" name="3663366727756" type="Const" version="opset1">
			<data offset="144" size="2" shape="" element_type="f16"/>
			<output>
				<port id="0" precision="FP16"/>
			</output>
		</layer>
		<layer id="149" name="3664366829250" type="Const" version="opset1">
			<data offset="146" size="2" shape="" element_type="f16"/>
			<output>
				<port id="0" precision="FP16"/>
			</output>
		</layer>
		<layer id="150" name="3665366926562" type="Const" version="opset1">
			<data offset="144" size="2" shape="" element_type="f16"/>
			<output>
				<port id="0" precision="FP16"/>
			</output>
		</layer>
		<layer id="151" name="3666367027429" type="Const" version="opset1">
			<data offset="146" size="2" shape="" element_type="f16"/>
			<output>
				<port id="0" precision="FP16"/>
			</output>
		</layer>
		<layer id="152" name="2933293728506" type="Const" version="opset1">
			<data offset="148" size="2" shape="" element_type="f16"/>
			<output>
				<port id="0" precision="FP16"/>
			</output>
		</layer>
		<layer id="153" name="2934293828050" type="Const" version="opset1">
			<data offset="150" size="2" shape="" element_type="f16"/>
			<output>
				<port id="0" precision="FP16"/>
			</output>
		</layer>
		<layer id="154" name="2935293929448" type="Const" version="opset1">
			<data offset="148" size="2" shape="" element_type="f16"/>
			<output>
				<port id="0" precision="FP16"/>
			</output>
		</layer>
		<layer id="155" name="2936294026871" type="Const" version="opset1">
			<data offset="150" size="2" shape="" element_type="f16"/>
			<output>
				<port id="0" precision="FP16"/>
			</output>
		</layer>
		<layer id="156" name="3263326728248" type="Const" version="opset1">
			<data offset="152" size="2" shape="" element_type="f16"/>
			<output>
				<port id="0" precision="FP16"/>
			</output>
		</layer>
		<layer id="157" name="3264326830018" type="Const" version="opset1">
			<data offset="154" size="2" shape="" element_type="f16"/>
			<output>
				<port id="0" precision="FP16"/>
			</output>
		</layer>
		<layer id="158" name="3265326927849" type="Const" version="opset1">
			<data offset="152" size="2" shape="" element_type="f16"/>
			<output>
				<port id="0" precision="FP16"/>
			</output>
		</layer>
		<layer id="159" name="3266327027123" type="Const" version="opset1">
			<data offset="154" size="2" shape="" element_type="f16"/>
			<output>
				<port id="0" precision="FP16"/>
			</output>
		</layer>
		<layer id="160" name="5263526729889" type="Const" version="opset1">
			<data offset="156" size="2" shape="" element_type="f16"/>
			<output>
				<port id="0" precision="FP16"/>
			</output>
		</layer>
		<layer id="161" name="5264526829859" type="Const" version="opset1">
			<data offset="158" size="2" shape="" element_type="f16"/>
			<output>
				<port id="0" precision="FP16"/>
			</output>
		</layer>
		<layer id="162" name="5265526926301" type="Const" version="opset1">
			<data offset="156" size="2" shape="" element_type="f16"/>
			<output>
				<port id="0" precision="FP16"/>
			</output>
		</layer>
		<layer id="163" name="5266527029391" type="Const" version="opset1">
			<data offset="158" size="2" shape="" element_type="f16"/>
			<output>
				<port id="0" precision="FP16"/>
			</output>
		</layer>
		<layer id="164" name="3273327730000" type="Const" version="opset1">
			<data offset="160" size="2" shape="" element_type="f16"/>
			<output>
				<port id="0" precision="FP16"/>
			</output>
		</layer>
		<layer id="165" name="3274327826784" type="Const" version="opset1">
			<data offset="162" size="2" shape="" element_type="f16"/>
			<output>
				<port id="0" precision="FP16"/>
			</output>
		</layer>
		<layer id="166" name="3275327929355" type="Const" version="opset1">
			<data offset="160" size="2" shape="" element_type="f16"/>
			<output>
				<port id="0" precision="FP16"/>
			</output>
		</layer>
		<layer id="167" name="3276328027564" type="Const" version="opset1">
			<data offset="162" size="2" shape="" element_type="f16"/>
			<output>
				<port id="0" precision="FP16"/>
			</output>
		</layer>
		<layer id="168" name="3923392726010" type="Const" version="opset1">
			<data offset="164" size="2" shape="" element_type="f16"/>
			<output>
				<port id="0" precision="FP16"/>
			</output>
		</layer>
		<layer id="169" name="3924392827399" type="Const" version="opset1">
			<data offset="166" size="2" shape="" element_type="f16"/>
			<output>
				<port id="0" precision="FP16"/>
			</output>
		</layer>
		<layer id="170" name="3925392928107" type="Const" version="opset1">
			<data offset="164" size="2" shape="" element_type="f16"/>
			<output>
				<port id="0" precision="FP16"/>
			</output>
		</layer>
		<layer id="171" name="3926393027579" type="Const" version="opset1">
			<data offset="166" size="2" shape="" element_type="f16"/>
			<output>
				<port id="0" precision="FP16"/>
			</output>
		</layer>
		<layer id="172" name="4923492730057" type="Const" version="opset1">
			<data offset="168" size="2" shape="" element_type="f16"/>
			<output>
				<port id="0" precision="FP16"/>
			</output>
		</layer>
		<layer id="173" name="4924492826214" type="Const" version="opset1">
			<data offset="170" size="2" shape="" element_type="f16"/>
			<output>
				<port id="0" precision="FP16"/>
			</output>
		</layer>
		<layer id="174" name="4925492926448" type="Const" version="opset1">
			<data offset="168" size="2" shape="" element_type="f16"/>
			<output>
				<port id="0" precision="FP16"/>
			</output>
		</layer>
		<layer id="175" name="4926493029280" type="Const" version="opset1">
			<data offset="170" size="2" shape="" element_type="f16"/>
			<output>
				<port id="0" precision="FP16"/>
			</output>
		</layer>
		<layer id="176" name="3933393726250" type="Const" version="opset1">
			<data offset="172" size="2" shape="" element_type="f16"/>
			<output>
				<port id="0" precision="FP16"/>
			</output>
		</layer>
		<layer id="177" name="3934393828098" type="Const" version="opset1">
			<data offset="174" size="2" shape="" element_type="f16"/>
			<output>
				<port id="0" precision="FP16"/>
			</output>
		</layer>
		<layer id="178" name="3935393929850" type="Const" version="opset1">
			<data offset="172" size="2" shape="" element_type="f16"/>
			<output>
				<port id="0" precision="FP16"/>
			</output>
		</layer>
		<layer id="179" name="3936394029304" type="Const" version="opset1">
			<data offset="174" size="2" shape="" element_type="f16"/>
			<output>
				<port id="0" precision="FP16"/>
			</output>
		</layer>
		<layer id="180" name="5303530726586" type="Const" version="opset1">
			<data offset="176" size="2" shape="" element_type="f16"/>
			<output>
				<port id="0" precision="FP16"/>
			</output>
		</layer>
		<layer id="181" name="5304530828437" type="Const" version="opset1">
			<data offset="178" size="2" shape="" element_type="f16"/>
			<output>
				<port id="0" precision="FP16"/>
			</output>
		</layer>
		<layer id="182" name="5305530928998" type="Const" version="opset1">
			<data offset="176" size="2" shape="" element_type="f16"/>
			<output>
				<port id="0" precision="FP16"/>
			</output>
		</layer>
		<layer id="183" name="5306531030063" type="Const" version="opset1">
			<data offset="178" size="2" shape="" element_type="f16"/>
			<output>
				<port id="0" precision="FP16"/>
			</output>
		</layer>
		<layer id="184" name="4083408728818" type="Const" version="opset1">
			<data offset="180" size="2" shape="" element_type="f16"/>
			<output>
				<port id="0" precision="FP16"/>
			</output>
		</layer>
		<layer id="185" name="4084408829166" type="Const" version="opset1">
			<data offset="182" size="2" shape="" element_type="f16"/>
			<output>
				<port id="0" precision="FP16"/>
			</output>
		</layer>
		<layer id="186" name="4085408927702" type="Const" version="opset1">
			<data offset="180" size="2" shape="" element_type="f16"/>
			<output>
				<port id="0" precision="FP16"/>
			</output>
		</layer>
		<layer id="187" name="4086409029034" type="Const" version="opset1">
			<data offset="182" size="2" shape="" element_type="f16"/>
			<output>
				<port id="0" precision="FP16"/>
			</output>
		</layer>
		<layer id="188" name="5313531726430" type="Const" version="opset1">
			<data offset="184" size="2" shape="" element_type="f16"/>
			<output>
				<port id="0" precision="FP16"/>
			</output>
		</layer>
		<layer id="189" name="5314531829913" type="Const" version="opset1">
			<data offset="186" size="2" shape="" element_type="f16"/>
			<output>
				<port id="0" precision="FP16"/>
			</output>
		</layer>
		<layer id="190" name="5315531927156" type="Const" version="opset1">
			<data offset="184" size="2" shape="" element_type="f16"/>
			<output>
				<port id="0" precision="FP16"/>
			</output>
		</layer>
		<layer id="191" name="5316532026505" type="Const" version="opset1">
			<data offset="186" size="2" shape="" element_type="f16"/>
			<output>
				<port id="0" precision="FP16"/>
			</output>
		</layer>
		<layer id="192" name="3583358729052" type="Const" version="opset1">
			<data offset="188" size="2" shape="" element_type="f16"/>
			<output>
				<port id="0" precision="FP16"/>
			</output>
		</layer>
		<layer id="193" name="3584358828710" type="Const" version="opset1">
			<data offset="190" size="2" shape="" element_type="f16"/>
			<output>
				<port id="0" precision="FP16"/>
			</output>
		</layer>
		<layer id="194" name="3585358926331" type="Const" version="opset1">
			<data offset="188" size="2" shape="" element_type="f16"/>
			<output>
				<port id="0" precision="FP16"/>
			</output>
		</layer>
		<layer id="195" name="3586359029253" type="Const" version="opset1">
			<data offset="190" size="2" shape="" element_type="f16"/>
			<output>
				<port id="0" precision="FP16"/>
			</output>
		</layer>
		<layer id="196" name="3723372728077" type="Const" version="opset1">
			<data offset="192" size="2" shape="" element_type="f16"/>
			<output>
				<port id="0" precision="FP16"/>
			</output>
		</layer>
		<layer id="197" name="3724372829343" type="Const" version="opset1">
			<data offset="194" size="2" shape="" element_type="f16"/>
			<output>
				<port id="0" precision="FP16"/>
			</output>
		</layer>
		<layer id="198" name="3725372929364" type="Const" version="opset1">
			<data offset="192" size="2" shape="" element_type="f16"/>
			<output>
				<port id="0" precision="FP16"/>
			</output>
		</layer>
		<layer id="199" name="3726373027897" type="Const" version="opset1">
			<data offset="194" size="2" shape="" element_type="f16"/>
			<output>
				<port id="0" precision="FP16"/>
			</output>
		</layer>
		<layer id="200" name="3593359727786" type="Const" version="opset1">
			<data offset="196" size="2" shape="" element_type="f16"/>
			<output>
				<port id="0" precision="FP16"/>
			</output>
		</layer>
		<layer id="201" name="3594359828203" type="Const" version="opset1">
			<data offset="198" size="2" shape="" element_type="f16"/>
			<output>
				<port id="0" precision="FP16"/>
			</output>
		</layer>
		<layer id="202" name="3595359927843" type="Const" version="opset1">
			<data offset="196" size="2" shape="" element_type="f16"/>
			<output>
				<port id="0" precision="FP16"/>
			</output>
		</layer>
		<layer id="203" name="3596360027831" type="Const" version="opset1">
			<data offset="198" size="2" shape="" element_type="f16"/>
			<output>
				<port id="0" precision="FP16"/>
			</output>
		</layer>
		<layer id="204" name="6425642929442" type="Const" version="opset1">
			<data offset="200" size="2" shape="" element_type="f16"/>
			<output>
				<port id="0" precision="FP16"/>
			</output>
		</layer>
		<layer id="205" name="6426643028959" type="Const" version="opset1">
			<data offset="202" size="2" shape="" element_type="f16"/>
			<output>
				<port id="0" precision="FP16"/>
			</output>
		</layer>
		<layer id="206" name="6427643129109" type="Const" version="opset1">
			<data offset="200" size="2" shape="" element_type="f16"/>
			<output>
				<port id="0" precision="FP16"/>
			</output>
		</layer>
		<layer id="207" name="6428643228545" type="Const" version="opset1">
			<data offset="202" size="2" shape="" element_type="f16"/>
			<output>
				<port id="0" precision="FP16"/>
			</output>
		</layer>
		<layer id="208" name="3983398727543" type="Const" version="opset1">
			<data offset="204" size="2" shape="" element_type="f16"/>
			<output>
				<port id="0" precision="FP16"/>
			</output>
		</layer>
		<layer id="209" name="3984398826160" type="Const" version="opset1">
			<data offset="206" size="2" shape="" element_type="f16"/>
			<output>
				<port id="0" precision="FP16"/>
			</output>
		</layer>
		<layer id="210" name="3985398927144" type="Const" version="opset1">
			<data offset="204" size="2" shape="" element_type="f16"/>
			<output>
				<port id="0" precision="FP16"/>
			</output>
		</layer>
		<layer id="211" name="3986399027594" type="Const" version="opset1">
			<data offset="206" size="2" shape="" element_type="f16"/>
			<output>
				<port id="0" precision="FP16"/>
			</output>
		</layer>
		<layer id="212" name="8839884329178" type="Const" version="opset1">
			<data offset="208" size="2" shape="" element_type="f16"/>
			<output>
				<port id="0" precision="FP16"/>
			</output>
		</layer>
		<layer id="213" name="8840884428419" type="Const" version="opset1">
			<data offset="210" size="2" shape="" element_type="f16"/>
			<output>
				<port id="0" precision="FP16"/>
			</output>
		</layer>
		<layer id="214" name="8841884527519" type="Const" version="opset1">
			<data offset="208" size="2" shape="" element_type="f16"/>
			<output>
				<port id="0" precision="FP16"/>
			</output>
		</layer>
		<layer id="215" name="8842884627408" type="Const" version="opset1">
			<data offset="210" size="2" shape="" element_type="f16"/>
			<output>
				<port id="0" precision="FP16"/>
			</output>
		</layer>
		<layer id="216" name="5143514729883" type="Const" version="opset1">
			<data offset="212" size="2" shape="" element_type="f16"/>
			<output>
				<port id="0" precision="FP16"/>
			</output>
		</layer>
		<layer id="217" name="5144514829352" type="Const" version="opset1">
			<data offset="214" size="2" shape="" element_type="f16"/>
			<output>
				<port id="0" precision="FP16"/>
			</output>
		</layer>
		<layer id="218" name="5145514929085" type="Const" version="opset1">
			<data offset="212" size="2" shape="" element_type="f16"/>
			<output>
				<port id="0" precision="FP16"/>
			</output>
		</layer>
		<layer id="219" name="5146515028734" type="Const" version="opset1">
			<data offset="214" size="2" shape="" element_type="f16"/>
			<output>
				<port id="0" precision="FP16"/>
			</output>
		</layer>
		<layer id="220" name="5443544729925" type="Const" version="opset1">
			<data offset="216" size="2" shape="" element_type="f16"/>
			<output>
				<port id="0" precision="FP16"/>
			</output>
		</layer>
		<layer id="221" name="5444544828257" type="Const" version="opset1">
			<data offset="218" size="2" shape="" element_type="f16"/>
			<output>
				<port id="0" precision="FP16"/>
			</output>
		</layer>
		<layer id="222" name="5445544926484" type="Const" version="opset1">
			<data offset="216" size="2" shape="" element_type="f16"/>
			<output>
				<port id="0" precision="FP16"/>
			</output>
		</layer>
		<layer id="223" name="5446545028083" type="Const" version="opset1">
			<data offset="218" size="2" shape="" element_type="f16"/>
			<output>
				<port id="0" precision="FP16"/>
			</output>
		</layer>
		<layer id="224" name="5153515726001" type="Const" version="opset1">
			<data offset="220" size="2" shape="" element_type="f16"/>
			<output>
				<port id="0" precision="FP16"/>
			</output>
		</layer>
		<layer id="225" name="5154515826517" type="Const" version="opset1">
			<data offset="222" size="2" shape="" element_type="f16"/>
			<output>
				<port id="0" precision="FP16"/>
			</output>
		</layer>
		<layer id="226" name="5155515927447" type="Const" version="opset1">
			<data offset="220" size="2" shape="" element_type="f16"/>
			<output>
				<port id="0" precision="FP16"/>
			</output>
		</layer>
		<layer id="227" name="5156516027291" type="Const" version="opset1">
			<data offset="222" size="2" shape="" element_type="f16"/>
			<output>
				<port id="0" precision="FP16"/>
			</output>
		</layer>
		<layer id="228" name="6445644930024" type="Const" version="opset1">
			<data offset="224" size="2" shape="" element_type="f16"/>
			<output>
				<port id="0" precision="FP16"/>
			</output>
		</layer>
		<layer id="229" name="6446645028887" type="Const" version="opset1">
			<data offset="226" size="2" shape="" element_type="f16"/>
			<output>
				<port id="0" precision="FP16"/>
			</output>
		</layer>
		<layer id="230" name="6447645129160" type="Const" version="opset1">
			<data offset="224" size="2" shape="" element_type="f16"/>
			<output>
				<port id="0" precision="FP16"/>
			</output>
		</layer>
		<layer id="231" name="6448645225980" type="Const" version="opset1">
			<data offset="226" size="2" shape="" element_type="f16"/>
			<output>
				<port id="0" precision="FP16"/>
			</output>
		</layer>
		<layer id="232" name="3143314727207" type="Const" version="opset1">
			<data offset="228" size="2" shape="" element_type="f16"/>
			<output>
				<port id="0" precision="FP16"/>
			</output>
		</layer>
		<layer id="233" name="3144314827801" type="Const" version="opset1">
			<data offset="230" size="2" shape="" element_type="f16"/>
			<output>
				<port id="0" precision="FP16"/>
			</output>
		</layer>
		<layer id="234" name="3145314927531" type="Const" version="opset1">
			<data offset="228" size="2" shape="" element_type="f16"/>
			<output>
				<port id="0" precision="FP16"/>
			</output>
		</layer>
		<layer id="235" name="3146315027147" type="Const" version="opset1">
			<data offset="230" size="2" shape="" element_type="f16"/>
			<output>
				<port id="0" precision="FP16"/>
			</output>
		</layer>
		<layer id="236" name="6455645927489" type="Const" version="opset1">
			<data offset="232" size="2" shape="" element_type="f16"/>
			<output>
				<port id="0" precision="FP16"/>
			</output>
		</layer>
		<layer id="237" name="6456646028005" type="Const" version="opset1">
			<data offset="234" size="2" shape="" element_type="f16"/>
			<output>
				<port id="0" precision="FP16"/>
			</output>
		</layer>
		<layer id="238" name="6457646129277" type="Const" version="opset1">
			<data offset="232" size="2" shape="" element_type="f16"/>
			<output>
				<port id="0" precision="FP16"/>
			</output>
		</layer>
		<layer id="239" name="6458646226145" type="Const" version="opset1">
			<data offset="234" size="2" shape="" element_type="f16"/>
			<output>
				<port id="0" precision="FP16"/>
			</output>
		</layer>
		<layer id="240" name="4283428726991" type="Const" version="opset1">
			<data offset="236" size="2" shape="" element_type="f16"/>
			<output>
				<port id="0" precision="FP16"/>
			</output>
		</layer>
		<layer id="241" name="4284428827270" type="Const" version="opset1">
			<data offset="238" size="2" shape="" element_type="f16"/>
			<output>
				<port id="0" precision="FP16"/>
			</output>
		</layer>
		<layer id="242" name="4285428926679" type="Const" version="opset1">
			<data offset="236" size="2" shape="" element_type="f16"/>
			<output>
				<port id="0" precision="FP16"/>
			</output>
		</layer>
		<layer id="243" name="4286429027171" type="Const" version="opset1">
			<data offset="238" size="2" shape="" element_type="f16"/>
			<output>
				<port id="0" precision="FP16"/>
			</output>
		</layer>
		<layer id="244" name="4163416729472" type="Const" version="opset1">
			<data offset="240" size="2" shape="" element_type="f16"/>
			<output>
				<port id="0" precision="FP16"/>
			</output>
		</layer>
		<layer id="245" name="4164416826880" type="Const" version="opset1">
			<data offset="242" size="2" shape="" element_type="f16"/>
			<output>
				<port id="0" precision="FP16"/>
			</output>
		</layer>
		<layer id="246" name="4165416926076" type="Const" version="opset1">
			<data offset="240" size="2" shape="" element_type="f16"/>
			<output>
				<port id="0" precision="FP16"/>
			</output>
		</layer>
		<layer id="247" name="4166417029349" type="Const" version="opset1">
			<data offset="242" size="2" shape="" element_type="f16"/>
			<output>
				<port id="0" precision="FP16"/>
			</output>
		</layer>
		<layer id="248" name="4293429729013" type="Const" version="opset1">
			<data offset="240" size="2" shape="" element_type="f16"/>
			<output>
				<port id="0" precision="FP16"/>
			</output>
		</layer>
		<layer id="249" name="4294429828590" type="Const" version="opset1">
			<data offset="242" size="2" shape="" element_type="f16"/>
			<output>
				<port id="0" precision="FP16"/>
			</output>
		</layer>
		<layer id="250" name="4295429928473" type="Const" version="opset1">
			<data offset="240" size="2" shape="" element_type="f16"/>
			<output>
				<port id="0" precision="FP16"/>
			</output>
		</layer>
		<layer id="251" name="4296430029436" type="Const" version="opset1">
			<data offset="242" size="2" shape="" element_type="f16"/>
			<output>
				<port id="0" precision="FP16"/>
			</output>
		</layer>
		<layer id="252" name="4553455727330" type="Const" version="opset1">
			<data offset="244" size="2" shape="" element_type="f16"/>
			<output>
				<port id="0" precision="FP16"/>
			</output>
		</layer>
		<layer id="253" name="4554455827165" type="Const" version="opset1">
			<data offset="246" size="2" shape="" element_type="f16"/>
			<output>
				<port id="0" precision="FP16"/>
			</output>
		</layer>
		<layer id="254" name="4555455928155" type="Const" version="opset1">
			<data offset="244" size="2" shape="" element_type="f16"/>
			<output>
				<port id="0" precision="FP16"/>
			</output>
		</layer>
		<layer id="255" name="4556456026244" type="Const" version="opset1">
			<data offset="246" size="2" shape="" element_type="f16"/>
			<output>
				<port id="0" precision="FP16"/>
			</output>
		</layer>
		<layer id="256" name="5203520728371" type="Const" version="opset1">
			<data offset="248" size="2" shape="" element_type="f16"/>
			<output>
				<port id="0" precision="FP16"/>
			</output>
		</layer>
		<layer id="257" name="5204520828227" type="Const" version="opset1">
			<data offset="250" size="2" shape="" element_type="f16"/>
			<output>
				<port id="0" precision="FP16"/>
			</output>
		</layer>
		<layer id="258" name="5205520927768" type="Const" version="opset1">
			<data offset="248" size="2" shape="" element_type="f16"/>
			<output>
				<port id="0" precision="FP16"/>
			</output>
		</layer>
		<layer id="259" name="5206521027999" type="Const" version="opset1">
			<data offset="250" size="2" shape="" element_type="f16"/>
			<output>
				<port id="0" precision="FP16"/>
			</output>
		</layer>
		<layer id="260" name="4563456729766" type="Const" version="opset1">
			<data offset="252" size="2" shape="" element_type="f16"/>
			<output>
				<port id="0" precision="FP16"/>
			</output>
		</layer>
		<layer id="261" name="4564456828044" type="Const" version="opset1">
			<data offset="254" size="2" shape="" element_type="f16"/>
			<output>
				<port id="0" precision="FP16"/>
			</output>
		</layer>
		<layer id="262" name="4565456929508" type="Const" version="opset1">
			<data offset="252" size="2" shape="" element_type="f16"/>
			<output>
				<port id="0" precision="FP16"/>
			</output>
		</layer>
		<layer id="263" name="4566457027972" type="Const" version="opset1">
			<data offset="254" size="2" shape="" element_type="f16"/>
			<output>
				<port id="0" precision="FP16"/>
			</output>
		</layer>
		<layer id="264" name="4743474727138" type="Const" version="opset1">
			<data offset="256" size="2" shape="" element_type="f16"/>
			<output>
				<port id="0" precision="FP16"/>
			</output>
		</layer>
		<layer id="265" name="4744474829520" type="Const" version="opset1">
			<data offset="258" size="2" shape="" element_type="f16"/>
			<output>
				<port id="0" precision="FP16"/>
			</output>
		</layer>
		<layer id="266" name="4745474927366" type="Const" version="opset1">
			<data offset="256" size="2" shape="" element_type="f16"/>
			<output>
				<port id="0" precision="FP16"/>
			</output>
		</layer>
		<layer id="267" name="4746475027810" type="Const" version="opset1">
			<data offset="258" size="2" shape="" element_type="f16"/>
			<output>
				<port id="0" precision="FP16"/>
			</output>
		</layer>
		<layer id="268" name="3863386726844" type="Const" version="opset1">
			<data offset="260" size="2" shape="" element_type="f16"/>
			<output>
				<port id="0" precision="FP16"/>
			</output>
		</layer>
		<layer id="269" name="3864386826574" type="Const" version="opset1">
			<data offset="262" size="2" shape="" element_type="f16"/>
			<output>
				<port id="0" precision="FP16"/>
			</output>
		</layer>
		<layer id="270" name="3865386927030" type="Const" version="opset1">
			<data offset="260" size="2" shape="" element_type="f16"/>
			<output>
				<port id="0" precision="FP16"/>
			</output>
		</layer>
		<layer id="271" name="3866387027825" type="Const" version="opset1">
			<data offset="262" size="2" shape="" element_type="f16"/>
			<output>
				<port id="0" precision="FP16"/>
			</output>
		</layer>
		<layer id="272" name="8669867327744" type="Const" version="opset1">
			<data offset="264" size="2" shape="" element_type="f16"/>
			<output>
				<port id="0" precision="FP16"/>
			</output>
		</layer>
		<layer id="273" name="8670867429616" type="Const" version="opset1">
			<data offset="266" size="2" shape="" element_type="f16"/>
			<output>
				<port id="0" precision="FP16"/>
			</output>
		</layer>
		<layer id="274" name="8671867527789" type="Const" version="opset1">
			<data offset="264" size="2" shape="" element_type="f16"/>
			<output>
				<port id="0" precision="FP16"/>
			</output>
		</layer>
		<layer id="275" name="8672867628383" type="Const" version="opset1">
			<data offset="266" size="2" shape="" element_type="f16"/>
			<output>
				<port id="0" precision="FP16"/>
			</output>
		</layer>
		<layer id="276" name="images" type="Parameter" version="opset1">
			<data shape="1,3,640,640" element_type="f16"/>
			<output>
				<port id="0" precision="FP16" names="images">
					<dim>1</dim>
					<dim>3</dim>
					<dim>640</dim>
					<dim>640</dim>
				</port>
			</output>
		</layer>
		<layer id="277" name="Slice_14/fq_input_0" type="FakeQuantize" version="opset1">
			<data levels="256" auto_broadcast="numpy"/>
			<input>
				<port id="0">
					<dim>1</dim>
					<dim>3</dim>
					<dim>640</dim>
					<dim>640</dim>
				</port>
				<port id="1"/>
				<port id="2"/>
				<port id="3"/>
				<port id="4"/>
			</input>
			<output>
				<port id="5" precision="FP16">
					<dim>1</dim>
					<dim>3</dim>
					<dim>640</dim>
					<dim>640</dim>
				</port>
			</output>
		</layer>
		<layer id="278" name="Slice_34/Concat830127381919" type="Const" version="opset1">
			<data offset="268" size="32" shape="4" element_type="i64"/>
			<output>
				<port id="0" precision="I64">
					<dim>4</dim>
				</port>
			</output>
		</layer>
		<layer id="279" name="Slice_34/Concat8285830227894920" type="Const" version="opset1">
			<data offset="300" size="32" shape="4" element_type="i64"/>
			<output>
				<port id="0" precision="I64">
					<dim>4</dim>
				</port>
			</output>
		</layer>
		<layer id="280" name="Slice_34/Strides830327240921" type="Const" version="opset1">
			<data offset="332" size="32" shape="4" element_type="i64"/>
			<output>
				<port id="0" precision="I64">
					<dim>4</dim>
				</port>
			</output>
		</layer>
		<layer id="281" name="Slice_34" type="StridedSlice" version="opset1">
			<data begin_mask="1,1,0,1" end_mask="1,1,0,1" new_axis_mask="0,0,0,0" shrink_axis_mask="0,0,0,0" ellipsis_mask="0,0,0,0"/>
			<input>
				<port id="0">
					<dim>1</dim>
					<dim>3</dim>
					<dim>640</dim>
					<dim>640</dim>
				</port>
				<port id="1">
					<dim>4</dim>
				</port>
				<port id="2">
					<dim>4</dim>
				</port>
				<port id="3">
					<dim>4</dim>
				</port>
			</input>
			<output>
				<port id="4" precision="FP16" names="929">
					<dim>1</dim>
					<dim>3</dim>
					<dim>320</dim>
					<dim>640</dim>
				</port>
			</output>
		</layer>
		<layer id="282" name="Slice_39/Concat834927819923" type="Const" version="opset1">
			<data offset="364" size="32" shape="4" element_type="i64"/>
			<output>
				<port id="0" precision="I64">
					<dim>4</dim>
				</port>
			</output>
		</layer>
		<layer id="283" name="Slice_39/Concat8333835028050924" type="Const" version="opset1">
			<data offset="396" size="32" shape="4" element_type="i64"/>
			<output>
				<port id="0" precision="I64">
					<dim>4</dim>
				</port>
			</output>
		</layer>
		<layer id="284" name="Slice_39/Strides835127330925" type="Const" version="opset1">
			<data offset="428" size="32" shape="4" element_type="i64"/>
			<output>
				<port id="0" precision="I64">
					<dim>4</dim>
				</port>
			</output>
		</layer>
		<layer id="285" name="Slice_39" type="StridedSlice" version="opset1">
			<data begin_mask="1,1,1,0" end_mask="1,1,1,0" new_axis_mask="0,0,0,0" shrink_axis_mask="0,0,0,0" ellipsis_mask="0,0,0,0"/>
			<input>
				<port id="0">
					<dim>1</dim>
					<dim>3</dim>
					<dim>320</dim>
					<dim>640</dim>
				</port>
				<port id="1">
					<dim>4</dim>
				</port>
				<port id="2">
					<dim>4</dim>
				</port>
				<port id="3">
					<dim>4</dim>
				</port>
			</input>
			<output>
				<port id="4" precision="FP16" names="934">
					<dim>1</dim>
					<dim>3</dim>
					<dim>320</dim>
					<dim>320</dim>
				</port>
			</output>
		</layer>
		<layer id="286" name="Slice_14/Concat810927648911" type="Const" version="opset1">
			<data offset="460" size="32" shape="4" element_type="i64"/>
			<output>
				<port id="0" precision="I64">
					<dim>4</dim>
				</port>
			</output>
		</layer>
		<layer id="287" name="Slice_14/Concat8093811027372912" type="Const" version="opset1">
			<data offset="300" size="32" shape="4" element_type="i64"/>
			<output>
				<port id="0" precision="I64">
					<dim>4</dim>
				</port>
			</output>
		</layer>
		<layer id="288" name="Slice_14/Strides811127660913" type="Const" version="opset1">
			<data offset="332" size="32" shape="4" element_type="i64"/>
			<output>
				<port id="0" precision="I64">
					<dim>4</dim>
				</port>
			</output>
		</layer>
		<layer id="289" name="Slice_14" type="StridedSlice" version="opset1">
			<data begin_mask="1,1,0,1" end_mask="1,1,0,1" new_axis_mask="0,0,0,0" shrink_axis_mask="0,0,0,0" ellipsis_mask="0,0,0,0"/>
			<input>
				<port id="0">
					<dim>1</dim>
					<dim>3</dim>
					<dim>640</dim>
					<dim>640</dim>
				</port>
				<port id="1">
					<dim>4</dim>
				</port>
				<port id="2">
					<dim>4</dim>
				</port>
				<port id="3">
					<dim>4</dim>
				</port>
			</input>
			<output>
				<port id="4" precision="FP16" names="909">
					<dim>1</dim>
					<dim>3</dim>
					<dim>320</dim>
					<dim>640</dim>
				</port>
			</output>
		</layer>
		<layer id="290" name="Slice_19/Concat815727807915" type="Const" version="opset1">
			<data offset="364" size="32" shape="4" element_type="i64"/>
			<output>
				<port id="0" precision="I64">
					<dim>4</dim>
				</port>
			</output>
		</layer>
		<layer id="291" name="Slice_19/Concat8141815827612916" type="Const" version="opset1">
			<data offset="396" size="32" shape="4" element_type="i64"/>
			<output>
				<port id="0" precision="I64">
					<dim>4</dim>
				</port>
			</output>
		</layer>
		<layer id="292" name="Slice_19/Strides815927543917" type="Const" version="opset1">
			<data offset="428" size="32" shape="4" element_type="i64"/>
			<output>
				<port id="0" precision="I64">
					<dim>4</dim>
				</port>
			</output>
		</layer>
		<layer id="293" name="Slice_19" type="StridedSlice" version="opset1">
			<data begin_mask="1,1,1,0" end_mask="1,1,1,0" new_axis_mask="0,0,0,0" shrink_axis_mask="0,0,0,0" ellipsis_mask="0,0,0,0"/>
			<input>
				<port id="0">
					<dim>1</dim>
					<dim>3</dim>
					<dim>320</dim>
					<dim>640</dim>
				</port>
				<port id="1">
					<dim>4</dim>
				</port>
				<port id="2">
					<dim>4</dim>
				</port>
				<port id="3">
					<dim>4</dim>
				</port>
			</input>
			<output>
				<port id="4" precision="FP16" names="914">
					<dim>1</dim>
					<dim>3</dim>
					<dim>320</dim>
					<dim>320</dim>
				</port>
			</output>
		</layer>
		<layer id="294" name="Slice_24/Concat820527033903" type="Const" version="opset1">
			<data offset="268" size="32" shape="4" element_type="i64"/>
			<output>
				<port id="0" precision="I64">
					<dim>4</dim>
				</port>
			</output>
		</layer>
		<layer id="295" name="Slice_24/Concat8189820627351904" type="Const" version="opset1">
			<data offset="300" size="32" shape="4" element_type="i64"/>
			<output>
				<port id="0" precision="I64">
					<dim>4</dim>
				</port>
			</output>
		</layer>
		<layer id="296" name="Slice_24/Strides820727783905" type="Const" version="opset1">
			<data offset="332" size="32" shape="4" element_type="i64"/>
			<output>
				<port id="0" precision="I64">
					<dim>4</dim>
				</port>
			</output>
		</layer>
		<layer id="297" name="Slice_24" type="StridedSlice" version="opset1">
			<data begin_mask="1,1,0,1" end_mask="1,1,0,1" new_axis_mask="0,0,0,0" shrink_axis_mask="0,0,0,0" ellipsis_mask="0,0,0,0"/>
			<input>
				<port id="0">
					<dim>1</dim>
					<dim>3</dim>
					<dim>640</dim>
					<dim>640</dim>
				</port>
				<port id="1">
					<dim>4</dim>
				</port>
				<port id="2">
					<dim>4</dim>
				</port>
				<port id="3">
					<dim>4</dim>
				</port>
			</input>
			<output>
				<port id="4" precision="FP16" names="919">
					<dim>1</dim>
					<dim>3</dim>
					<dim>320</dim>
					<dim>640</dim>
				</port>
			</output>
		</layer>
		<layer id="298" name="Slice_29/Concat825327879907" type="Const" version="opset1">
			<data offset="460" size="32" shape="4" element_type="i64"/>
			<output>
				<port id="0" precision="I64">
					<dim>4</dim>
				</port>
			</output>
		</layer>
		<layer id="299" name="Slice_29/Concat8237825427165908" type="Const" version="opset1">
			<data offset="396" size="32" shape="4" element_type="i64"/>
			<output>
				<port id="0" precision="I64">
					<dim>4</dim>
				</port>
			</output>
		</layer>
		<layer id="300" name="Slice_29/Strides825527195909" type="Const" version="opset1">
			<data offset="428" size="32" shape="4" element_type="i64"/>
			<output>
				<port id="0" precision="I64">
					<dim>4</dim>
				</port>
			</output>
		</layer>
		<layer id="301" name="Slice_29" type="StridedSlice" version="opset1">
			<data begin_mask="1,1,1,0" end_mask="1,1,1,0" new_axis_mask="0,0,0,0" shrink_axis_mask="0,0,0,0" ellipsis_mask="0,0,0,0"/>
			<input>
				<port id="0">
					<dim>1</dim>
					<dim>3</dim>
					<dim>320</dim>
					<dim>640</dim>
				</port>
				<port id="1">
					<dim>4</dim>
				</port>
				<port id="2">
					<dim>4</dim>
				</port>
				<port id="3">
					<dim>4</dim>
				</port>
			</input>
			<output>
				<port id="4" precision="FP16" names="924">
					<dim>1</dim>
					<dim>3</dim>
					<dim>320</dim>
					<dim>320</dim>
				</port>
			</output>
		</layer>
		<layer id="302" name="Slice_4/Concat801327540895" type="Const" version="opset1">
			<data offset="460" size="32" shape="4" element_type="i64"/>
			<output>
				<port id="0" precision="I64">
					<dim>4</dim>
				</port>
			</output>
		</layer>
		<layer id="303" name="Slice_4/Concat7997801427756896" type="Const" version="opset1">
			<data offset="300" size="32" shape="4" element_type="i64"/>
			<output>
				<port id="0" precision="I64">
					<dim>4</dim>
				</port>
			</output>
		</layer>
		<layer id="304" name="Slice_4/Strides801527717897" type="Const" version="opset1">
			<data offset="332" size="32" shape="4" element_type="i64"/>
			<output>
				<port id="0" precision="I64">
					<dim>4</dim>
				</port>
			</output>
		</layer>
		<layer id="305" name="Slice_4" type="StridedSlice" version="opset1">
			<data begin_mask="1,1,0,1" end_mask="1,1,0,1" new_axis_mask="0,0,0,0" shrink_axis_mask="0,0,0,0" ellipsis_mask="0,0,0,0"/>
			<input>
				<port id="0">
					<dim>1</dim>
					<dim>3</dim>
					<dim>640</dim>
					<dim>640</dim>
				</port>
				<port id="1">
					<dim>4</dim>
				</port>
				<port id="2">
					<dim>4</dim>
				</port>
				<port id="3">
					<dim>4</dim>
				</port>
			</input>
			<output>
				<port id="4" precision="FP16" names="899">
					<dim>1</dim>
					<dim>3</dim>
					<dim>320</dim>
					<dim>640</dim>
				</port>
			</output>
		</layer>
		<layer id="306" name="Slice_9/Concat806127015899" type="Const" version="opset1">
			<data offset="460" size="32" shape="4" element_type="i64"/>
			<output>
				<port id="0" precision="I64">
					<dim>4</dim>
				</port>
			</output>
		</layer>
		<layer id="307" name="Slice_9/Concat8045806227765900" type="Const" version="opset1">
			<data offset="396" size="32" shape="4" element_type="i64"/>
			<output>
				<port id="0" precision="I64">
					<dim>4</dim>
				</port>
			</output>
		</layer>
		<layer id="308" name="Slice_9/Strides806327564901" type="Const" version="opset1">
			<data offset="428" size="32" shape="4" element_type="i64"/>
			<output>
				<port id="0" precision="I64">
					<dim>4</dim>
				</port>
			</output>
		</layer>
		<layer id="309" name="Slice_9" type="StridedSlice" version="opset1">
			<data begin_mask="1,1,1,0" end_mask="1,1,1,0" new_axis_mask="0,0,0,0" shrink_axis_mask="0,0,0,0" ellipsis_mask="0,0,0,0"/>
			<input>
				<port id="0">
					<dim>1</dim>
					<dim>3</dim>
					<dim>320</dim>
					<dim>640</dim>
				</port>
				<port id="1">
					<dim>4</dim>
				</port>
				<port id="2">
					<dim>4</dim>
				</port>
				<port id="3">
					<dim>4</dim>
				</port>
			</input>
			<output>
				<port id="4" precision="FP16" names="904">
					<dim>1</dim>
					<dim>3</dim>
					<dim>320</dim>
					<dim>320</dim>
				</port>
			</output>
		</layer>
		<layer id="310" name="Concat_40" type="Concat" version="opset1">
			<data axis="1"/>
			<input>
				<port id="0">
					<dim>1</dim>
					<dim>3</dim>
					<dim>320</dim>
					<dim>320</dim>
				</port>
				<port id="1">
					<dim>1</dim>
					<dim>3</dim>
					<dim>320</dim>
					<dim>320</dim>
				</port>
				<port id="2">
					<dim>1</dim>
					<dim>3</dim>
					<dim>320</dim>
					<dim>320</dim>
				</port>
				<port id="3">
					<dim>1</dim>
					<dim>3</dim>
					<dim>320</dim>
					<dim>320</dim>
				</port>
			</input>
			<output>
				<port id="4" precision="FP16" names="935">
					<dim>1</dim>
					<dim>12</dim>
					<dim>320</dim>
					<dim>320</dim>
				</port>
			</output>
		</layer>
		<layer id="311" name="161992814122/quantized1614529790" type="Const" version="opset1">
			<data offset="492" size="8640" shape="80,12,3,3" element_type="i8"/>
			<output>
				<port id="0" precision="I8">
					<dim>80</dim>
					<dim>12</dim>
					<dim>3</dim>
					<dim>3</dim>
				</port>
			</output>
		</layer>
		<layer id="312" name="161992814122/quantized/to_f16" type="Convert" version="opset1">
			<data destination_type="f16"/>
			<input>
				<port id="0">
					<dim>80</dim>
					<dim>12</dim>
					<dim>3</dim>
					<dim>3</dim>
				</port>
			</input>
			<output>
				<port id="1" precision="FP16">
					<dim>80</dim>
					<dim>12</dim>
					<dim>3</dim>
					<dim>3</dim>
				</port>
			</output>
		</layer>
		<layer id="313" name="Conv_41/WithoutBiases/fq_weights_1/zero_point1616429613" type="Const" version="opset1">
			<data offset="9132" size="160" shape="80,1,1,1" element_type="f16"/>
			<output>
				<port id="0" precision="FP16">
					<dim>80</dim>
					<dim>1</dim>
					<dim>1</dim>
					<dim>1</dim>
				</port>
			</output>
		</layer>
		<layer id="314" name="Conv_41/WithoutBiases/fq_weights_1/minus_zp" type="Subtract" version="opset1">
			<data auto_broadcast="numpy"/>
			<input>
				<port id="0">
					<dim>80</dim>
					<dim>12</dim>
					<dim>3</dim>
					<dim>3</dim>
				</port>
				<port id="1">
					<dim>80</dim>
					<dim>1</dim>
					<dim>1</dim>
					<dim>1</dim>
				</port>
			</input>
			<output>
				<port id="2" precision="FP16">
					<dim>80</dim>
					<dim>12</dim>
					<dim>3</dim>
					<dim>3</dim>
				</port>
			</output>
		</layer>
		<layer id="315" name="Conv_41/WithoutBiases/fq_weights_1/scale1615329112" type="Const" version="opset1">
			<data offset="9292" size="160" shape="80,1,1,1" element_type="f16"/>
			<output>
				<port id="0" precision="FP16">
					<dim>80</dim>
					<dim>1</dim>
					<dim>1</dim>
					<dim>1</dim>
				</port>
			</output>
		</layer>
		<layer id="316" name="Conv_41/WithoutBiases/fq_weights_1/mulpiply_by_scale" type="Multiply" version="opset1">
			<data auto_broadcast="numpy"/>
			<input>
				<port id="0">
					<dim>80</dim>
					<dim>12</dim>
					<dim>3</dim>
					<dim>3</dim>
				</port>
				<port id="1">
					<dim>80</dim>
					<dim>1</dim>
					<dim>1</dim>
					<dim>1</dim>
				</port>
			</input>
			<output>
				<port id="2" precision="FP16">
					<dim>80</dim>
					<dim>12</dim>
					<dim>3</dim>
					<dim>3</dim>
				</port>
			</output>
		</layer>
		<layer id="317" name="Conv_41/WithoutBiases" type="Convolution" version="opset1">
			<data auto_pad="explicit" strides="1,1" dilations="1,1" pads_begin="1,1" pads_end="1,1"/>
			<input>
				<port id="0">
					<dim>1</dim>
					<dim>12</dim>
					<dim>320</dim>
					<dim>320</dim>
				</port>
				<port id="1">
					<dim>80</dim>
					<dim>12</dim>
					<dim>3</dim>
					<dim>3</dim>
				</port>
			</input>
			<output>
				<port id="2" precision="FP16">
					<dim>1</dim>
					<dim>80</dim>
					<dim>320</dim>
					<dim>320</dim>
				</port>
			</output>
		</layer>
		<layer id="318" name="Conv_41/Dims691893028233" type="Const" version="opset1">
			<data offset="9452" size="160" shape="1,80,1,1" element_type="f16"/>
			<output>
				<port id="0" precision="FP16">
					<dim>1</dim>
					<dim>80</dim>
					<dim>1</dim>
					<dim>1</dim>
				</port>
			</output>
		</layer>
		<layer id="319" name="Conv_41" type="Add" version="opset1">
			<data auto_broadcast="numpy"/>
			<input>
				<port id="0">
					<dim>1</dim>
					<dim>80</dim>
					<dim>320</dim>
					<dim>320</dim>
				</port>
				<port id="1">
					<dim>1</dim>
					<dim>80</dim>
					<dim>1</dim>
					<dim>1</dim>
				</port>
			</input>
			<output>
				<port id="2" precision="FP16" names="1618">
					<dim>1</dim>
					<dim>80</dim>
					<dim>320</dim>
					<dim>320</dim>
				</port>
			</output>
		</layer>
		<layer id="320" name="Mul_43" type="Swish" version="opset4">
			<input>
				<port id="0">
					<dim>1</dim>
					<dim>80</dim>
					<dim>320</dim>
					<dim>320</dim>
				</port>
			</input>
			<output>
				<port id="1" precision="FP16" names="939">
					<dim>1</dim>
					<dim>80</dim>
					<dim>320</dim>
					<dim>320</dim>
				</port>
			</output>
		</layer>
		<layer id="321" name="Conv_44/WithoutBiases/fq_input_0" type="FakeQuantize" version="opset1">
			<data levels="256" auto_broadcast="numpy"/>
			<input>
				<port id="0">
					<dim>1</dim>
					<dim>80</dim>
					<dim>320</dim>
					<dim>320</dim>
				</port>
				<port id="1"/>
				<port id="2"/>
				<port id="3"/>
				<port id="4"/>
			</input>
			<output>
				<port id="5" precision="FP16">
					<dim>1</dim>
					<dim>80</dim>
					<dim>320</dim>
					<dim>320</dim>
				</port>
			</output>
		</layer>
		<layer id="322" name="162293314124/quantized1917528557" type="Const" version="opset1">
			<data offset="9612" size="115200" shape="160,80,3,3" element_type="i8"/>
			<output>
				<port id="0" precision="I8">
					<dim>160</dim>
					<dim>80</dim>
					<dim>3</dim>
					<dim>3</dim>
				</port>
			</output>
		</layer>
		<layer id="323" name="162293314124/quantized/to_f16" type="Convert" version="opset1">
			<data destination_type="f16"/>
			<input>
				<port id="0">
					<dim>160</dim>
					<dim>80</dim>
					<dim>3</dim>
					<dim>3</dim>
				</port>
			</input>
			<output>
				<port id="1" precision="FP16">
					<dim>160</dim>
					<dim>80</dim>
					<dim>3</dim>
					<dim>3</dim>
				</port>
			</output>
		</layer>
		<layer id="324" name="Conv_44/WithoutBiases/fq_weights_1/zero_point1919429319" type="Const" version="opset1">
			<data offset="124812" size="320" shape="160,1,1,1" element_type="f16"/>
			<output>
				<port id="0" precision="FP16">
					<dim>160</dim>
					<dim>1</dim>
					<dim>1</dim>
					<dim>1</dim>
				</port>
			</output>
		</layer>
		<layer id="325" name="Conv_44/WithoutBiases/fq_weights_1/minus_zp" type="Subtract" version="opset1">
			<data auto_broadcast="numpy"/>
			<input>
				<port id="0">
					<dim>160</dim>
					<dim>80</dim>
					<dim>3</dim>
					<dim>3</dim>
				</port>
				<port id="1">
					<dim>160</dim>
					<dim>1</dim>
					<dim>1</dim>
					<dim>1</dim>
				</port>
			</input>
			<output>
				<port id="2" precision="FP16">
					<dim>160</dim>
					<dim>80</dim>
					<dim>3</dim>
					<dim>3</dim>
				</port>
			</output>
		</layer>
		<layer id="326" name="Conv_44/WithoutBiases/fq_weights_1/scale1918328911" type="Const" version="opset1">
			<data offset="125132" size="320" shape="160,1,1,1" element_type="f16"/>
			<output>
				<port id="0" precision="FP16">
					<dim>160</dim>
					<dim>1</dim>
					<dim>1</dim>
					<dim>1</dim>
				</port>
			</output>
		</layer>
		<layer id="327" name="Conv_44/WithoutBiases/fq_weights_1/mulpiply_by_scale" type="Multiply" version="opset1">
			<data auto_broadcast="numpy"/>
			<input>
				<port id="0">
					<dim>160</dim>
					<dim>80</dim>
					<dim>3</dim>
					<dim>3</dim>
				</port>
				<port id="1">
					<dim>160</dim>
					<dim>1</dim>
					<dim>1</dim>
					<dim>1</dim>
				</port>
			</input>
			<output>
				<port id="2" precision="FP16">
					<dim>160</dim>
					<dim>80</dim>
					<dim>3</dim>
					<dim>3</dim>
				</port>
			</output>
		</layer>
		<layer id="328" name="Conv_44/WithoutBiases" type="Convolution" version="opset1">
			<data auto_pad="explicit" strides="2,2" dilations="1,1" pads_begin="1,1" pads_end="1,1"/>
			<input>
				<port id="0">
					<dim>1</dim>
					<dim>80</dim>
					<dim>320</dim>
					<dim>320</dim>
				</port>
				<port id="1">
					<dim>160</dim>
					<dim>80</dim>
					<dim>3</dim>
					<dim>3</dim>
				</port>
			</input>
			<output>
				<port id="2" precision="FP16">
					<dim>1</dim>
					<dim>160</dim>
					<dim>160</dim>
					<dim>160</dim>
				</port>
			</output>
		</layer>
		<layer id="329" name="Conv_44/Dims710493526535" type="Const" version="opset1">
			<data offset="125452" size="320" shape="1,160,1,1" element_type="f16"/>
			<output>
				<port id="0" precision="FP16">
					<dim>1</dim>
					<dim>160</dim>
					<dim>1</dim>
					<dim>1</dim>
				</port>
			</output>
		</layer>
		<layer id="330" name="Conv_44" type="Add" version="opset1">
			<data auto_broadcast="numpy"/>
			<input>
				<port id="0">
					<dim>1</dim>
					<dim>160</dim>
					<dim>160</dim>
					<dim>160</dim>
				</port>
				<port id="1">
					<dim>1</dim>
					<dim>160</dim>
					<dim>1</dim>
					<dim>1</dim>
				</port>
			</input>
			<output>
				<port id="2" precision="FP16" names="1621">
					<dim>1</dim>
					<dim>160</dim>
					<dim>160</dim>
					<dim>160</dim>
				</port>
			</output>
		</layer>
		<layer id="331" name="Mul_46" type="Swish" version="opset4">
			<input>
				<port id="0">
					<dim>1</dim>
					<dim>160</dim>
					<dim>160</dim>
					<dim>160</dim>
				</port>
			</input>
			<output>
				<port id="1" precision="FP16" names="943">
					<dim>1</dim>
					<dim>160</dim>
					<dim>160</dim>
					<dim>160</dim>
				</port>
			</output>
		</layer>
		<layer id="332" name="Conv_47/WithoutBiases/fq_input_0" type="FakeQuantize" version="opset1">
			<data levels="256" auto_broadcast="numpy"/>
			<input>
				<port id="0">
					<dim>1</dim>
					<dim>160</dim>
					<dim>160</dim>
					<dim>160</dim>
				</port>
				<port id="1"/>
				<port id="2"/>
				<port id="3"/>
				<port id="4"/>
			</input>
			<output>
				<port id="5" precision="FP16">
					<dim>1</dim>
					<dim>160</dim>
					<dim>160</dim>
					<dim>160</dim>
				</port>
			</output>
		</layer>
		<layer id="333" name="162593814126/quantized1719528170" type="Const" version="opset1">
			<data offset="125772" size="12800" shape="80,160,1,1" element_type="i8"/>
			<output>
				<port id="0" precision="I8">
					<dim>80</dim>
					<dim>160</dim>
					<dim>1</dim>
					<dim>1</dim>
				</port>
			</output>
		</layer>
		<layer id="334" name="162593814126/quantized/to_f16" type="Convert" version="opset1">
			<data destination_type="f16"/>
			<input>
				<port id="0">
					<dim>80</dim>
					<dim>160</dim>
					<dim>1</dim>
					<dim>1</dim>
				</port>
			</input>
			<output>
				<port id="1" precision="FP16">
					<dim>80</dim>
					<dim>160</dim>
					<dim>1</dim>
					<dim>1</dim>
				</port>
			</output>
		</layer>
		<layer id="335" name="Conv_47/WithoutBiases/fq_weights_1/zero_point1721427318" type="Const" version="opset1">
			<data offset="138572" size="160" shape="80,1,1,1" element_type="f16"/>
			<output>
				<port id="0" precision="FP16">
					<dim>80</dim>
					<dim>1</dim>
					<dim>1</dim>
					<dim>1</dim>
				</port>
			</output>
		</layer>
		<layer id="336" name="Conv_47/WithoutBiases/fq_weights_1/minus_zp" type="Subtract" version="opset1">
			<data auto_broadcast="numpy"/>
			<input>
				<port id="0">
					<dim>80</dim>
					<dim>160</dim>
					<dim>1</dim>
					<dim>1</dim>
				</port>
				<port id="1">
					<dim>80</dim>
					<dim>1</dim>
					<dim>1</dim>
					<dim>1</dim>
				</port>
			</input>
			<output>
				<port id="2" precision="FP16">
					<dim>80</dim>
					<dim>160</dim>
					<dim>1</dim>
					<dim>1</dim>
				</port>
			</output>
		</layer>
		<layer id="337" name="Conv_47/WithoutBiases/fq_weights_1/scale1720326439" type="Const" version="opset1">
			<data offset="138732" size="160" shape="80,1,1,1" element_type="f16"/>
			<output>
				<port id="0" precision="FP16">
					<dim>80</dim>
					<dim>1</dim>
					<dim>1</dim>
					<dim>1</dim>
				</port>
			</output>
		</layer>
		<layer id="338" name="Conv_47/WithoutBiases/fq_weights_1/mulpiply_by_scale" type="Multiply" version="opset1">
			<data auto_broadcast="numpy"/>
			<input>
				<port id="0">
					<dim>80</dim>
					<dim>160</dim>
					<dim>1</dim>
					<dim>1</dim>
				</port>
				<port id="1">
					<dim>80</dim>
					<dim>1</dim>
					<dim>1</dim>
					<dim>1</dim>
				</port>
			</input>
			<output>
				<port id="2" precision="FP16">
					<dim>80</dim>
					<dim>160</dim>
					<dim>1</dim>
					<dim>1</dim>
				</port>
			</output>
		</layer>
		<layer id="339" name="Conv_47/WithoutBiases" type="Convolution" version="opset1">
			<data auto_pad="explicit" strides="1,1" dilations="1,1" pads_begin="0,0" pads_end="0,0"/>
			<input>
				<port id="0">
					<dim>1</dim>
					<dim>160</dim>
					<dim>160</dim>
					<dim>160</dim>
				</port>
				<port id="1">
					<dim>80</dim>
					<dim>160</dim>
					<dim>1</dim>
					<dim>1</dim>
				</port>
			</input>
			<output>
				<port id="2" precision="FP16">
					<dim>1</dim>
					<dim>80</dim>
					<dim>160</dim>
					<dim>160</dim>
				</port>
			</output>
		</layer>
		<layer id="340" name="Conv_47/Dims730894026736" type="Const" version="opset1">
			<data offset="138892" size="160" shape="1,80,1,1" element_type="f16"/>
			<output>
				<port id="0" precision="FP16">
					<dim>1</dim>
					<dim>80</dim>
					<dim>1</dim>
					<dim>1</dim>
				</port>
			</output>
		</layer>
		<layer id="341" name="Conv_47" type="Add" version="opset1">
			<data auto_broadcast="numpy"/>
			<input>
				<port id="0">
					<dim>1</dim>
					<dim>80</dim>
					<dim>160</dim>
					<dim>160</dim>
				</port>
				<port id="1">
					<dim>1</dim>
					<dim>80</dim>
					<dim>1</dim>
					<dim>1</dim>
				</port>
			</input>
			<output>
				<port id="2" precision="FP16" names="1624">
					<dim>1</dim>
					<dim>80</dim>
					<dim>160</dim>
					<dim>160</dim>
				</port>
			</output>
		</layer>
		<layer id="342" name="Mul_49" type="Swish" version="opset4">
			<input>
				<port id="0">
					<dim>1</dim>
					<dim>80</dim>
					<dim>160</dim>
					<dim>160</dim>
				</port>
			</input>
			<output>
				<port id="1" precision="FP16" names="947">
					<dim>1</dim>
					<dim>80</dim>
					<dim>160</dim>
					<dim>160</dim>
				</port>
			</output>
		</layer>
		<layer id="343" name="Add_59/fq_input_1" type="FakeQuantize" version="opset1">
			<data levels="256" auto_broadcast="numpy"/>
			<input>
				<port id="0">
					<dim>1</dim>
					<dim>80</dim>
					<dim>160</dim>
					<dim>160</dim>
				</port>
				<port id="1"/>
				<port id="2"/>
				<port id="3"/>
				<port id="4"/>
			</input>
			<output>
				<port id="5" precision="FP16">
					<dim>1</dim>
					<dim>80</dim>
					<dim>160</dim>
					<dim>160</dim>
				</port>
			</output>
		</layer>
		<layer id="344" name="163194314128/quantized1701528449" type="Const" version="opset1">
			<data offset="139052" size="6400" shape="80,80,1,1" element_type="i8"/>
			<output>
				<port id="0" precision="I8">
					<dim>80</dim>
					<dim>80</dim>
					<dim>1</dim>
					<dim>1</dim>
				</port>
			</output>
		</layer>
		<layer id="345" name="163194314128/quantized/to_f16" type="Convert" version="opset1">
			<data destination_type="f16"/>
			<input>
				<port id="0">
					<dim>80</dim>
					<dim>80</dim>
					<dim>1</dim>
					<dim>1</dim>
				</port>
			</input>
			<output>
				<port id="1" precision="FP16">
					<dim>80</dim>
					<dim>80</dim>
					<dim>1</dim>
					<dim>1</dim>
				</port>
			</output>
		</layer>
		<layer id="346" name="Conv_53/WithoutBiases/fq_weights_1/zero_point1703427798" type="Const" version="opset1">
			<data offset="145452" size="160" shape="80,1,1,1" element_type="f16"/>
			<output>
				<port id="0" precision="FP16">
					<dim>80</dim>
					<dim>1</dim>
					<dim>1</dim>
					<dim>1</dim>
				</port>
			</output>
		</layer>
		<layer id="347" name="Conv_53/WithoutBiases/fq_weights_1/minus_zp" type="Subtract" version="opset1">
			<data auto_broadcast="numpy"/>
			<input>
				<port id="0">
					<dim>80</dim>
					<dim>80</dim>
					<dim>1</dim>
					<dim>1</dim>
				</port>
				<port id="1">
					<dim>80</dim>
					<dim>1</dim>
					<dim>1</dim>
					<dim>1</dim>
				</port>
			</input>
			<output>
				<port id="2" precision="FP16">
					<dim>80</dim>
					<dim>80</dim>
					<dim>1</dim>
					<dim>1</dim>
				</port>
			</output>
		</layer>
		<layer id="348" name="Conv_53/WithoutBiases/fq_weights_1/scale1702328230" type="Const" version="opset1">
			<data offset="145612" size="160" shape="80,1,1,1" element_type="f16"/>
			<output>
				<port id="0" precision="FP16">
					<dim>80</dim>
					<dim>1</dim>
					<dim>1</dim>
					<dim>1</dim>
				</port>
			</output>
		</layer>
		<layer id="349" name="Conv_53/WithoutBiases/fq_weights_1/mulpiply_by_scale" type="Multiply" version="opset1">
			<data auto_broadcast="numpy"/>
			<input>
				<port id="0">
					<dim>80</dim>
					<dim>80</dim>
					<dim>1</dim>
					<dim>1</dim>
				</port>
				<port id="1">
					<dim>80</dim>
					<dim>1</dim>
					<dim>1</dim>
					<dim>1</dim>
				</port>
			</input>
			<output>
				<port id="2" precision="FP16">
					<dim>80</dim>
					<dim>80</dim>
					<dim>1</dim>
					<dim>1</dim>
				</port>
			</output>
		</layer>
		<layer id="350" name="Conv_53/WithoutBiases" type="Convolution" version="opset1">
			<data auto_pad="explicit" strides="1,1" dilations="1,1" pads_begin="0,0" pads_end="0,0"/>
			<input>
				<port id="0">
					<dim>1</dim>
					<dim>80</dim>
					<dim>160</dim>
					<dim>160</dim>
				</port>
				<port id="1">
					<dim>80</dim>
					<dim>80</dim>
					<dim>1</dim>
					<dim>1</dim>
				</port>
			</input>
			<output>
				<port id="2" precision="FP16">
					<dim>1</dim>
					<dim>80</dim>
					<dim>160</dim>
					<dim>160</dim>
				</port>
			</output>
		</layer>
		<layer id="351" name="Conv_53/Dims721894527921" type="Const" version="opset1">
			<data offset="145772" size="160" shape="1,80,1,1" element_type="f16"/>
			<output>
				<port id="0" precision="FP16">
					<dim>1</dim>
					<dim>80</dim>
					<dim>1</dim>
					<dim>1</dim>
				</port>
			</output>
		</layer>
		<layer id="352" name="Conv_53" type="Add" version="opset1">
			<data auto_broadcast="numpy"/>
			<input>
				<port id="0">
					<dim>1</dim>
					<dim>80</dim>
					<dim>160</dim>
					<dim>160</dim>
				</port>
				<port id="1">
					<dim>1</dim>
					<dim>80</dim>
					<dim>1</dim>
					<dim>1</dim>
				</port>
			</input>
			<output>
				<port id="2" precision="FP16" names="1630">
					<dim>1</dim>
					<dim>80</dim>
					<dim>160</dim>
					<dim>160</dim>
				</port>
			</output>
		</layer>
		<layer id="353" name="Mul_55" type="Swish" version="opset4">
			<input>
				<port id="0">
					<dim>1</dim>
					<dim>80</dim>
					<dim>160</dim>
					<dim>160</dim>
				</port>
			</input>
			<output>
				<port id="1" precision="FP16" names="955">
					<dim>1</dim>
					<dim>80</dim>
					<dim>160</dim>
					<dim>160</dim>
				</port>
			</output>
		</layer>
		<layer id="354" name="Conv_56/WithoutBiases/fq_input_0" type="FakeQuantize" version="opset1">
			<data levels="256" auto_broadcast="numpy"/>
			<input>
				<port id="0">
					<dim>1</dim>
					<dim>80</dim>
					<dim>160</dim>
					<dim>160</dim>
				</port>
				<port id="1"/>
				<port id="2"/>
				<port id="3"/>
				<port id="4"/>
			</input>
			<output>
				<port id="5" precision="FP16">
					<dim>1</dim>
					<dim>80</dim>
					<dim>160</dim>
					<dim>160</dim>
				</port>
			</output>
		</layer>
		<layer id="355" name="163494814130/quantized1944527321" type="Const" version="opset1">
			<data offset="145932" size="57600" shape="80,80,3,3" element_type="i8"/>
			<output>
				<port id="0" precision="I8">
					<dim>80</dim>
					<dim>80</dim>
					<dim>3</dim>
					<dim>3</dim>
				</port>
			</output>
		</layer>
		<layer id="356" name="163494814130/quantized/to_f16" type="Convert" version="opset1">
			<data destination_type="f16"/>
			<input>
				<port id="0">
					<dim>80</dim>
					<dim>80</dim>
					<dim>3</dim>
					<dim>3</dim>
				</port>
			</input>
			<output>
				<port id="1" precision="FP16">
					<dim>80</dim>
					<dim>80</dim>
					<dim>3</dim>
					<dim>3</dim>
				</port>
			</output>
		</layer>
		<layer id="357" name="Conv_56/WithoutBiases/fq_weights_1/zero_point1946428764" type="Const" version="opset1">
			<data offset="203532" size="160" shape="80,1,1,1" element_type="f16"/>
			<output>
				<port id="0" precision="FP16">
					<dim>80</dim>
					<dim>1</dim>
					<dim>1</dim>
					<dim>1</dim>
				</port>
			</output>
		</layer>
		<layer id="358" name="Conv_56/WithoutBiases/fq_weights_1/minus_zp" type="Subtract" version="opset1">
			<data auto_broadcast="numpy"/>
			<input>
				<port id="0">
					<dim>80</dim>
					<dim>80</dim>
					<dim>3</dim>
					<dim>3</dim>
				</port>
				<port id="1">
					<dim>80</dim>
					<dim>1</dim>
					<dim>1</dim>
					<dim>1</dim>
				</port>
			</input>
			<output>
				<port id="2" precision="FP16">
					<dim>80</dim>
					<dim>80</dim>
					<dim>3</dim>
					<dim>3</dim>
				</port>
			</output>
		</layer>
		<layer id="359" name="Conv_56/WithoutBiases/fq_weights_1/scale1945326349" type="Const" version="opset1">
			<data offset="203692" size="160" shape="80,1,1,1" element_type="f16"/>
			<output>
				<port id="0" precision="FP16">
					<dim>80</dim>
					<dim>1</dim>
					<dim>1</dim>
					<dim>1</dim>
				</port>
			</output>
		</layer>
		<layer id="360" name="Conv_56/WithoutBiases/fq_weights_1/mulpiply_by_scale" type="Multiply" version="opset1">
			<data auto_broadcast="numpy"/>
			<input>
				<port id="0">
					<dim>80</dim>
					<dim>80</dim>
					<dim>3</dim>
					<dim>3</dim>
				</port>
				<port id="1">
					<dim>80</dim>
					<dim>1</dim>
					<dim>1</dim>
					<dim>1</dim>
				</port>
			</input>
			<output>
				<port id="2" precision="FP16">
					<dim>80</dim>
					<dim>80</dim>
					<dim>3</dim>
					<dim>3</dim>
				</port>
			</output>
		</layer>
		<layer id="361" name="Conv_56/WithoutBiases" type="Convolution" version="opset1">
			<data auto_pad="explicit" strides="1,1" dilations="1,1" pads_begin="1,1" pads_end="1,1"/>
			<input>
				<port id="0">
					<dim>1</dim>
					<dim>80</dim>
					<dim>160</dim>
					<dim>160</dim>
				</port>
				<port id="1">
					<dim>80</dim>
					<dim>80</dim>
					<dim>3</dim>
					<dim>3</dim>
				</port>
			</input>
			<output>
				<port id="2" precision="FP16">
					<dim>1</dim>
					<dim>80</dim>
					<dim>160</dim>
					<dim>160</dim>
				</port>
			</output>
		</layer>
		<layer id="362" name="Conv_56/Dims703895029487" type="Const" version="opset1">
			<data offset="203852" size="160" shape="1,80,1,1" element_type="f16"/>
			<output>
				<port id="0" precision="FP16">
					<dim>1</dim>
					<dim>80</dim>
					<dim>1</dim>
					<dim>1</dim>
				</port>
			</output>
		</layer>
		<layer id="363" name="Conv_56" type="Add" version="opset1">
			<data auto_broadcast="numpy"/>
			<input>
				<port id="0">
					<dim>1</dim>
					<dim>80</dim>
					<dim>160</dim>
					<dim>160</dim>
				</port>
				<port id="1">
					<dim>1</dim>
					<dim>80</dim>
					<dim>1</dim>
					<dim>1</dim>
				</port>
			</input>
			<output>
				<port id="2" precision="FP16" names="1633">
					<dim>1</dim>
					<dim>80</dim>
					<dim>160</dim>
					<dim>160</dim>
				</port>
			</output>
		</layer>
		<layer id="364" name="Mul_58" type="Swish" version="opset4">
			<input>
				<port id="0">
					<dim>1</dim>
					<dim>80</dim>
					<dim>160</dim>
					<dim>160</dim>
				</port>
			</input>
			<output>
				<port id="1" precision="FP16" names="959">
					<dim>1</dim>
					<dim>80</dim>
					<dim>160</dim>
					<dim>160</dim>
				</port>
			</output>
		</layer>
		<layer id="365" name="Add_59/fq_input_0" type="FakeQuantize" version="opset1">
			<data levels="256" auto_broadcast="numpy"/>
			<input>
				<port id="0">
					<dim>1</dim>
					<dim>80</dim>
					<dim>160</dim>
					<dim>160</dim>
				</port>
				<port id="1"/>
				<port id="2"/>
				<port id="3"/>
				<port id="4"/>
			</input>
			<output>
				<port id="5" precision="FP16">
					<dim>1</dim>
					<dim>80</dim>
					<dim>160</dim>
					<dim>160</dim>
				</port>
			</output>
		</layer>
		<layer id="366" name="Add_59" type="Add" version="opset1">
			<data auto_broadcast="numpy"/>
			<input>
				<port id="0">
					<dim>1</dim>
					<dim>80</dim>
					<dim>160</dim>
					<dim>160</dim>
				</port>
				<port id="1">
					<dim>1</dim>
					<dim>80</dim>
					<dim>160</dim>
					<dim>160</dim>
				</port>
			</input>
			<output>
				<port id="2" precision="FP16" names="960">
					<dim>1</dim>
					<dim>80</dim>
					<dim>160</dim>
					<dim>160</dim>
				</port>
			</output>
		</layer>
		<layer id="367" name="Add_66/fq_input_1" type="FakeQuantize" version="opset1">
			<data levels="256" auto_broadcast="numpy"/>
			<input>
				<port id="0">
					<dim>1</dim>
					<dim>80</dim>
					<dim>160</dim>
					<dim>160</dim>
				</port>
				<port id="1"/>
				<port id="2"/>
				<port id="3"/>
				<port id="4"/>
			</input>
			<output>
				<port id="5" precision="FP16">
					<dim>1</dim>
					<dim>80</dim>
					<dim>160</dim>
					<dim>160</dim>
				</port>
			</output>
		</layer>
		<layer id="368" name="163795414132/quantized1656528029" type="Const" version="opset1">
			<data offset="204012" size="6400" shape="80,80,1,1" element_type="i8"/>
			<output>
				<port id="0" precision="I8">
					<dim>80</dim>
					<dim>80</dim>
					<dim>1</dim>
					<dim>1</dim>
				</port>
			</output>
		</layer>
		<layer id="369" name="163795414132/quantized/to_f16" type="Convert" version="opset1">
			<data destination_type="f16"/>
			<input>
				<port id="0">
					<dim>80</dim>
					<dim>80</dim>
					<dim>1</dim>
					<dim>1</dim>
				</port>
			</input>
			<output>
				<port id="1" precision="FP16">
					<dim>80</dim>
					<dim>80</dim>
					<dim>1</dim>
					<dim>1</dim>
				</port>
			</output>
		</layer>
		<layer id="370" name="Conv_60/WithoutBiases/fq_weights_1/zero_point1658428386" type="Const" version="opset1">
			<data offset="210412" size="160" shape="80,1,1,1" element_type="f16"/>
			<output>
				<port id="0" precision="FP16">
					<dim>80</dim>
					<dim>1</dim>
					<dim>1</dim>
					<dim>1</dim>
				</port>
			</output>
		</layer>
		<layer id="371" name="Conv_60/WithoutBiases/fq_weights_1/minus_zp" type="Subtract" version="opset1">
			<data auto_broadcast="numpy"/>
			<input>
				<port id="0">
					<dim>80</dim>
					<dim>80</dim>
					<dim>1</dim>
					<dim>1</dim>
				</port>
				<port id="1">
					<dim>80</dim>
					<dim>1</dim>
					<dim>1</dim>
					<dim>1</dim>
				</port>
			</input>
			<output>
				<port id="2" precision="FP16">
					<dim>80</dim>
					<dim>80</dim>
					<dim>1</dim>
					<dim>1</dim>
				</port>
			</output>
		</layer>
		<layer id="372" name="Conv_60/WithoutBiases/fq_weights_1/scale1657328554" type="Const" version="opset1">
			<data offset="210572" size="160" shape="80,1,1,1" element_type="f16"/>
			<output>
				<port id="0" precision="FP16">
					<dim>80</dim>
					<dim>1</dim>
					<dim>1</dim>
					<dim>1</dim>
				</port>
			</output>
		</layer>
		<layer id="373" name="Conv_60/WithoutBiases/fq_weights_1/mulpiply_by_scale" type="Multiply" version="opset1">
			<data auto_broadcast="numpy"/>
			<input>
				<port id="0">
					<dim>80</dim>
					<dim>80</dim>
					<dim>1</dim>
					<dim>1</dim>
				</port>
				<port id="1">
					<dim>80</dim>
					<dim>1</dim>
					<dim>1</dim>
					<dim>1</dim>
				</port>
			</input>
			<output>
				<port id="2" precision="FP16">
					<dim>80</dim>
					<dim>80</dim>
					<dim>1</dim>
					<dim>1</dim>
				</port>
			</output>
		</layer>
		<layer id="374" name="Conv_60/WithoutBiases" type="Convolution" version="opset1">
			<data auto_pad="explicit" strides="1,1" dilations="1,1" pads_begin="0,0" pads_end="0,0"/>
			<input>
				<port id="0">
					<dim>1</dim>
					<dim>80</dim>
					<dim>160</dim>
					<dim>160</dim>
				</port>
				<port id="1">
					<dim>80</dim>
					<dim>80</dim>
					<dim>1</dim>
					<dim>1</dim>
				</port>
			</input>
			<output>
				<port id="2" precision="FP16">
					<dim>1</dim>
					<dim>80</dim>
					<dim>160</dim>
					<dim>160</dim>
				</port>
			</output>
		</layer>
		<layer id="375" name="Conv_60/Dims687695629229" type="Const" version="opset1">
			<data offset="210732" size="160" shape="1,80,1,1" element_type="f16"/>
			<output>
				<port id="0" precision="FP16">
					<dim>1</dim>
					<dim>80</dim>
					<dim>1</dim>
					<dim>1</dim>
				</port>
			</output>
		</layer>
		<layer id="376" name="Conv_60" type="Add" version="opset1">
			<data auto_broadcast="numpy"/>
			<input>
				<port id="0">
					<dim>1</dim>
					<dim>80</dim>
					<dim>160</dim>
					<dim>160</dim>
				</port>
				<port id="1">
					<dim>1</dim>
					<dim>80</dim>
					<dim>1</dim>
					<dim>1</dim>
				</port>
			</input>
			<output>
				<port id="2" precision="FP16" names="1636">
					<dim>1</dim>
					<dim>80</dim>
					<dim>160</dim>
					<dim>160</dim>
				</port>
			</output>
		</layer>
		<layer id="377" name="Mul_62" type="Swish" version="opset4">
			<input>
				<port id="0">
					<dim>1</dim>
					<dim>80</dim>
					<dim>160</dim>
					<dim>160</dim>
				</port>
			</input>
			<output>
				<port id="1" precision="FP16" names="964">
					<dim>1</dim>
					<dim>80</dim>
					<dim>160</dim>
					<dim>160</dim>
				</port>
			</output>
		</layer>
		<layer id="378" name="Conv_63/WithoutBiases/fq_input_0" type="FakeQuantize" version="opset1">
			<data levels="256" auto_broadcast="numpy"/>
			<input>
				<port id="0">
					<dim>1</dim>
					<dim>80</dim>
					<dim>160</dim>
					<dim>160</dim>
				</port>
				<port id="1"/>
				<port id="2"/>
				<port id="3"/>
				<port id="4"/>
			</input>
			<output>
				<port id="5" precision="FP16">
					<dim>1</dim>
					<dim>80</dim>
					<dim>160</dim>
					<dim>160</dim>
				</port>
			</output>
		</layer>
		<layer id="379" name="164095914134/quantized1776526121" type="Const" version="opset1">
			<data offset="210892" size="57600" shape="80,80,3,3" element_type="i8"/>
			<output>
				<port id="0" precision="I8">
					<dim>80</dim>
					<dim>80</dim>
					<dim>3</dim>
					<dim>3</dim>
				</port>
			</output>
		</layer>
		<layer id="380" name="164095914134/quantized/to_f16" type="Convert" version="opset1">
			<data destination_type="f16"/>
			<input>
				<port id="0">
					<dim>80</dim>
					<dim>80</dim>
					<dim>3</dim>
					<dim>3</dim>
				</port>
			</input>
			<output>
				<port id="1" precision="FP16">
					<dim>80</dim>
					<dim>80</dim>
					<dim>3</dim>
					<dim>3</dim>
				</port>
			</output>
		</layer>
		<layer id="381" name="Conv_63/WithoutBiases/fq_weights_1/zero_point1778427294" type="Const" version="opset1">
			<data offset="268492" size="160" shape="80,1,1,1" element_type="f16"/>
			<output>
				<port id="0" precision="FP16">
					<dim>80</dim>
					<dim>1</dim>
					<dim>1</dim>
					<dim>1</dim>
				</port>
			</output>
		</layer>
		<layer id="382" name="Conv_63/WithoutBiases/fq_weights_1/minus_zp" type="Subtract" version="opset1">
			<data auto_broadcast="numpy"/>
			<input>
				<port id="0">
					<dim>80</dim>
					<dim>80</dim>
					<dim>3</dim>
					<dim>3</dim>
				</port>
				<port id="1">
					<dim>80</dim>
					<dim>1</dim>
					<dim>1</dim>
					<dim>1</dim>
				</port>
			</input>
			<output>
				<port id="2" precision="FP16">
					<dim>80</dim>
					<dim>80</dim>
					<dim>3</dim>
					<dim>3</dim>
				</port>
			</output>
		</layer>
		<layer id="383" name="Conv_63/WithoutBiases/fq_weights_1/scale1777326184" type="Const" version="opset1">
			<data offset="268652" size="160" shape="80,1,1,1" element_type="f16"/>
			<output>
				<port id="0" precision="FP16">
					<dim>80</dim>
					<dim>1</dim>
					<dim>1</dim>
					<dim>1</dim>
				</port>
			</output>
		</layer>
		<layer id="384" name="Conv_63/WithoutBiases/fq_weights_1/mulpiply_by_scale" type="Multiply" version="opset1">
			<data auto_broadcast="numpy"/>
			<input>
				<port id="0">
					<dim>80</dim>
					<dim>80</dim>
					<dim>3</dim>
					<dim>3</dim>
				</port>
				<port id="1">
					<dim>80</dim>
					<dim>1</dim>
					<dim>1</dim>
					<dim>1</dim>
				</port>
			</input>
			<output>
				<port id="2" precision="FP16">
					<dim>80</dim>
					<dim>80</dim>
					<dim>3</dim>
					<dim>3</dim>
				</port>
			</output>
		</layer>
		<layer id="385" name="Conv_63/WithoutBiases" type="Convolution" version="opset1">
			<data auto_pad="explicit" strides="1,1" dilations="1,1" pads_begin="1,1" pads_end="1,1"/>
			<input>
				<port id="0">
					<dim>1</dim>
					<dim>80</dim>
					<dim>160</dim>
					<dim>160</dim>
				</port>
				<port id="1">
					<dim>80</dim>
					<dim>80</dim>
					<dim>3</dim>
					<dim>3</dim>
				</port>
			</input>
			<output>
				<port id="2" precision="FP16">
					<dim>1</dim>
					<dim>80</dim>
					<dim>160</dim>
					<dim>160</dim>
				</port>
			</output>
		</layer>
		<layer id="386" name="Conv_63/Dims690696126031" type="Const" version="opset1">
			<data offset="268812" size="160" shape="1,80,1,1" element_type="f16"/>
			<output>
				<port id="0" precision="FP16">
					<dim>1</dim>
					<dim>80</dim>
					<dim>1</dim>
					<dim>1</dim>
				</port>
			</output>
		</layer>
		<layer id="387" name="Conv_63" type="Add" version="opset1">
			<data auto_broadcast="numpy"/>
			<input>
				<port id="0">
					<dim>1</dim>
					<dim>80</dim>
					<dim>160</dim>
					<dim>160</dim>
				</port>
				<port id="1">
					<dim>1</dim>
					<dim>80</dim>
					<dim>1</dim>
					<dim>1</dim>
				</port>
			</input>
			<output>
				<port id="2" precision="FP16" names="1639">
					<dim>1</dim>
					<dim>80</dim>
					<dim>160</dim>
					<dim>160</dim>
				</port>
			</output>
		</layer>
		<layer id="388" name="Mul_65" type="Swish" version="opset4">
			<input>
				<port id="0">
					<dim>1</dim>
					<dim>80</dim>
					<dim>160</dim>
					<dim>160</dim>
				</port>
			</input>
			<output>
				<port id="1" precision="FP16" names="968">
					<dim>1</dim>
					<dim>80</dim>
					<dim>160</dim>
					<dim>160</dim>
				</port>
			</output>
		</layer>
		<layer id="389" name="Add_66/fq_input_0" type="FakeQuantize" version="opset1">
			<data levels="256" auto_broadcast="numpy"/>
			<input>
				<port id="0">
					<dim>1</dim>
					<dim>80</dim>
					<dim>160</dim>
					<dim>160</dim>
				</port>
				<port id="1"/>
				<port id="2"/>
				<port id="3"/>
				<port id="4"/>
			</input>
			<output>
				<port id="5" precision="FP16">
					<dim>1</dim>
					<dim>80</dim>
					<dim>160</dim>
					<dim>160</dim>
				</port>
			</output>
		</layer>
		<layer id="390" name="Add_66" type="Add" version="opset1">
			<data auto_broadcast="numpy"/>
			<input>
				<port id="0">
					<dim>1</dim>
					<dim>80</dim>
					<dim>160</dim>
					<dim>160</dim>
				</port>
				<port id="1">
					<dim>1</dim>
					<dim>80</dim>
					<dim>160</dim>
					<dim>160</dim>
				</port>
			</input>
			<output>
				<port id="2" precision="FP16" names="969">
					<dim>1</dim>
					<dim>80</dim>
					<dim>160</dim>
					<dim>160</dim>
				</port>
			</output>
		</layer>
		<layer id="391" name="Add_73/fq_input_1" type="FakeQuantize" version="opset1">
			<data levels="256" auto_broadcast="numpy"/>
			<input>
				<port id="0">
					<dim>1</dim>
					<dim>80</dim>
					<dim>160</dim>
					<dim>160</dim>
				</port>
				<port id="1"/>
				<port id="2"/>
				<port id="3"/>
				<port id="4"/>
			</input>
			<output>
				<port id="5" precision="FP16">
					<dim>1</dim>
					<dim>80</dim>
					<dim>160</dim>
					<dim>160</dim>
				</port>
			</output>
		</layer>
		<layer id="392" name="164396514136/quantized1668529541" type="Const" version="opset1">
			<data offset="268972" size="6400" shape="80,80,1,1" element_type="i8"/>
			<output>
				<port id="0" precision="I8">
					<dim>80</dim>
					<dim>80</dim>
					<dim>1</dim>
					<dim>1</dim>
				</port>
			</output>
		</layer>
		<layer id="393" name="164396514136/quantized/to_f16" type="Convert" version="opset1">
			<data destination_type="f16"/>
			<input>
				<port id="0">
					<dim>80</dim>
					<dim>80</dim>
					<dim>1</dim>
					<dim>1</dim>
				</port>
			</input>
			<output>
				<port id="1" precision="FP16">
					<dim>80</dim>
					<dim>80</dim>
					<dim>1</dim>
					<dim>1</dim>
				</port>
			</output>
		</layer>
		<layer id="394" name="Conv_67/WithoutBiases/fq_weights_1/zero_point1670427513" type="Const" version="opset1">
			<data offset="275372" size="160" shape="80,1,1,1" element_type="f16"/>
			<output>
				<port id="0" precision="FP16">
					<dim>80</dim>
					<dim>1</dim>
					<dim>1</dim>
					<dim>1</dim>
				</port>
			</output>
		</layer>
		<layer id="395" name="Conv_67/WithoutBiases/fq_weights_1/minus_zp" type="Subtract" version="opset1">
			<data auto_broadcast="numpy"/>
			<input>
				<port id="0">
					<dim>80</dim>
					<dim>80</dim>
					<dim>1</dim>
					<dim>1</dim>
				</port>
				<port id="1">
					<dim>80</dim>
					<dim>1</dim>
					<dim>1</dim>
					<dim>1</dim>
				</port>
			</input>
			<output>
				<port id="2" precision="FP16">
					<dim>80</dim>
					<dim>80</dim>
					<dim>1</dim>
					<dim>1</dim>
				</port>
			</output>
		</layer>
		<layer id="396" name="Conv_67/WithoutBiases/fq_weights_1/scale1669328839" type="Const" version="opset1">
			<data offset="275532" size="160" shape="80,1,1,1" element_type="f16"/>
			<output>
				<port id="0" precision="FP16">
					<dim>80</dim>
					<dim>1</dim>
					<dim>1</dim>
					<dim>1</dim>
				</port>
			</output>
		</layer>
		<layer id="397" name="Conv_67/WithoutBiases/fq_weights_1/mulpiply_by_scale" type="Multiply" version="opset1">
			<data auto_broadcast="numpy"/>
			<input>
				<port id="0">
					<dim>80</dim>
					<dim>80</dim>
					<dim>1</dim>
					<dim>1</dim>
				</port>
				<port id="1">
					<dim>80</dim>
					<dim>1</dim>
					<dim>1</dim>
					<dim>1</dim>
				</port>
			</input>
			<output>
				<port id="2" precision="FP16">
					<dim>80</dim>
					<dim>80</dim>
					<dim>1</dim>
					<dim>1</dim>
				</port>
			</output>
		</layer>
		<layer id="398" name="Conv_67/WithoutBiases" type="Convolution" version="opset1">
			<data auto_pad="explicit" strides="1,1" dilations="1,1" pads_begin="0,0" pads_end="0,0"/>
			<input>
				<port id="0">
					<dim>1</dim>
					<dim>80</dim>
					<dim>160</dim>
					<dim>160</dim>
				</port>
				<port id="1">
					<dim>80</dim>
					<dim>80</dim>
					<dim>1</dim>
					<dim>1</dim>
				</port>
			</input>
			<output>
				<port id="2" precision="FP16">
					<dim>1</dim>
					<dim>80</dim>
					<dim>160</dim>
					<dim>160</dim>
				</port>
			</output>
		</layer>
		<layer id="399" name="Conv_67/Dims718896726904" type="Const" version="opset1">
			<data offset="275692" size="160" shape="1,80,1,1" element_type="f16"/>
			<output>
				<port id="0" precision="FP16">
					<dim>1</dim>
					<dim>80</dim>
					<dim>1</dim>
					<dim>1</dim>
				</port>
			</output>
		</layer>
		<layer id="400" name="Conv_67" type="Add" version="opset1">
			<data auto_broadcast="numpy"/>
			<input>
				<port id="0">
					<dim>1</dim>
					<dim>80</dim>
					<dim>160</dim>
					<dim>160</dim>
				</port>
				<port id="1">
					<dim>1</dim>
					<dim>80</dim>
					<dim>1</dim>
					<dim>1</dim>
				</port>
			</input>
			<output>
				<port id="2" precision="FP16" names="1642">
					<dim>1</dim>
					<dim>80</dim>
					<dim>160</dim>
					<dim>160</dim>
				</port>
			</output>
		</layer>
		<layer id="401" name="Mul_69" type="Swish" version="opset4">
			<input>
				<port id="0">
					<dim>1</dim>
					<dim>80</dim>
					<dim>160</dim>
					<dim>160</dim>
				</port>
			</input>
			<output>
				<port id="1" precision="FP16" names="973">
					<dim>1</dim>
					<dim>80</dim>
					<dim>160</dim>
					<dim>160</dim>
				</port>
			</output>
		</layer>
		<layer id="402" name="Conv_70/WithoutBiases/fq_input_0" type="FakeQuantize" version="opset1">
			<data levels="256" auto_broadcast="numpy"/>
			<input>
				<port id="0">
					<dim>1</dim>
					<dim>80</dim>
					<dim>160</dim>
					<dim>160</dim>
				</port>
				<port id="1"/>
				<port id="2"/>
				<port id="3"/>
				<port id="4"/>
			</input>
			<output>
				<port id="5" precision="FP16">
					<dim>1</dim>
					<dim>80</dim>
					<dim>160</dim>
					<dim>160</dim>
				</port>
			</output>
		</layer>
		<layer id="403" name="164697014138/quantized1971526610" type="Const" version="opset1">
			<data offset="275852" size="57600" shape="80,80,3,3" element_type="i8"/>
			<output>
				<port id="0" precision="I8">
					<dim>80</dim>
					<dim>80</dim>
					<dim>3</dim>
					<dim>3</dim>
				</port>
			</output>
		</layer>
		<layer id="404" name="164697014138/quantized/to_f16" type="Convert" version="opset1">
			<data destination_type="f16"/>
			<input>
				<port id="0">
					<dim>80</dim>
					<dim>80</dim>
					<dim>3</dim>
					<dim>3</dim>
				</port>
			</input>
			<output>
				<port id="1" precision="FP16">
					<dim>80</dim>
					<dim>80</dim>
					<dim>3</dim>
					<dim>3</dim>
				</port>
			</output>
		</layer>
		<layer id="405" name="Conv_70/WithoutBiases/fq_weights_1/zero_point1973428503" type="Const" version="opset1">
			<data offset="333452" size="160" shape="80,1,1,1" element_type="f16"/>
			<output>
				<port id="0" precision="FP16">
					<dim>80</dim>
					<dim>1</dim>
					<dim>1</dim>
					<dim>1</dim>
				</port>
			</output>
		</layer>
		<layer id="406" name="Conv_70/WithoutBiases/fq_weights_1/minus_zp" type="Subtract" version="opset1">
			<data auto_broadcast="numpy"/>
			<input>
				<port id="0">
					<dim>80</dim>
					<dim>80</dim>
					<dim>3</dim>
					<dim>3</dim>
				</port>
				<port id="1">
					<dim>80</dim>
					<dim>1</dim>
					<dim>1</dim>
					<dim>1</dim>
				</port>
			</input>
			<output>
				<port id="2" precision="FP16">
					<dim>80</dim>
					<dim>80</dim>
					<dim>3</dim>
					<dim>3</dim>
				</port>
			</output>
		</layer>
		<layer id="407" name="Conv_70/WithoutBiases/fq_weights_1/scale1972329226" type="Const" version="opset1">
			<data offset="333612" size="160" shape="80,1,1,1" element_type="f16"/>
			<output>
				<port id="0" precision="FP16">
					<dim>80</dim>
					<dim>1</dim>
					<dim>1</dim>
					<dim>1</dim>
				</port>
			</output>
		</layer>
		<layer id="408" name="Conv_70/WithoutBiases/fq_weights_1/mulpiply_by_scale" type="Multiply" version="opset1">
			<data auto_broadcast="numpy"/>
			<input>
				<port id="0">
					<dim>80</dim>
					<dim>80</dim>
					<dim>3</dim>
					<dim>3</dim>
				</port>
				<port id="1">
					<dim>80</dim>
					<dim>1</dim>
					<dim>1</dim>
					<dim>1</dim>
				</port>
			</input>
			<output>
				<port id="2" precision="FP16">
					<dim>80</dim>
					<dim>80</dim>
					<dim>3</dim>
					<dim>3</dim>
				</port>
			</output>
		</layer>
		<layer id="409" name="Conv_70/WithoutBiases" type="Convolution" version="opset1">
			<data auto_pad="explicit" strides="1,1" dilations="1,1" pads_begin="1,1" pads_end="1,1"/>
			<input>
				<port id="0">
					<dim>1</dim>
					<dim>80</dim>
					<dim>160</dim>
					<dim>160</dim>
				</port>
				<port id="1">
					<dim>80</dim>
					<dim>80</dim>
					<dim>3</dim>
					<dim>3</dim>
				</port>
			</input>
			<output>
				<port id="2" precision="FP16">
					<dim>1</dim>
					<dim>80</dim>
					<dim>160</dim>
					<dim>160</dim>
				</port>
			</output>
		</layer>
		<layer id="410" name="Conv_70/Dims756697226055" type="Const" version="opset1">
			<data offset="333772" size="160" shape="1,80,1,1" element_type="f16"/>
			<output>
				<port id="0" precision="FP16">
					<dim>1</dim>
					<dim>80</dim>
					<dim>1</dim>
					<dim>1</dim>
				</port>
			</output>
		</layer>
		<layer id="411" name="Conv_70" type="Add" version="opset1">
			<data auto_broadcast="numpy"/>
			<input>
				<port id="0">
					<dim>1</dim>
					<dim>80</dim>
					<dim>160</dim>
					<dim>160</dim>
				</port>
				<port id="1">
					<dim>1</dim>
					<dim>80</dim>
					<dim>1</dim>
					<dim>1</dim>
				</port>
			</input>
			<output>
				<port id="2" precision="FP16" names="1645">
					<dim>1</dim>
					<dim>80</dim>
					<dim>160</dim>
					<dim>160</dim>
				</port>
			</output>
		</layer>
		<layer id="412" name="Mul_72" type="Swish" version="opset4">
			<input>
				<port id="0">
					<dim>1</dim>
					<dim>80</dim>
					<dim>160</dim>
					<dim>160</dim>
				</port>
			</input>
			<output>
				<port id="1" precision="FP16" names="977">
					<dim>1</dim>
					<dim>80</dim>
					<dim>160</dim>
					<dim>160</dim>
				</port>
			</output>
		</layer>
		<layer id="413" name="Add_73/fq_input_0" type="FakeQuantize" version="opset1">
			<data levels="256" auto_broadcast="numpy"/>
			<input>
				<port id="0">
					<dim>1</dim>
					<dim>80</dim>
					<dim>160</dim>
					<dim>160</dim>
				</port>
				<port id="1"/>
				<port id="2"/>
				<port id="3"/>
				<port id="4"/>
			</input>
			<output>
				<port id="5" precision="FP16">
					<dim>1</dim>
					<dim>80</dim>
					<dim>160</dim>
					<dim>160</dim>
				</port>
			</output>
		</layer>
		<layer id="414" name="Add_73" type="Add" version="opset1">
			<data auto_broadcast="numpy"/>
			<input>
				<port id="0">
					<dim>1</dim>
					<dim>80</dim>
					<dim>160</dim>
					<dim>160</dim>
				</port>
				<port id="1">
					<dim>1</dim>
					<dim>80</dim>
					<dim>160</dim>
					<dim>160</dim>
				</port>
			</input>
			<output>
				<port id="2" precision="FP16" names="978">
					<dim>1</dim>
					<dim>80</dim>
					<dim>160</dim>
					<dim>160</dim>
				</port>
			</output>
		</layer>
		<layer id="415" name="Add_80/fq_input_1" type="FakeQuantize" version="opset1">
			<data levels="256" auto_broadcast="numpy"/>
			<input>
				<port id="0">
					<dim>1</dim>
					<dim>80</dim>
					<dim>160</dim>
					<dim>160</dim>
				</port>
				<port id="1"/>
				<port id="2"/>
				<port id="3"/>
				<port id="4"/>
			</input>
			<output>
				<port id="5" precision="FP16">
					<dim>1</dim>
					<dim>80</dim>
					<dim>160</dim>
					<dim>160</dim>
				</port>
			</output>
		</layer>
		<layer id="416" name="164997614140/quantized1743528932" type="Const" version="opset1">
			<data offset="333932" size="6400" shape="80,80,1,1" element_type="i8"/>
			<output>
				<port id="0" precision="I8">
					<dim>80</dim>
					<dim>80</dim>
					<dim>1</dim>
					<dim>1</dim>
				</port>
			</output>
		</layer>
		<layer id="417" name="164997614140/quantized/to_f16" type="Convert" version="opset1">
			<data destination_type="f16"/>
			<input>
				<port id="0">
					<dim>80</dim>
					<dim>80</dim>
					<dim>1</dim>
					<dim>1</dim>
				</port>
			</input>
			<output>
				<port id="1" precision="FP16">
					<dim>80</dim>
					<dim>80</dim>
					<dim>1</dim>
					<dim>1</dim>
				</port>
			</output>
		</layer>
		<layer id="418" name="Conv_74/WithoutBiases/fq_weights_1/zero_point1745429313" type="Const" version="opset1">
			<data offset="340332" size="160" shape="80,1,1,1" element_type="f16"/>
			<output>
				<port id="0" precision="FP16">
					<dim>80</dim>
					<dim>1</dim>
					<dim>1</dim>
					<dim>1</dim>
				</port>
			</output>
		</layer>
		<layer id="419" name="Conv_74/WithoutBiases/fq_weights_1/minus_zp" type="Subtract" version="opset1">
			<data auto_broadcast="numpy"/>
			<input>
				<port id="0">
					<dim>80</dim>
					<dim>80</dim>
					<dim>1</dim>
					<dim>1</dim>
				</port>
				<port id="1">
					<dim>80</dim>
					<dim>1</dim>
					<dim>1</dim>
					<dim>1</dim>
				</port>
			</input>
			<output>
				<port id="2" precision="FP16">
					<dim>80</dim>
					<dim>80</dim>
					<dim>1</dim>
					<dim>1</dim>
				</port>
			</output>
		</layer>
		<layer id="420" name="Conv_74/WithoutBiases/fq_weights_1/scale1744327720" type="Const" version="opset1">
			<data offset="340492" size="160" shape="80,1,1,1" element_type="f16"/>
			<output>
				<port id="0" precision="FP16">
					<dim>80</dim>
					<dim>1</dim>
					<dim>1</dim>
					<dim>1</dim>
				</port>
			</output>
		</layer>
		<layer id="421" name="Conv_74/WithoutBiases/fq_weights_1/mulpiply_by_scale" type="Multiply" version="opset1">
			<data auto_broadcast="numpy"/>
			<input>
				<port id="0">
					<dim>80</dim>
					<dim>80</dim>
					<dim>1</dim>
					<dim>1</dim>
				</port>
				<port id="1">
					<dim>80</dim>
					<dim>1</dim>
					<dim>1</dim>
					<dim>1</dim>
				</port>
			</input>
			<output>
				<port id="2" precision="FP16">
					<dim>80</dim>
					<dim>80</dim>
					<dim>1</dim>
					<dim>1</dim>
				</port>
			</output>
		</layer>
		<layer id="422" name="Conv_74/WithoutBiases" type="Convolution" version="opset1">
			<data auto_pad="explicit" strides="1,1" dilations="1,1" pads_begin="0,0" pads_end="0,0"/>
			<input>
				<port id="0">
					<dim>1</dim>
					<dim>80</dim>
					<dim>160</dim>
					<dim>160</dim>
				</port>
				<port id="1">
					<dim>80</dim>
					<dim>80</dim>
					<dim>1</dim>
					<dim>1</dim>
				</port>
			</input>
			<output>
				<port id="2" precision="FP16">
					<dim>1</dim>
					<dim>80</dim>
					<dim>160</dim>
					<dim>160</dim>
				</port>
			</output>
		</layer>
		<layer id="423" name="Conv_74/Dims682297829928" type="Const" version="opset1">
			<data offset="340652" size="160" shape="1,80,1,1" element_type="f16"/>
			<output>
				<port id="0" precision="FP16">
					<dim>1</dim>
					<dim>80</dim>
					<dim>1</dim>
					<dim>1</dim>
				</port>
			</output>
		</layer>
		<layer id="424" name="Conv_74" type="Add" version="opset1">
			<data auto_broadcast="numpy"/>
			<input>
				<port id="0">
					<dim>1</dim>
					<dim>80</dim>
					<dim>160</dim>
					<dim>160</dim>
				</port>
				<port id="1">
					<dim>1</dim>
					<dim>80</dim>
					<dim>1</dim>
					<dim>1</dim>
				</port>
			</input>
			<output>
				<port id="2" precision="FP16" names="1648">
					<dim>1</dim>
					<dim>80</dim>
					<dim>160</dim>
					<dim>160</dim>
				</port>
			</output>
		</layer>
		<layer id="425" name="Mul_76" type="Swish" version="opset4">
			<input>
				<port id="0">
					<dim>1</dim>
					<dim>80</dim>
					<dim>160</dim>
					<dim>160</dim>
				</port>
			</input>
			<output>
				<port id="1" precision="FP16" names="982">
					<dim>1</dim>
					<dim>80</dim>
					<dim>160</dim>
					<dim>160</dim>
				</port>
			</output>
		</layer>
		<layer id="426" name="Conv_77/WithoutBiases/fq_input_0" type="FakeQuantize" version="opset1">
			<data levels="256" auto_broadcast="numpy"/>
			<input>
				<port id="0">
					<dim>1</dim>
					<dim>80</dim>
					<dim>160</dim>
					<dim>160</dim>
				</port>
				<port id="1"/>
				<port id="2"/>
				<port id="3"/>
				<port id="4"/>
			</input>
			<output>
				<port id="5" precision="FP16">
					<dim>1</dim>
					<dim>80</dim>
					<dim>160</dim>
					<dim>160</dim>
				</port>
			</output>
		</layer>
		<layer id="427" name="165298114142/quantized2013528800" type="Const" version="opset1">
			<data offset="340812" size="57600" shape="80,80,3,3" element_type="i8"/>
			<output>
				<port id="0" precision="I8">
					<dim>80</dim>
					<dim>80</dim>
					<dim>3</dim>
					<dim>3</dim>
				</port>
			</output>
		</layer>
		<layer id="428" name="165298114142/quantized/to_f16" type="Convert" version="opset1">
			<data destination_type="f16"/>
			<input>
				<port id="0">
					<dim>80</dim>
					<dim>80</dim>
					<dim>3</dim>
					<dim>3</dim>
				</port>
			</input>
			<output>
				<port id="1" precision="FP16">
					<dim>80</dim>
					<dim>80</dim>
					<dim>3</dim>
					<dim>3</dim>
				</port>
			</output>
		</layer>
		<layer id="429" name="Conv_77/WithoutBiases/fq_weights_1/zero_point2015428314" type="Const" version="opset1">
			<data offset="398412" size="160" shape="80,1,1,1" element_type="f16"/>
			<output>
				<port id="0" precision="FP16">
					<dim>80</dim>
					<dim>1</dim>
					<dim>1</dim>
					<dim>1</dim>
				</port>
			</output>
		</layer>
		<layer id="430" name="Conv_77/WithoutBiases/fq_weights_1/minus_zp" type="Subtract" version="opset1">
			<data auto_broadcast="numpy"/>
			<input>
				<port id="0">
					<dim>80</dim>
					<dim>80</dim>
					<dim>3</dim>
					<dim>3</dim>
				</port>
				<port id="1">
					<dim>80</dim>
					<dim>1</dim>
					<dim>1</dim>
					<dim>1</dim>
				</port>
			</input>
			<output>
				<port id="2" precision="FP16">
					<dim>80</dim>
					<dim>80</dim>
					<dim>3</dim>
					<dim>3</dim>
				</port>
			</output>
		</layer>
		<layer id="431" name="Conv_77/WithoutBiases/fq_weights_1/scale2014329946" type="Const" version="opset1">
			<data offset="398572" size="160" shape="80,1,1,1" element_type="f16"/>
			<output>
				<port id="0" precision="FP16">
					<dim>80</dim>
					<dim>1</dim>
					<dim>1</dim>
					<dim>1</dim>
				</port>
			</output>
		</layer>
		<layer id="432" name="Conv_77/WithoutBiases/fq_weights_1/mulpiply_by_scale" type="Multiply" version="opset1">
			<data auto_broadcast="numpy"/>
			<input>
				<port id="0">
					<dim>80</dim>
					<dim>80</dim>
					<dim>3</dim>
					<dim>3</dim>
				</port>
				<port id="1">
					<dim>80</dim>
					<dim>1</dim>
					<dim>1</dim>
					<dim>1</dim>
				</port>
			</input>
			<output>
				<port id="2" precision="FP16">
					<dim>80</dim>
					<dim>80</dim>
					<dim>3</dim>
					<dim>3</dim>
				</port>
			</output>
		</layer>
		<layer id="433" name="Conv_77/WithoutBiases" type="Convolution" version="opset1">
			<data auto_pad="explicit" strides="1,1" dilations="1,1" pads_begin="1,1" pads_end="1,1"/>
			<input>
				<port id="0">
					<dim>1</dim>
					<dim>80</dim>
					<dim>160</dim>
					<dim>160</dim>
				</port>
				<port id="1">
					<dim>80</dim>
					<dim>80</dim>
					<dim>3</dim>
					<dim>3</dim>
				</port>
			</input>
			<output>
				<port id="2" precision="FP16">
					<dim>1</dim>
					<dim>80</dim>
					<dim>160</dim>
					<dim>160</dim>
				</port>
			</output>
		</layer>
		<layer id="434" name="Conv_77/Dims702098328953" type="Const" version="opset1">
			<data offset="398732" size="160" shape="1,80,1,1" element_type="f16"/>
			<output>
				<port id="0" precision="FP16">
					<dim>1</dim>
					<dim>80</dim>
					<dim>1</dim>
					<dim>1</dim>
				</port>
			</output>
		</layer>
		<layer id="435" name="Conv_77" type="Add" version="opset1">
			<data auto_broadcast="numpy"/>
			<input>
				<port id="0">
					<dim>1</dim>
					<dim>80</dim>
					<dim>160</dim>
					<dim>160</dim>
				</port>
				<port id="1">
					<dim>1</dim>
					<dim>80</dim>
					<dim>1</dim>
					<dim>1</dim>
				</port>
			</input>
			<output>
				<port id="2" precision="FP16" names="1651">
					<dim>1</dim>
					<dim>80</dim>
					<dim>160</dim>
					<dim>160</dim>
				</port>
			</output>
		</layer>
		<layer id="436" name="Mul_79" type="Swish" version="opset4">
			<input>
				<port id="0">
					<dim>1</dim>
					<dim>80</dim>
					<dim>160</dim>
					<dim>160</dim>
				</port>
			</input>
			<output>
				<port id="1" precision="FP16" names="986">
					<dim>1</dim>
					<dim>80</dim>
					<dim>160</dim>
					<dim>160</dim>
				</port>
			</output>
		</layer>
		<layer id="437" name="Add_80/fq_input_0" type="FakeQuantize" version="opset1">
			<data levels="256" auto_broadcast="numpy"/>
			<input>
				<port id="0">
					<dim>1</dim>
					<dim>80</dim>
					<dim>160</dim>
					<dim>160</dim>
				</port>
				<port id="1"/>
				<port id="2"/>
				<port id="3"/>
				<port id="4"/>
			</input>
			<output>
				<port id="5" precision="FP16">
					<dim>1</dim>
					<dim>80</dim>
					<dim>160</dim>
					<dim>160</dim>
				</port>
			</output>
		</layer>
		<layer id="438" name="Add_80" type="Add" version="opset1">
			<data auto_broadcast="numpy"/>
			<input>
				<port id="0">
					<dim>1</dim>
					<dim>80</dim>
					<dim>160</dim>
					<dim>160</dim>
				</port>
				<port id="1">
					<dim>1</dim>
					<dim>80</dim>
					<dim>160</dim>
					<dim>160</dim>
				</port>
			</input>
			<output>
				<port id="2" precision="FP16" names="987">
					<dim>1</dim>
					<dim>80</dim>
					<dim>160</dim>
					<dim>160</dim>
				</port>
			</output>
		</layer>
		<layer id="439" name="Concat_81/fq_input_0" type="FakeQuantize" version="opset1">
			<data levels="256" auto_broadcast="numpy"/>
			<input>
				<port id="0">
					<dim>1</dim>
					<dim>80</dim>
					<dim>160</dim>
					<dim>160</dim>
				</port>
				<port id="1"/>
				<port id="2"/>
				<port id="3"/>
				<port id="4"/>
			</input>
			<output>
				<port id="5" precision="FP16">
					<dim>1</dim>
					<dim>80</dim>
					<dim>160</dim>
					<dim>160</dim>
				</port>
			</output>
		</layer>
		<layer id="440" name="8849885326442" type="Const" version="opset1">
			<data offset="398892" size="2" shape="" element_type="f16"/>
			<output>
				<port id="0" precision="FP16"/>
			</output>
		</layer>
		<layer id="441" name="8850885427963" type="Const" version="opset1">
			<data offset="398894" size="2" shape="" element_type="f16"/>
			<output>
				<port id="0" precision="FP16"/>
			</output>
		</layer>
		<layer id="442" name="8851885528941" type="Const" version="opset1">
			<data offset="398892" size="2" shape="" element_type="f16"/>
			<output>
				<port id="0" precision="FP16"/>
			</output>
		</layer>
		<layer id="443" name="8852885627771" type="Const" version="opset1">
			<data offset="398894" size="2" shape="" element_type="f16"/>
			<output>
				<port id="0" precision="FP16"/>
			</output>
		</layer>
		<layer id="444" name="162898714144/quantized1959527381" type="Const" version="opset1">
			<data offset="398896" size="12800" shape="80,160,1,1" element_type="i8"/>
			<output>
				<port id="0" precision="I8">
					<dim>80</dim>
					<dim>160</dim>
					<dim>1</dim>
					<dim>1</dim>
				</port>
			</output>
		</layer>
		<layer id="445" name="162898714144/quantized/to_f16" type="Convert" version="opset1">
			<data destination_type="f16"/>
			<input>
				<port id="0">
					<dim>80</dim>
					<dim>160</dim>
					<dim>1</dim>
					<dim>1</dim>
				</port>
			</input>
			<output>
				<port id="1" precision="FP16">
					<dim>80</dim>
					<dim>160</dim>
					<dim>1</dim>
					<dim>1</dim>
				</port>
			</output>
		</layer>
		<layer id="446" name="Conv_50/WithoutBiases/fq_weights_1/zero_point1961428797" type="Const" version="opset1">
			<data offset="411696" size="160" shape="80,1,1,1" element_type="f16"/>
			<output>
				<port id="0" precision="FP16">
					<dim>80</dim>
					<dim>1</dim>
					<dim>1</dim>
					<dim>1</dim>
				</port>
			</output>
		</layer>
		<layer id="447" name="Conv_50/WithoutBiases/fq_weights_1/minus_zp" type="Subtract" version="opset1">
			<data auto_broadcast="numpy"/>
			<input>
				<port id="0">
					<dim>80</dim>
					<dim>160</dim>
					<dim>1</dim>
					<dim>1</dim>
				</port>
				<port id="1">
					<dim>80</dim>
					<dim>1</dim>
					<dim>1</dim>
					<dim>1</dim>
				</port>
			</input>
			<output>
				<port id="2" precision="FP16">
					<dim>80</dim>
					<dim>160</dim>
					<dim>1</dim>
					<dim>1</dim>
				</port>
			</output>
		</layer>
		<layer id="448" name="Conv_50/WithoutBiases/fq_weights_1/scale1960326109" type="Const" version="opset1">
			<data offset="411856" size="160" shape="80,1,1,1" element_type="f16"/>
			<output>
				<port id="0" precision="FP16">
					<dim>80</dim>
					<dim>1</dim>
					<dim>1</dim>
					<dim>1</dim>
				</port>
			</output>
		</layer>
		<layer id="449" name="Conv_50/WithoutBiases/fq_weights_1/mulpiply_by_scale" type="Multiply" version="opset1">
			<data auto_broadcast="numpy"/>
			<input>
				<port id="0">
					<dim>80</dim>
					<dim>160</dim>
					<dim>1</dim>
					<dim>1</dim>
				</port>
				<port id="1">
					<dim>80</dim>
					<dim>1</dim>
					<dim>1</dim>
					<dim>1</dim>
				</port>
			</input>
			<output>
				<port id="2" precision="FP16">
					<dim>80</dim>
					<dim>160</dim>
					<dim>1</dim>
					<dim>1</dim>
				</port>
			</output>
		</layer>
		<layer id="450" name="Conv_50/WithoutBiases" type="Convolution" version="opset1">
			<data auto_pad="explicit" strides="1,1" dilations="1,1" pads_begin="0,0" pads_end="0,0"/>
			<input>
				<port id="0">
					<dim>1</dim>
					<dim>160</dim>
					<dim>160</dim>
					<dim>160</dim>
				</port>
				<port id="1">
					<dim>80</dim>
					<dim>160</dim>
					<dim>1</dim>
					<dim>1</dim>
				</port>
			</input>
			<output>
				<port id="2" precision="FP16">
					<dim>1</dim>
					<dim>80</dim>
					<dim>160</dim>
					<dim>160</dim>
				</port>
			</output>
		</layer>
		<layer id="451" name="Conv_50/Dims760298926463" type="Const" version="opset1">
			<data offset="412016" size="160" shape="1,80,1,1" element_type="f16"/>
			<output>
				<port id="0" precision="FP16">
					<dim>1</dim>
					<dim>80</dim>
					<dim>1</dim>
					<dim>1</dim>
				</port>
			</output>
		</layer>
		<layer id="452" name="Conv_50" type="Add" version="opset1">
			<data auto_broadcast="numpy"/>
			<input>
				<port id="0">
					<dim>1</dim>
					<dim>80</dim>
					<dim>160</dim>
					<dim>160</dim>
				</port>
				<port id="1">
					<dim>1</dim>
					<dim>80</dim>
					<dim>1</dim>
					<dim>1</dim>
				</port>
			</input>
			<output>
				<port id="2" precision="FP16" names="1627">
					<dim>1</dim>
					<dim>80</dim>
					<dim>160</dim>
					<dim>160</dim>
				</port>
			</output>
		</layer>
		<layer id="453" name="Mul_52" type="Swish" version="opset4">
			<input>
				<port id="0">
					<dim>1</dim>
					<dim>80</dim>
					<dim>160</dim>
					<dim>160</dim>
				</port>
			</input>
			<output>
				<port id="1" precision="FP16" names="951">
					<dim>1</dim>
					<dim>80</dim>
					<dim>160</dim>
					<dim>160</dim>
				</port>
			</output>
		</layer>
		<layer id="454" name="Concat_81/fq_input_1" type="FakeQuantize" version="opset1">
			<data levels="256" auto_broadcast="numpy"/>
			<input>
				<port id="0">
					<dim>1</dim>
					<dim>80</dim>
					<dim>160</dim>
					<dim>160</dim>
				</port>
				<port id="1"/>
				<port id="2"/>
				<port id="3"/>
				<port id="4"/>
			</input>
			<output>
				<port id="5" precision="FP16">
					<dim>1</dim>
					<dim>80</dim>
					<dim>160</dim>
					<dim>160</dim>
				</port>
			</output>
		</layer>
		<layer id="455" name="Concat_81" type="Concat" version="opset1">
			<data axis="1"/>
			<input>
				<port id="0">
					<dim>1</dim>
					<dim>80</dim>
					<dim>160</dim>
					<dim>160</dim>
				</port>
				<port id="1">
					<dim>1</dim>
					<dim>80</dim>
					<dim>160</dim>
					<dim>160</dim>
				</port>
			</input>
			<output>
				<port id="2" precision="FP16" names="988">
					<dim>1</dim>
					<dim>160</dim>
					<dim>160</dim>
					<dim>160</dim>
				</port>
			</output>
		</layer>
		<layer id="456" name="165599314146/quantized1965526343" type="Const" version="opset1">
			<data offset="412176" size="25600" shape="160,160,1,1" element_type="i8"/>
			<output>
				<port id="0" precision="I8">
					<dim>160</dim>
					<dim>160</dim>
					<dim>1</dim>
					<dim>1</dim>
				</port>
			</output>
		</layer>
		<layer id="457" name="165599314146/quantized/to_f16" type="Convert" version="opset1">
			<data destination_type="f16"/>
			<input>
				<port id="0">
					<dim>160</dim>
					<dim>160</dim>
					<dim>1</dim>
					<dim>1</dim>
				</port>
			</input>
			<output>
				<port id="1" precision="FP16">
					<dim>160</dim>
					<dim>160</dim>
					<dim>1</dim>
					<dim>1</dim>
				</port>
			</output>
		</layer>
		<layer id="458" name="Conv_82/WithoutBiases/fq_weights_1/zero_point1967427327" type="Const" version="opset1">
			<data offset="437776" size="320" shape="160,1,1,1" element_type="f16"/>
			<output>
				<port id="0" precision="FP16">
					<dim>160</dim>
					<dim>1</dim>
					<dim>1</dim>
					<dim>1</dim>
				</port>
			</output>
		</layer>
		<layer id="459" name="Conv_82/WithoutBiases/fq_weights_1/minus_zp" type="Subtract" version="opset1">
			<data auto_broadcast="numpy"/>
			<input>
				<port id="0">
					<dim>160</dim>
					<dim>160</dim>
					<dim>1</dim>
					<dim>1</dim>
				</port>
				<port id="1">
					<dim>160</dim>
					<dim>1</dim>
					<dim>1</dim>
					<dim>1</dim>
				</port>
			</input>
			<output>
				<port id="2" precision="FP16">
					<dim>160</dim>
					<dim>160</dim>
					<dim>1</dim>
					<dim>1</dim>
				</port>
			</output>
		</layer>
		<layer id="460" name="Conv_82/WithoutBiases/fq_weights_1/scale1966326946" type="Const" version="opset1">
			<data offset="438096" size="320" shape="160,1,1,1" element_type="f16"/>
			<output>
				<port id="0" precision="FP16">
					<dim>160</dim>
					<dim>1</dim>
					<dim>1</dim>
					<dim>1</dim>
				</port>
			</output>
		</layer>
		<layer id="461" name="Conv_82/WithoutBiases/fq_weights_1/mulpiply_by_scale" type="Multiply" version="opset1">
			<data auto_broadcast="numpy"/>
			<input>
				<port id="0">
					<dim>160</dim>
					<dim>160</dim>
					<dim>1</dim>
					<dim>1</dim>
				</port>
				<port id="1">
					<dim>160</dim>
					<dim>1</dim>
					<dim>1</dim>
					<dim>1</dim>
				</port>
			</input>
			<output>
				<port id="2" precision="FP16">
					<dim>160</dim>
					<dim>160</dim>
					<dim>1</dim>
					<dim>1</dim>
				</port>
			</output>
		</layer>
		<layer id="462" name="Conv_82/WithoutBiases" type="Convolution" version="opset1">
			<data auto_pad="explicit" strides="1,1" dilations="1,1" pads_begin="0,0" pads_end="0,0"/>
			<input>
				<port id="0">
					<dim>1</dim>
					<dim>160</dim>
					<dim>160</dim>
					<dim>160</dim>
				</port>
				<port id="1">
					<dim>160</dim>
					<dim>160</dim>
					<dim>1</dim>
					<dim>1</dim>
				</port>
			</input>
			<output>
				<port id="2" precision="FP16">
					<dim>1</dim>
					<dim>160</dim>
					<dim>160</dim>
					<dim>160</dim>
				</port>
			</output>
		</layer>
		<layer id="463" name="Conv_82/Dims684099527258" type="Const" version="opset1">
			<data offset="438416" size="320" shape="1,160,1,1" element_type="f16"/>
			<output>
				<port id="0" precision="FP16">
					<dim>1</dim>
					<dim>160</dim>
					<dim>1</dim>
					<dim>1</dim>
				</port>
			</output>
		</layer>
		<layer id="464" name="Conv_82" type="Add" version="opset1">
			<data auto_broadcast="numpy"/>
			<input>
				<port id="0">
					<dim>1</dim>
					<dim>160</dim>
					<dim>160</dim>
					<dim>160</dim>
				</port>
				<port id="1">
					<dim>1</dim>
					<dim>160</dim>
					<dim>1</dim>
					<dim>1</dim>
				</port>
			</input>
			<output>
				<port id="2" precision="FP16" names="1654">
					<dim>1</dim>
					<dim>160</dim>
					<dim>160</dim>
					<dim>160</dim>
				</port>
			</output>
		</layer>
		<layer id="465" name="Mul_84" type="Swish" version="opset4">
			<input>
				<port id="0">
					<dim>1</dim>
					<dim>160</dim>
					<dim>160</dim>
					<dim>160</dim>
				</port>
			</input>
			<output>
				<port id="1" precision="FP16" names="992">
					<dim>1</dim>
					<dim>160</dim>
					<dim>160</dim>
					<dim>160</dim>
				</port>
			</output>
		</layer>
		<layer id="466" name="Conv_85/WithoutBiases/fq_input_0" type="FakeQuantize" version="opset1">
			<data levels="256" auto_broadcast="numpy"/>
			<input>
				<port id="0">
					<dim>1</dim>
					<dim>160</dim>
					<dim>160</dim>
					<dim>160</dim>
				</port>
				<port id="1"/>
				<port id="2"/>
				<port id="3"/>
				<port id="4"/>
			</input>
			<output>
				<port id="5" precision="FP16">
					<dim>1</dim>
					<dim>160</dim>
					<dim>160</dim>
					<dim>160</dim>
				</port>
			</output>
		</layer>
		<layer id="467" name="165899814148/quantized1752528422" type="Const" version="opset1">
			<data offset="438736" size="460800" shape="320,160,3,3" element_type="i8"/>
			<output>
				<port id="0" precision="I8">
					<dim>320</dim>
					<dim>160</dim>
					<dim>3</dim>
					<dim>3</dim>
				</port>
			</output>
		</layer>
		<layer id="468" name="165899814148/quantized/to_f16" type="Convert" version="opset1">
			<data destination_type="f16"/>
			<input>
				<port id="0">
					<dim>320</dim>
					<dim>160</dim>
					<dim>3</dim>
					<dim>3</dim>
				</port>
			</input>
			<output>
				<port id="1" precision="FP16">
					<dim>320</dim>
					<dim>160</dim>
					<dim>3</dim>
					<dim>3</dim>
				</port>
			</output>
		</layer>
		<layer id="469" name="Conv_85/WithoutBiases/fq_weights_1/zero_point1754429514" type="Const" version="opset1">
			<data offset="899536" size="640" shape="320,1,1,1" element_type="f16"/>
			<output>
				<port id="0" precision="FP16">
					<dim>320</dim>
					<dim>1</dim>
					<dim>1</dim>
					<dim>1</dim>
				</port>
			</output>
		</layer>
		<layer id="470" name="Conv_85/WithoutBiases/fq_weights_1/minus_zp" type="Subtract" version="opset1">
			<data auto_broadcast="numpy"/>
			<input>
				<port id="0">
					<dim>320</dim>
					<dim>160</dim>
					<dim>3</dim>
					<dim>3</dim>
				</port>
				<port id="1">
					<dim>320</dim>
					<dim>1</dim>
					<dim>1</dim>
					<dim>1</dim>
				</port>
			</input>
			<output>
				<port id="2" precision="FP16">
					<dim>320</dim>
					<dim>160</dim>
					<dim>3</dim>
					<dim>3</dim>
				</port>
			</output>
		</layer>
		<layer id="471" name="Conv_85/WithoutBiases/fq_weights_1/scale1753329868" type="Const" version="opset1">
			<data offset="900176" size="640" shape="320,1,1,1" element_type="f16"/>
			<output>
				<port id="0" precision="FP16">
					<dim>320</dim>
					<dim>1</dim>
					<dim>1</dim>
					<dim>1</dim>
				</port>
			</output>
		</layer>
		<layer id="472" name="Conv_85/WithoutBiases/fq_weights_1/mulpiply_by_scale" type="Multiply" version="opset1">
			<data auto_broadcast="numpy"/>
			<input>
				<port id="0">
					<dim>320</dim>
					<dim>160</dim>
					<dim>3</dim>
					<dim>3</dim>
				</port>
				<port id="1">
					<dim>320</dim>
					<dim>1</dim>
					<dim>1</dim>
					<dim>1</dim>
				</port>
			</input>
			<output>
				<port id="2" precision="FP16">
					<dim>320</dim>
					<dim>160</dim>
					<dim>3</dim>
					<dim>3</dim>
				</port>
			</output>
		</layer>
		<layer id="473" name="Conv_85/WithoutBiases" type="Convolution" version="opset1">
			<data auto_pad="explicit" strides="2,2" dilations="1,1" pads_begin="1,1" pads_end="1,1"/>
			<input>
				<port id="0">
					<dim>1</dim>
					<dim>160</dim>
					<dim>160</dim>
					<dim>160</dim>
				</port>
				<port id="1">
					<dim>320</dim>
					<dim>160</dim>
					<dim>3</dim>
					<dim>3</dim>
				</port>
			</input>
			<output>
				<port id="2" precision="FP16">
					<dim>1</dim>
					<dim>320</dim>
					<dim>80</dim>
					<dim>80</dim>
				</port>
			</output>
		</layer>
		<layer id="474" name="Conv_85/Dims7086100028707" type="Const" version="opset1">
			<data offset="900816" size="640" shape="1,320,1,1" element_type="f16"/>
			<output>
				<port id="0" precision="FP16">
					<dim>1</dim>
					<dim>320</dim>
					<dim>1</dim>
					<dim>1</dim>
				</port>
			</output>
		</layer>
		<layer id="475" name="Conv_85" type="Add" version="opset1">
			<data auto_broadcast="numpy"/>
			<input>
				<port id="0">
					<dim>1</dim>
					<dim>320</dim>
					<dim>80</dim>
					<dim>80</dim>
				</port>
				<port id="1">
					<dim>1</dim>
					<dim>320</dim>
					<dim>1</dim>
					<dim>1</dim>
				</port>
			</input>
			<output>
				<port id="2" precision="FP16" names="1657">
					<dim>1</dim>
					<dim>320</dim>
					<dim>80</dim>
					<dim>80</dim>
				</port>
			</output>
		</layer>
		<layer id="476" name="Mul_87" type="Swish" version="opset4">
			<input>
				<port id="0">
					<dim>1</dim>
					<dim>320</dim>
					<dim>80</dim>
					<dim>80</dim>
				</port>
			</input>
			<output>
				<port id="1" precision="FP16" names="996">
					<dim>1</dim>
					<dim>320</dim>
					<dim>80</dim>
					<dim>80</dim>
				</port>
			</output>
		</layer>
		<layer id="477" name="Conv_88/WithoutBiases/fq_input_0" type="FakeQuantize" version="opset1">
			<data levels="256" auto_broadcast="numpy"/>
			<input>
				<port id="0">
					<dim>1</dim>
					<dim>320</dim>
					<dim>80</dim>
					<dim>80</dim>
				</port>
				<port id="1"/>
				<port id="2"/>
				<port id="3"/>
				<port id="4"/>
			</input>
			<output>
				<port id="5" precision="FP16">
					<dim>1</dim>
					<dim>320</dim>
					<dim>80</dim>
					<dim>80</dim>
				</port>
			</output>
		</layer>
		<layer id="478" name="1661100314150/quantized1713529685" type="Const" version="opset1">
			<data offset="901456" size="51200" shape="160,320,1,1" element_type="i8"/>
			<output>
				<port id="0" precision="I8">
					<dim>160</dim>
					<dim>320</dim>
					<dim>1</dim>
					<dim>1</dim>
				</port>
			</output>
		</layer>
		<layer id="479" name="1661100314150/quantized/to_f16" type="Convert" version="opset1">
			<data destination_type="f16"/>
			<input>
				<port id="0">
					<dim>160</dim>
					<dim>320</dim>
					<dim>1</dim>
					<dim>1</dim>
				</port>
			</input>
			<output>
				<port id="1" precision="FP16">
					<dim>160</dim>
					<dim>320</dim>
					<dim>1</dim>
					<dim>1</dim>
				</port>
			</output>
		</layer>
		<layer id="480" name="Conv_88/WithoutBiases/fq_weights_1/zero_point1715427474" type="Const" version="opset1">
			<data offset="952656" size="320" shape="160,1,1,1" element_type="f16"/>
			<output>
				<port id="0" precision="FP16">
					<dim>160</dim>
					<dim>1</dim>
					<dim>1</dim>
					<dim>1</dim>
				</port>
			</output>
		</layer>
		<layer id="481" name="Conv_88/WithoutBiases/fq_weights_1/minus_zp" type="Subtract" version="opset1">
			<data auto_broadcast="numpy"/>
			<input>
				<port id="0">
					<dim>160</dim>
					<dim>320</dim>
					<dim>1</dim>
					<dim>1</dim>
				</port>
				<port id="1">
					<dim>160</dim>
					<dim>1</dim>
					<dim>1</dim>
					<dim>1</dim>
				</port>
			</input>
			<output>
				<port id="2" precision="FP16">
					<dim>160</dim>
					<dim>320</dim>
					<dim>1</dim>
					<dim>1</dim>
				</port>
			</output>
		</layer>
		<layer id="482" name="Conv_88/WithoutBiases/fq_weights_1/scale1714328701" type="Const" version="opset1">
			<data offset="952976" size="320" shape="160,1,1,1" element_type="f16"/>
			<output>
				<port id="0" precision="FP16">
					<dim>160</dim>
					<dim>1</dim>
					<dim>1</dim>
					<dim>1</dim>
				</port>
			</output>
		</layer>
		<layer id="483" name="Conv_88/WithoutBiases/fq_weights_1/mulpiply_by_scale" type="Multiply" version="opset1">
			<data auto_broadcast="numpy"/>
			<input>
				<port id="0">
					<dim>160</dim>
					<dim>320</dim>
					<dim>1</dim>
					<dim>1</dim>
				</port>
				<port id="1">
					<dim>160</dim>
					<dim>1</dim>
					<dim>1</dim>
					<dim>1</dim>
				</port>
			</input>
			<output>
				<port id="2" precision="FP16">
					<dim>160</dim>
					<dim>320</dim>
					<dim>1</dim>
					<dim>1</dim>
				</port>
			</output>
		</layer>
		<layer id="484" name="Conv_88/WithoutBiases" type="Convolution" version="opset1">
			<data auto_pad="explicit" strides="1,1" dilations="1,1" pads_begin="0,0" pads_end="0,0"/>
			<input>
				<port id="0">
					<dim>1</dim>
					<dim>320</dim>
					<dim>80</dim>
					<dim>80</dim>
				</port>
				<port id="1">
					<dim>160</dim>
					<dim>320</dim>
					<dim>1</dim>
					<dim>1</dim>
				</port>
			</input>
			<output>
				<port id="2" precision="FP16">
					<dim>1</dim>
					<dim>160</dim>
					<dim>80</dim>
					<dim>80</dim>
				</port>
			</output>
		</layer>
		<layer id="485" name="Conv_88/Dims7152100528917" type="Const" version="opset1">
			<data offset="953296" size="320" shape="1,160,1,1" element_type="f16"/>
			<output>
				<port id="0" precision="FP16">
					<dim>1</dim>
					<dim>160</dim>
					<dim>1</dim>
					<dim>1</dim>
				</port>
			</output>
		</layer>
		<layer id="486" name="Conv_88" type="Add" version="opset1">
			<data auto_broadcast="numpy"/>
			<input>
				<port id="0">
					<dim>1</dim>
					<dim>160</dim>
					<dim>80</dim>
					<dim>80</dim>
				</port>
				<port id="1">
					<dim>1</dim>
					<dim>160</dim>
					<dim>1</dim>
					<dim>1</dim>
				</port>
			</input>
			<output>
				<port id="2" precision="FP16" names="1660">
					<dim>1</dim>
					<dim>160</dim>
					<dim>80</dim>
					<dim>80</dim>
				</port>
			</output>
		</layer>
		<layer id="487" name="Mul_90" type="Swish" version="opset4">
			<input>
				<port id="0">
					<dim>1</dim>
					<dim>160</dim>
					<dim>80</dim>
					<dim>80</dim>
				</port>
			</input>
			<output>
				<port id="1" precision="FP16" names="1000">
					<dim>1</dim>
					<dim>160</dim>
					<dim>80</dim>
					<dim>80</dim>
				</port>
			</output>
		</layer>
		<layer id="488" name="Add_100/fq_input_1" type="FakeQuantize" version="opset1">
			<data levels="256" auto_broadcast="numpy"/>
			<input>
				<port id="0">
					<dim>1</dim>
					<dim>160</dim>
					<dim>80</dim>
					<dim>80</dim>
				</port>
				<port id="1"/>
				<port id="2"/>
				<port id="3"/>
				<port id="4"/>
			</input>
			<output>
				<port id="5" precision="FP16">
					<dim>1</dim>
					<dim>160</dim>
					<dim>80</dim>
					<dim>80</dim>
				</port>
			</output>
		</layer>
		<layer id="489" name="1667100814152/quantized1860528770" type="Const" version="opset1">
			<data offset="953616" size="25600" shape="160,160,1,1" element_type="i8"/>
			<output>
				<port id="0" precision="I8">
					<dim>160</dim>
					<dim>160</dim>
					<dim>1</dim>
					<dim>1</dim>
				</port>
			</output>
		</layer>
		<layer id="490" name="1667100814152/quantized/to_f16" type="Convert" version="opset1">
			<data destination_type="f16"/>
			<input>
				<port id="0">
					<dim>160</dim>
					<dim>160</dim>
					<dim>1</dim>
					<dim>1</dim>
				</port>
			</input>
			<output>
				<port id="1" precision="FP16">
					<dim>160</dim>
					<dim>160</dim>
					<dim>1</dim>
					<dim>1</dim>
				</port>
			</output>
		</layer>
		<layer id="491" name="Conv_94/WithoutBiases/fq_weights_1/zero_point1862429091" type="Const" version="opset1">
			<data offset="979216" size="320" shape="160,1,1,1" element_type="f16"/>
			<output>
				<port id="0" precision="FP16">
					<dim>160</dim>
					<dim>1</dim>
					<dim>1</dim>
					<dim>1</dim>
				</port>
			</output>
		</layer>
		<layer id="492" name="Conv_94/WithoutBiases/fq_weights_1/minus_zp" type="Subtract" version="opset1">
			<data auto_broadcast="numpy"/>
			<input>
				<port id="0">
					<dim>160</dim>
					<dim>160</dim>
					<dim>1</dim>
					<dim>1</dim>
				</port>
				<port id="1">
					<dim>160</dim>
					<dim>1</dim>
					<dim>1</dim>
					<dim>1</dim>
				</port>
			</input>
			<output>
				<port id="2" precision="FP16">
					<dim>160</dim>
					<dim>160</dim>
					<dim>1</dim>
					<dim>1</dim>
				</port>
			</output>
		</layer>
		<layer id="493" name="Conv_94/WithoutBiases/fq_weights_1/scale1861326715" type="Const" version="opset1">
			<data offset="979536" size="320" shape="160,1,1,1" element_type="f16"/>
			<output>
				<port id="0" precision="FP16">
					<dim>160</dim>
					<dim>1</dim>
					<dim>1</dim>
					<dim>1</dim>
				</port>
			</output>
		</layer>
		<layer id="494" name="Conv_94/WithoutBiases/fq_weights_1/mulpiply_by_scale" type="Multiply" version="opset1">
			<data auto_broadcast="numpy"/>
			<input>
				<port id="0">
					<dim>160</dim>
					<dim>160</dim>
					<dim>1</dim>
					<dim>1</dim>
				</port>
				<port id="1">
					<dim>160</dim>
					<dim>1</dim>
					<dim>1</dim>
					<dim>1</dim>
				</port>
			</input>
			<output>
				<port id="2" precision="FP16">
					<dim>160</dim>
					<dim>160</dim>
					<dim>1</dim>
					<dim>1</dim>
				</port>
			</output>
		</layer>
		<layer id="495" name="Conv_94/WithoutBiases" type="Convolution" version="opset1">
			<data auto_pad="explicit" strides="1,1" dilations="1,1" pads_begin="0,0" pads_end="0,0"/>
			<input>
				<port id="0">
					<dim>1</dim>
					<dim>160</dim>
					<dim>80</dim>
					<dim>80</dim>
				</port>
				<port id="1">
					<dim>160</dim>
					<dim>160</dim>
					<dim>1</dim>
					<dim>1</dim>
				</port>
			</input>
			<output>
				<port id="2" precision="FP16">
					<dim>1</dim>
					<dim>160</dim>
					<dim>80</dim>
					<dim>80</dim>
				</port>
			</output>
		</layer>
		<layer id="496" name="Conv_94/Dims7392101027087" type="Const" version="opset1">
			<data offset="979856" size="320" shape="1,160,1,1" element_type="f16"/>
			<output>
				<port id="0" precision="FP16">
					<dim>1</dim>
					<dim>160</dim>
					<dim>1</dim>
					<dim>1</dim>
				</port>
			</output>
		</layer>
		<layer id="497" name="Conv_94" type="Add" version="opset1">
			<data auto_broadcast="numpy"/>
			<input>
				<port id="0">
					<dim>1</dim>
					<dim>160</dim>
					<dim>80</dim>
					<dim>80</dim>
				</port>
				<port id="1">
					<dim>1</dim>
					<dim>160</dim>
					<dim>1</dim>
					<dim>1</dim>
				</port>
			</input>
			<output>
				<port id="2" precision="FP16" names="1666">
					<dim>1</dim>
					<dim>160</dim>
					<dim>80</dim>
					<dim>80</dim>
				</port>
			</output>
		</layer>
		<layer id="498" name="Mul_96" type="Swish" version="opset4">
			<input>
				<port id="0">
					<dim>1</dim>
					<dim>160</dim>
					<dim>80</dim>
					<dim>80</dim>
				</port>
			</input>
			<output>
				<port id="1" precision="FP16" names="1008">
					<dim>1</dim>
					<dim>160</dim>
					<dim>80</dim>
					<dim>80</dim>
				</port>
			</output>
		</layer>
		<layer id="499" name="Conv_97/WithoutBiases/fq_input_0" type="FakeQuantize" version="opset1">
			<data levels="256" auto_broadcast="numpy"/>
			<input>
				<port id="0">
					<dim>1</dim>
					<dim>160</dim>
					<dim>80</dim>
					<dim>80</dim>
				</port>
				<port id="1"/>
				<port id="2"/>
				<port id="3"/>
				<port id="4"/>
			</input>
			<output>
				<port id="5" precision="FP16">
					<dim>1</dim>
					<dim>160</dim>
					<dim>80</dim>
					<dim>80</dim>
				</port>
			</output>
		</layer>
		<layer id="500" name="1670101314154/quantized1629528803" type="Const" version="opset1">
			<data offset="980176" size="230400" shape="160,160,3,3" element_type="i8"/>
			<output>
				<port id="0" precision="I8">
					<dim>160</dim>
					<dim>160</dim>
					<dim>3</dim>
					<dim>3</dim>
				</port>
			</output>
		</layer>
		<layer id="501" name="1670101314154/quantized/to_f16" type="Convert" version="opset1">
			<data destination_type="f16"/>
			<input>
				<port id="0">
					<dim>160</dim>
					<dim>160</dim>
					<dim>3</dim>
					<dim>3</dim>
				</port>
			</input>
			<output>
				<port id="1" precision="FP16">
					<dim>160</dim>
					<dim>160</dim>
…
		<edge from-layer="4" from-port="0" to-layer="1897" to-port="1"/>
		<edge from-layer="5" from-port="0" to-layer="1897" to-port="2"/>
		<edge from-layer="6" from-port="0" to-layer="1897" to-port="3"/>
		<edge from-layer="7" from-port="0" to-layer="1897" to-port="4"/>
		<edge from-layer="1898" from-port="0" to-layer="1899" to-port="0"/>
		<edge from-layer="1899" from-port="1" to-layer="1901" to-port="0"/>
		<edge from-layer="1900" from-port="0" to-layer="1901" to-port="1"/>
		<edge from-layer="1901" from-port="2" to-layer="1903" to-port="0"/>
		<edge from-layer="1902" from-port="0" to-layer="1903" to-port="1"/>
		<edge from-layer="1897" from-port="5" to-layer="1904" to-port="0"/>
		<edge from-layer="1903" from-port="2" to-layer="1904" to-port="1"/>
		<edge from-layer="1904" from-port="2" to-layer="1906" to-port="0"/>
		<edge from-layer="1905" from-port="0" to-layer="1906" to-port="1"/>
		<edge from-layer="1906" from-port="2" to-layer="1907" to-port="0"/>
		<edge from-layer="1907" from-port="1" to-layer="1908" to-port="0"/>
		<edge from-layer="0" from-port="0" to-layer="1908" to-port="1"/>
		<edge from-layer="1" from-port="0" to-layer="1908" to-port="2"/>
		<edge from-layer="2" from-port="0" to-layer="1908" to-port="3"/>
		<edge from-layer="3" from-port="0" to-layer="1908" to-port="4"/>
		<edge from-layer="1909" from-port="0" to-layer="1910" to-port="0"/>
		<edge from-layer="1910" from-port="1" to-layer="1912" to-port="0"/>
		<edge from-layer="1911" from-port="0" to-layer="1912" to-port="1"/>
		<edge from-layer="1912" from-port="2" to-layer="1914" to-port="0"/>
		<edge from-layer="1913" from-port="0" to-layer="1914" to-port="1"/>
		<edge from-layer="1908" from-port="5" to-layer="1915" to-port="0"/>
		<edge from-layer="1914" from-port="2" to-layer="1915" to-port="1"/>
		<edge from-layer="1915" from-port="2" to-layer="1917" to-port="0"/>
		<edge from-layer="1916" from-port="0" to-layer="1917" to-port="1"/>
		<edge from-layer="1918" from-port="0" to-layer="1919" to-port="0"/>
		<edge from-layer="1919" from-port="1" to-layer="1921" to-port="0"/>
		<edge from-layer="1920" from-port="0" to-layer="1921" to-port="1"/>
		<edge from-layer="1921" from-port="2" to-layer="1923" to-port="0"/>
		<edge from-layer="1922" from-port="0" to-layer="1923" to-port="1"/>
		<edge from-layer="1908" from-port="5" to-layer="1924" to-port="0"/>
		<edge from-layer="1923" from-port="2" to-layer="1924" to-port="1"/>
		<edge from-layer="1924" from-port="2" to-layer="1926" to-port="0"/>
		<edge from-layer="1925" from-port="0" to-layer="1926" to-port="1"/>
		<edge from-layer="1926" from-port="2" to-layer="1927" to-port="0"/>
		<edge from-layer="1936" from-port="0" to-layer="1937" to-port="0"/>
		<edge from-layer="1937" from-port="1" to-layer="1939" to-port="0"/>
		<edge from-layer="1938" from-port="0" to-layer="1939" to-port="1"/>
		<edge from-layer="1939" from-port="2" to-layer="1941" to-port="0"/>
		<edge from-layer="1940" from-port="0" to-layer="1941" to-port="1"/>
		<edge from-layer="1886" from-port="5" to-layer="1942" to-port="0"/>
		<edge from-layer="1941" from-port="2" to-layer="1942" to-port="1"/>
		<edge from-layer="1942" from-port="2" to-layer="1944" to-port="0"/>
		<edge from-layer="1943" from-port="0" to-layer="1944" to-port="1"/>
		<edge from-layer="1944" from-port="2" to-layer="1945" to-port="0"/>
		<edge from-layer="1945" from-port="1" to-layer="1946" to-port="0"/>
		<edge from-layer="1932" from-port="0" to-layer="1946" to-port="1"/>
		<edge from-layer="1933" from-port="0" to-layer="1946" to-port="2"/>
		<edge from-layer="1934" from-port="0" to-layer="1946" to-port="3"/>
		<edge from-layer="1935" from-port="0" to-layer="1946" to-port="4"/>
		<edge from-layer="1947" from-port="0" to-layer="1948" to-port="0"/>
		<edge from-layer="1948" from-port="1" to-layer="1950" to-port="0"/>
		<edge from-layer="1949" from-port="0" to-layer="1950" to-port="1"/>
		<edge from-layer="1950" from-port="2" to-layer="1952" to-port="0"/>
		<edge from-layer="1951" from-port="0" to-layer="1952" to-port="1"/>
		<edge from-layer="1946" from-port="5" to-layer="1953" to-port="0"/>
		<edge from-layer="1952" from-port="2" to-layer="1953" to-port="1"/>
		<edge from-layer="1953" from-port="2" to-layer="1955" to-port="0"/>
		<edge from-layer="1954" from-port="0" to-layer="1955" to-port="1"/>
		<edge from-layer="1955" from-port="2" to-layer="1956" to-port="0"/>
		<edge from-layer="1956" from-port="1" to-layer="1957" to-port="0"/>
		<edge from-layer="1928" from-port="0" to-layer="1957" to-port="1"/>
		<edge from-layer="1929" from-port="0" to-layer="1957" to-port="2"/>
		<edge from-layer="1930" from-port="0" to-layer="1957" to-port="3"/>
		<edge from-layer="1931" from-port="0" to-layer="1957" to-port="4"/>
		<edge from-layer="1958" from-port="0" to-layer="1959" to-port="0"/>
		<edge from-layer="1959" from-port="1" to-layer="1961" to-port="0"/>
		<edge from-layer="1960" from-port="0" to-layer="1961" to-port="1"/>
		<edge from-layer="1961" from-port="2" to-layer="1963" to-port="0"/>
		<edge from-layer="1962" from-port="0" to-layer="1963" to-port="1"/>
		<edge from-layer="1957" from-port="5" to-layer="1964" to-port="0"/>
		<edge from-layer="1963" from-port="2" to-layer="1964" to-port="1"/>
		<edge from-layer="1964" from-port="2" to-layer="1966" to-port="0"/>
		<edge from-layer="1965" from-port="0" to-layer="1966" to-port="1"/>
		<edge from-layer="1966" from-port="2" to-layer="1967" to-port="0"/>
		<edge from-layer="1917" from-port="2" to-layer="1968" to-port="0"/>
		<edge from-layer="1927" from-port="1" to-layer="1968" to-port="1"/>
		<edge from-layer="1967" from-port="1" to-layer="1968" to-port="2"/>
		<edge from-layer="1968" from-port="3" to-layer="1970" to-port="0"/>
		<edge from-layer="1969" from-port="0" to-layer="1970" to-port="1"/>
		<edge from-layer="2027" from-port="0" to-layer="2028" to-port="0"/>
		<edge from-layer="2028" from-port="1" to-layer="2030" to-port="0"/>
		<edge from-layer="2029" from-port="0" to-layer="2030" to-port="1"/>
		<edge from-layer="2030" from-port="2" to-layer="2032" to-port="0"/>
		<edge from-layer="2031" from-port="0" to-layer="2032" to-port="1"/>
		<edge from-layer="1875" from-port="5" to-layer="2033" to-port="0"/>
		<edge from-layer="2032" from-port="2" to-layer="2033" to-port="1"/>
		<edge from-layer="2033" from-port="2" to-layer="2035" to-port="0"/>
		<edge from-layer="2034" from-port="0" to-layer="2035" to-port="1"/>
		<edge from-layer="2035" from-port="2" to-layer="2036" to-port="0"/>
		<edge from-layer="2036" from-port="1" to-layer="2037" to-port="0"/>
		<edge from-layer="2023" from-port="0" to-layer="2037" to-port="1"/>
		<edge from-layer="2024" from-port="0" to-layer="2037" to-port="2"/>
		<edge from-layer="2025" from-port="0" to-layer="2037" to-port="3"/>
		<edge from-layer="2026" from-port="0" to-layer="2037" to-port="4"/>
		<edge from-layer="2037" from-port="5" to-layer="2038" to-port="0"/>
		<edge from-layer="1734" from-port="5" to-layer="2038" to-port="1"/>
		<edge from-layer="2039" from-port="0" to-layer="2040" to-port="0"/>
		<edge from-layer="2040" from-port="1" to-layer="2042" to-port="0"/>
		<edge from-layer="2041" from-port="0" to-layer="2042" to-port="1"/>
		<edge from-layer="2042" from-port="2" to-layer="2044" to-port="0"/>
		<edge from-layer="2043" from-port="0" to-layer="2044" to-port="1"/>
		<edge from-layer="2038" from-port="2" to-layer="2045" to-port="0"/>
		<edge from-layer="2044" from-port="2" to-layer="2045" to-port="1"/>
		<edge from-layer="2045" from-port="2" to-layer="2047" to-port="0"/>
		<edge from-layer="2046" from-port="0" to-layer="2047" to-port="1"/>
		<edge from-layer="2047" from-port="2" to-layer="2048" to-port="0"/>
		<edge from-layer="2048" from-port="1" to-layer="2049" to-port="0"/>
		<edge from-layer="2019" from-port="0" to-layer="2049" to-port="1"/>
		<edge from-layer="2020" from-port="0" to-layer="2049" to-port="2"/>
		<edge from-layer="2021" from-port="0" to-layer="2049" to-port="3"/>
		<edge from-layer="2022" from-port="0" to-layer="2049" to-port="4"/>
		<edge from-layer="2050" from-port="0" to-layer="2051" to-port="0"/>
		<edge from-layer="2051" from-port="1" to-layer="2053" to-port="0"/>
		<edge from-layer="2052" from-port="0" to-layer="2053" to-port="1"/>
		<edge from-layer="2053" from-port="2" to-layer="2055" to-port="0"/>
		<edge from-layer="2054" from-port="0" to-layer="2055" to-port="1"/>
		<edge from-layer="2049" from-port="5" to-layer="2056" to-port="0"/>
		<edge from-layer="2055" from-port="2" to-layer="2056" to-port="1"/>
		<edge from-layer="2056" from-port="2" to-layer="2058" to-port="0"/>
		<edge from-layer="2057" from-port="0" to-layer="2058" to-port="1"/>
		<edge from-layer="2058" from-port="2" to-layer="2059" to-port="0"/>
		<edge from-layer="2059" from-port="1" to-layer="2060" to-port="0"/>
		<edge from-layer="2015" from-port="0" to-layer="2060" to-port="1"/>
		<edge from-layer="2016" from-port="0" to-layer="2060" to-port="2"/>
		<edge from-layer="2017" from-port="0" to-layer="2060" to-port="3"/>
		<edge from-layer="2018" from-port="0" to-layer="2060" to-port="4"/>
		<edge from-layer="2061" from-port="0" to-layer="2062" to-port="0"/>
		<edge from-layer="2062" from-port="1" to-layer="2064" to-port="0"/>
		<edge from-layer="2063" from-port="0" to-layer="2064" to-port="1"/>
		<edge from-layer="2064" from-port="2" to-layer="2066" to-port="0"/>
		<edge from-layer="2065" from-port="0" to-layer="2066" to-port="1"/>
		<edge from-layer="2060" from-port="5" to-layer="2067" to-port="0"/>
		<edge from-layer="2066" from-port="2" to-layer="2067" to-port="1"/>
		<edge from-layer="2067" from-port="2" to-layer="2069" to-port="0"/>
		<edge from-layer="2068" from-port="0" to-layer="2069" to-port="1"/>
		<edge from-layer="2069" from-port="2" to-layer="2070" to-port="0"/>
		<edge from-layer="2070" from-port="1" to-layer="2071" to-port="0"/>
		<edge from-layer="2011" from-port="0" to-layer="2071" to-port="1"/>
		<edge from-layer="2012" from-port="0" to-layer="2071" to-port="2"/>
		<edge from-layer="2013" from-port="0" to-layer="2071" to-port="3"/>
		<edge from-layer="2014" from-port="0" to-layer="2071" to-port="4"/>
		<edge from-layer="2072" from-port="0" to-layer="2073" to-port="0"/>
		<edge from-layer="2073" from-port="1" to-layer="2075" to-port="0"/>
		<edge from-layer="2074" from-port="0" to-layer="2075" to-port="1"/>
		<edge from-layer="2075" from-port="2" to-layer="2077" to-port="0"/>
		<edge from-layer="2076" from-port="0" to-layer="2077" to-port="1"/>
		<edge from-layer="2071" from-port="5" to-layer="2078" to-port="0"/>
		<edge from-layer="2077" from-port="2" to-layer="2078" to-port="1"/>
		<edge from-layer="2078" from-port="2" to-layer="2080" to-port="0"/>
		<edge from-layer="2079" from-port="0" to-layer="2080" to-port="1"/>
		<edge from-layer="2080" from-port="2" to-layer="2081" to-port="0"/>
		<edge from-layer="2081" from-port="1" to-layer="2082" to-port="0"/>
		<edge from-layer="2007" from-port="0" to-layer="2082" to-port="1"/>
		<edge from-layer="2008" from-port="0" to-layer="2082" to-port="2"/>
		<edge from-layer="2009" from-port="0" to-layer="2082" to-port="3"/>
		<edge from-layer="2010" from-port="0" to-layer="2082" to-port="4"/>
		<edge from-layer="2083" from-port="0" to-layer="2084" to-port="0"/>
		<edge from-layer="2084" from-port="1" to-layer="2086" to-port="0"/>
		<edge from-layer="2085" from-port="0" to-layer="2086" to-port="1"/>
		<edge from-layer="2086" from-port="2" to-layer="2088" to-port="0"/>
		<edge from-layer="2087" from-port="0" to-layer="2088" to-port="1"/>
		<edge from-layer="2082" from-port="5" to-layer="2089" to-port="0"/>
		<edge from-layer="2088" from-port="2" to-layer="2089" to-port="1"/>
		<edge from-layer="2089" from-port="2" to-layer="2091" to-port="0"/>
		<edge from-layer="2090" from-port="0" to-layer="2091" to-port="1"/>
		<edge from-layer="2091" from-port="2" to-layer="2092" to-port="0"/>
		<edge from-layer="2092" from-port="1" to-layer="2093" to-port="0"/>
		<edge from-layer="2003" from-port="0" to-layer="2093" to-port="1"/>
		<edge from-layer="2004" from-port="0" to-layer="2093" to-port="2"/>
		<edge from-layer="2005" from-port="0" to-layer="2093" to-port="3"/>
		<edge from-layer="2006" from-port="0" to-layer="2093" to-port="4"/>
		<edge from-layer="2094" from-port="0" to-layer="2095" to-port="0"/>
		<edge from-layer="2095" from-port="1" to-layer="2097" to-port="0"/>
		<edge from-layer="2096" from-port="0" to-layer="2097" to-port="1"/>
		<edge from-layer="2097" from-port="2" to-layer="2099" to-port="0"/>
		<edge from-layer="2098" from-port="0" to-layer="2099" to-port="1"/>
		<edge from-layer="2093" from-port="5" to-layer="2100" to-port="0"/>
		<edge from-layer="2099" from-port="2" to-layer="2100" to-port="1"/>
		<edge from-layer="2100" from-port="2" to-layer="2102" to-port="0"/>
		<edge from-layer="2101" from-port="0" to-layer="2102" to-port="1"/>
		<edge from-layer="2102" from-port="2" to-layer="2103" to-port="0"/>
		<edge from-layer="2103" from-port="1" to-layer="2104" to-port="0"/>
		<edge from-layer="1999" from-port="0" to-layer="2104" to-port="1"/>
		<edge from-layer="2000" from-port="0" to-layer="2104" to-port="2"/>
		<edge from-layer="2001" from-port="0" to-layer="2104" to-port="3"/>
		<edge from-layer="2002" from-port="0" to-layer="2104" to-port="4"/>
		<edge from-layer="2105" from-port="0" to-layer="2106" to-port="0"/>
		<edge from-layer="2106" from-port="1" to-layer="2108" to-port="0"/>
		<edge from-layer="2107" from-port="0" to-layer="2108" to-port="1"/>
		<edge from-layer="2108" from-port="2" to-layer="2110" to-port="0"/>
		<edge from-layer="2109" from-port="0" to-layer="2110" to-port="1"/>
		<edge from-layer="2104" from-port="5" to-layer="2111" to-port="0"/>
		<edge from-layer="2110" from-port="2" to-layer="2111" to-port="1"/>
		<edge from-layer="2111" from-port="2" to-layer="2113" to-port="0"/>
		<edge from-layer="2112" from-port="0" to-layer="2113" to-port="1"/>
		<edge from-layer="2113" from-port="2" to-layer="2114" to-port="0"/>
		<edge from-layer="2114" from-port="1" to-layer="2115" to-port="0"/>
		<edge from-layer="1995" from-port="0" to-layer="2115" to-port="1"/>
		<edge from-layer="1996" from-port="0" to-layer="2115" to-port="2"/>
		<edge from-layer="1997" from-port="0" to-layer="2115" to-port="3"/>
		<edge from-layer="1998" from-port="0" to-layer="2115" to-port="4"/>
		<edge from-layer="2116" from-port="0" to-layer="2117" to-port="0"/>
		<edge from-layer="2117" from-port="1" to-layer="2119" to-port="0"/>
		<edge from-layer="2118" from-port="0" to-layer="2119" to-port="1"/>
		<edge from-layer="2119" from-port="2" to-layer="2121" to-port="0"/>
		<edge from-layer="2120" from-port="0" to-layer="2121" to-port="1"/>
		<edge from-layer="2115" from-port="5" to-layer="2122" to-port="0"/>
		<edge from-layer="2121" from-port="2" to-layer="2122" to-port="1"/>
		<edge from-layer="2122" from-port="2" to-layer="2124" to-port="0"/>
		<edge from-layer="2123" from-port="0" to-layer="2124" to-port="1"/>
		<edge from-layer="2124" from-port="2" to-layer="2125" to-port="0"/>
		<edge from-layer="2125" from-port="1" to-layer="2126" to-port="0"/>
		<edge from-layer="1991" from-port="0" to-layer="2126" to-port="1"/>
		<edge from-layer="1992" from-port="0" to-layer="2126" to-port="2"/>
		<edge from-layer="1993" from-port="0" to-layer="2126" to-port="3"/>
		<edge from-layer="1994" from-port="0" to-layer="2126" to-port="4"/>
		<edge from-layer="2127" from-port="0" to-layer="2128" to-port="0"/>
		<edge from-layer="2128" from-port="1" to-layer="2130" to-port="0"/>
		<edge from-layer="2129" from-port="0" to-layer="2130" to-port="1"/>
		<edge from-layer="2130" from-port="2" to-layer="2132" to-port="0"/>
		<edge from-layer="2131" from-port="0" to-layer="2132" to-port="1"/>
		<edge from-layer="2126" from-port="5" to-layer="2133" to-port="0"/>
		<edge from-layer="2132" from-port="2" to-layer="2133" to-port="1"/>
		<edge from-layer="2133" from-port="2" to-layer="2135" to-port="0"/>
		<edge from-layer="2134" from-port="0" to-layer="2135" to-port="1"/>
		<edge from-layer="2135" from-port="2" to-layer="2136" to-port="0"/>
		<edge from-layer="2136" from-port="1" to-layer="2137" to-port="0"/>
		<edge from-layer="1987" from-port="0" to-layer="2137" to-port="1"/>
		<edge from-layer="1988" from-port="0" to-layer="2137" to-port="2"/>
		<edge from-layer="1989" from-port="0" to-layer="2137" to-port="3"/>
		<edge from-layer="1990" from-port="0" to-layer="2137" to-port="4"/>
		<edge from-layer="2142" from-port="0" to-layer="2143" to-port="0"/>
		<edge from-layer="2143" from-port="1" to-layer="2145" to-port="0"/>
		<edge from-layer="2144" from-port="0" to-layer="2145" to-port="1"/>
		<edge from-layer="2145" from-port="2" to-layer="2147" to-port="0"/>
		<edge from-layer="2146" from-port="0" to-layer="2147" to-port="1"/>
		<edge from-layer="2038" from-port="2" to-layer="2148" to-port="0"/>
		<edge from-layer="2147" from-port="2" to-layer="2148" to-port="1"/>
		<edge from-layer="2148" from-port="2" to-layer="2150" to-port="0"/>
		<edge from-layer="2149" from-port="0" to-layer="2150" to-port="1"/>
		<edge from-layer="2150" from-port="2" to-layer="2151" to-port="0"/>
		<edge from-layer="2151" from-port="1" to-layer="2152" to-port="0"/>
		<edge from-layer="2138" from-port="0" to-layer="2152" to-port="1"/>
		<edge from-layer="2139" from-port="0" to-layer="2152" to-port="2"/>
		<edge from-layer="2140" from-port="0" to-layer="2152" to-port="3"/>
		<edge from-layer="2141" from-port="0" to-layer="2152" to-port="4"/>
		<edge from-layer="2137" from-port="5" to-layer="2153" to-port="0"/>
		<edge from-layer="2152" from-port="5" to-layer="2153" to-port="1"/>
		<edge from-layer="2154" from-port="0" to-layer="2155" to-port="0"/>
		<edge from-layer="2155" from-port="1" to-layer="2157" to-port="0"/>
		<edge from-layer="2156" from-port="0" to-layer="2157" to-port="1"/>
		<edge from-layer="2157" from-port="2" to-layer="2159" to-port="0"/>
		<edge from-layer="2158" from-port="0" to-layer="2159" to-port="1"/>
		<edge from-layer="2153" from-port="2" to-layer="2160" to-port="0"/>
		<edge from-layer="2159" from-port="2" to-layer="2160" to-port="1"/>
		<edge from-layer="2160" from-port="2" to-layer="2162" to-port="0"/>
		<edge from-layer="2161" from-port="0" to-layer="2162" to-port="1"/>
		<edge from-layer="2162" from-port="2" to-layer="2163" to-port="0"/>
		<edge from-layer="2163" from-port="1" to-layer="2164" to-port="0"/>
		<edge from-layer="1983" from-port="0" to-layer="2164" to-port="1"/>
		<edge from-layer="1984" from-port="0" to-layer="2164" to-port="2"/>
		<edge from-layer="1985" from-port="0" to-layer="2164" to-port="3"/>
		<edge from-layer="1986" from-port="0" to-layer="2164" to-port="4"/>
		<edge from-layer="2165" from-port="0" to-layer="2166" to-port="0"/>
		<edge from-layer="2166" from-port="1" to-layer="2168" to-port="0"/>
		<edge from-layer="2167" from-port="0" to-layer="2168" to-port="1"/>
		<edge from-layer="2168" from-port="2" to-layer="2170" to-port="0"/>
		<edge from-layer="2169" from-port="0" to-layer="2170" to-port="1"/>
		<edge from-layer="2164" from-port="5" to-layer="2171" to-port="0"/>
		<edge from-layer="2170" from-port="2" to-layer="2171" to-port="1"/>
		<edge from-layer="2171" from-port="2" to-layer="2173" to-port="0"/>
		<edge from-layer="2172" from-port="0" to-layer="2173" to-port="1"/>
		<edge from-layer="2173" from-port="2" to-layer="2174" to-port="0"/>
		<edge from-layer="2174" from-port="1" to-layer="2175" to-port="0"/>
		<edge from-layer="1979" from-port="0" to-layer="2175" to-port="1"/>
		<edge from-layer="1980" from-port="0" to-layer="2175" to-port="2"/>
		<edge from-layer="1981" from-port="0" to-layer="2175" to-port="3"/>
		<edge from-layer="1982" from-port="0" to-layer="2175" to-port="4"/>
		<edge from-layer="2176" from-port="0" to-layer="2177" to-port="0"/>
		<edge from-layer="2177" from-port="1" to-layer="2179" to-port="0"/>
		<edge from-layer="2178" from-port="0" to-layer="2179" to-port="1"/>
		<edge from-layer="2179" from-port="2" to-layer="2181" to-port="0"/>
		<edge from-layer="2180" from-port="0" to-layer="2181" to-port="1"/>
		<edge from-layer="2175" from-port="5" to-layer="2182" to-port="0"/>
		<edge from-layer="2181" from-port="2" to-layer="2182" to-port="1"/>
		<edge from-layer="2182" from-port="2" to-layer="2184" to-port="0"/>
		<edge from-layer="2183" from-port="0" to-layer="2184" to-port="1"/>
		<edge from-layer="2184" from-port="2" to-layer="2185" to-port="0"/>
		<edge from-layer="2185" from-port="1" to-layer="2186" to-port="0"/>
		<edge from-layer="1975" from-port="0" to-layer="2186" to-port="1"/>
		<edge from-layer="1976" from-port="0" to-layer="2186" to-port="2"/>
		<edge from-layer="1977" from-port="0" to-layer="2186" to-port="3"/>
		<edge from-layer="1978" from-port="0" to-layer="2186" to-port="4"/>
		<edge from-layer="2187" from-port="0" to-layer="2188" to-port="0"/>
		<edge from-layer="2188" from-port="1" to-layer="2190" to-port="0"/>
		<edge from-layer="2189" from-port="0" to-layer="2190" to-port="1"/>
		<edge from-layer="2190" from-port="2" to-layer="2192" to-port="0"/>
		<edge from-layer="2191" from-port="0" to-layer="2192" to-port="1"/>
		<edge from-layer="2186" from-port="5" to-layer="2193" to-port="0"/>
		<edge from-layer="2192" from-port="2" to-layer="2193" to-port="1"/>
		<edge from-layer="2193" from-port="2" to-layer="2195" to-port="0"/>
		<edge from-layer="2194" from-port="0" to-layer="2195" to-port="1"/>
		<edge from-layer="2195" from-port="2" to-layer="2196" to-port="0"/>
		<edge from-layer="2196" from-port="1" to-layer="2197" to-port="0"/>
		<edge from-layer="1971" from-port="0" to-layer="2197" to-port="1"/>
		<edge from-layer="1972" from-port="0" to-layer="2197" to-port="2"/>
		<edge from-layer="1973" from-port="0" to-layer="2197" to-port="3"/>
		<edge from-layer="1974" from-port="0" to-layer="2197" to-port="4"/>
		<edge from-layer="2198" from-port="0" to-layer="2199" to-port="0"/>
		<edge from-layer="2199" from-port="1" to-layer="2201" to-port="0"/>
		<edge from-layer="2200" from-port="0" to-layer="2201" to-port="1"/>
		<edge from-layer="2201" from-port="2" to-layer="2203" to-port="0"/>
		<edge from-layer="2202" from-port="0" to-layer="2203" to-port="1"/>
		<edge from-layer="2197" from-port="5" to-layer="2204" to-port="0"/>
		<edge from-layer="2203" from-port="2" to-layer="2204" to-port="1"/>
		<edge from-layer="2204" from-port="2" to-layer="2206" to-port="0"/>
		<edge from-layer="2205" from-port="0" to-layer="2206" to-port="1"/>
		<edge from-layer="2207" from-port="0" to-layer="2208" to-port="0"/>
		<edge from-layer="2208" from-port="1" to-layer="2210" to-port="0"/>
		<edge from-layer="2209" from-port="0" to-layer="2210" to-port="1"/>
		<edge from-layer="2210" from-port="2" to-layer="2212" to-port="0"/>
		<edge from-layer="2211" from-port="0" to-layer="2212" to-port="1"/>
		<edge from-layer="2197" from-port="5" to-layer="2213" to-port="0"/>
		<edge from-layer="2212" from-port="2" to-layer="2213" to-port="1"/>
		<edge from-layer="2213" from-port="2" to-layer="2215" to-port="0"/>
		<edge from-layer="2214" from-port="0" to-layer="2215" to-port="1"/>
		<edge from-layer="2215" from-port="2" to-layer="2216" to-port="0"/>
		<edge from-layer="2225" from-port="0" to-layer="2226" to-port="0"/>
		<edge from-layer="2226" from-port="1" to-layer="2228" to-port="0"/>
		<edge from-layer="2227" from-port="0" to-layer="2228" to-port="1"/>
		<edge from-layer="2228" from-port="2" to-layer="2230" to-port="0"/>
		<edge from-layer="2229" from-port="0" to-layer="2230" to-port="1"/>
		<edge from-layer="2175" from-port="5" to-layer="2231" to-port="0"/>
		<edge from-layer="2230" from-port="2" to-layer="2231" to-port="1"/>
		<edge from-layer="2231" from-port="2" to-layer="2233" to-port="0"/>
		<edge from-layer="2232" from-port="0" to-layer="2233" to-port="1"/>
		<edge from-layer="2233" from-port="2" to-layer="2234" to-port="0"/>
		<edge from-layer="2234" from-port="1" to-layer="2235" to-port="0"/>
		<edge from-layer="2221" from-port="0" to-layer="2235" to-port="1"/>
		<edge from-layer="2222" from-port="0" to-layer="2235" to-port="2"/>
		<edge from-layer="2223" from-port="0" to-layer="2235" to-port="3"/>
		<edge from-layer="2224" from-port="0" to-layer="2235" to-port="4"/>
		<edge from-layer="2236" from-port="0" to-layer="2237" to-port="0"/>
		<edge from-layer="2237" from-port="1" to-layer="2239" to-port="0"/>
		<edge from-layer="2238" from-port="0" to-layer="2239" to-port="1"/>
		<edge from-layer="2239" from-port="2" to-layer="2241" to-port="0"/>
		<edge from-layer="2240" from-port="0" to-layer="2241" to-port="1"/>
		<edge from-layer="2235" from-port="5" to-layer="2242" to-port="0"/>
		<edge from-layer="2241" from-port="2" to-layer="2242" to-port="1"/>
		<edge from-layer="2242" from-port="2" to-layer="2244" to-port="0"/>
		<edge from-layer="2243" from-port="0" to-layer="2244" to-port="1"/>
		<edge from-layer="2244" from-port="2" to-layer="2245" to-port="0"/>
		<edge from-layer="2245" from-port="1" to-layer="2246" to-port="0"/>
		<edge from-layer="2217" from-port="0" to-layer="2246" to-port="1"/>
		<edge from-layer="2218" from-port="0" to-layer="2246" to-port="2"/>
		<edge from-layer="2219" from-port="0" to-layer="2246" to-port="3"/>
		<edge from-layer="2220" from-port="0" to-layer="2246" to-port="4"/>
		<edge from-layer="2247" from-port="0" to-layer="2248" to-port="0"/>
		<edge from-layer="2248" from-port="1" to-layer="2250" to-port="0"/>
		<edge from-layer="2249" from-port="0" to-layer="2250" to-port="1"/>
		<edge from-layer="2250" from-port="2" to-layer="2252" to-port="0"/>
		<edge from-layer="2251" from-port="0" to-layer="2252" to-port="1"/>
		<edge from-layer="2246" from-port="5" to-layer="2253" to-port="0"/>
		<edge from-layer="2252" from-port="2" to-layer="2253" to-port="1"/>
		<edge from-layer="2253" from-port="2" to-layer="2255" to-port="0"/>
		<edge from-layer="2254" from-port="0" to-layer="2255" to-port="1"/>
		<edge from-layer="2255" from-port="2" to-layer="2256" to-port="0"/>
		<edge from-layer="2206" from-port="2" to-layer="2257" to-port="0"/>
		<edge from-layer="2216" from-port="1" to-layer="2257" to-port="1"/>
		<edge from-layer="2256" from-port="1" to-layer="2257" to-port="2"/>
		<edge from-layer="2257" from-port="3" to-layer="2259" to-port="0"/>
		<edge from-layer="2258" from-port="0" to-layer="2259" to-port="1"/>
		<edge from-layer="2316" from-port="0" to-layer="2317" to-port="0"/>
		<edge from-layer="2317" from-port="1" to-layer="2319" to-port="0"/>
		<edge from-layer="2318" from-port="0" to-layer="2319" to-port="1"/>
		<edge from-layer="2319" from-port="2" to-layer="2321" to-port="0"/>
		<edge from-layer="2320" from-port="0" to-layer="2321" to-port="1"/>
		<edge from-layer="2164" from-port="5" to-layer="2322" to-port="0"/>
		<edge from-layer="2321" from-port="2" to-layer="2322" to-port="1"/>
		<edge from-layer="2322" from-port="2" to-layer="2324" to-port="0"/>
		<edge from-layer="2323" from-port="0" to-layer="2324" to-port="1"/>
		<edge from-layer="2324" from-port="2" to-layer="2325" to-port="0"/>
		<edge from-layer="2325" from-port="1" to-layer="2326" to-port="0"/>
		<edge from-layer="2312" from-port="0" to-layer="2326" to-port="1"/>
		<edge from-layer="2313" from-port="0" to-layer="2326" to-port="2"/>
		<edge from-layer="2314" from-port="0" to-layer="2326" to-port="3"/>
		<edge from-layer="2315" from-port="0" to-layer="2326" to-port="4"/>
		<edge from-layer="2326" from-port="5" to-layer="2327" to-port="0"/>
		<edge from-layer="1582" from-port="5" to-layer="2327" to-port="1"/>
		<edge from-layer="2328" from-port="0" to-layer="2329" to-port="0"/>
		<edge from-layer="2329" from-port="1" to-layer="2331" to-port="0"/>
		<edge from-layer="2330" from-port="0" to-layer="2331" to-port="1"/>
		<edge from-layer="2331" from-port="2" to-layer="2333" to-port="0"/>
		<edge from-layer="2332" from-port="0" to-layer="2333" to-port="1"/>
		<edge from-layer="2327" from-port="2" to-layer="2334" to-port="0"/>
		<edge from-layer="2333" from-port="2" to-layer="2334" to-port="1"/>
		<edge from-layer="2334" from-port="2" to-layer="2336" to-port="0"/>
		<edge from-layer="2335" from-port="0" to-layer="2336" to-port="1"/>
		<edge from-layer="2336" from-port="2" to-layer="2337" to-port="0"/>
		<edge from-layer="2337" from-port="1" to-layer="2338" to-port="0"/>
		<edge from-layer="2308" from-port="0" to-layer="2338" to-port="1"/>
		<edge from-layer="2309" from-port="0" to-layer="2338" to-port="2"/>
		<edge from-layer="2310" from-port="0" to-layer="2338" to-port="3"/>
		<edge from-layer="2311" from-port="0" to-layer="2338" to-port="4"/>
		<edge from-layer="2339" from-port="0" to-layer="2340" to-port="0"/>
		<edge from-layer="2340" from-port="1" to-layer="2342" to-port="0"/>
		<edge from-layer="2341" from-port="0" to-layer="2342" to-port="1"/>
		<edge from-layer="2342" from-port="2" to-layer="2344" to-port="0"/>
		<edge from-layer="2343" from-port="0" to-layer="2344" to-port="1"/>
		<edge from-layer="2338" from-port="5" to-layer="2345" to-port="0"/>
		<edge from-layer="2344" from-port="2" to-layer="2345" to-port="1"/>
		<edge from-layer="2345" from-port="2" to-layer="2347" to-port="0"/>
		<edge from-layer="2346" from-port="0" to-layer="2347" to-port="1"/>
		<edge from-layer="2347" from-port="2" to-layer="2348" to-port="0"/>
		<edge from-layer="2348" from-port="1" to-layer="2349" to-port="0"/>
		<edge from-layer="2304" from-port="0" to-layer="2349" to-port="1"/>
		<edge from-layer="2305" from-port="0" to-layer="2349" to-port="2"/>
		<edge from-layer="2306" from-port="0" to-layer="2349" to-port="3"/>
		<edge from-layer="2307" from-port="0" to-layer="2349" to-port="4"/>
		<edge from-layer="2350" from-port="0" to-layer="2351" to-port="0"/>
		<edge from-layer="2351" from-port="1" to-layer="2353" to-port="0"/>
		<edge from-layer="2352" from-port="0" to-layer="2353" to-port="1"/>
		<edge from-layer="2353" from-port="2" to-layer="2355" to-port="0"/>
		<edge from-layer="2354" from-port="0" to-layer="2355" to-port="1"/>
		<edge from-layer="2349" from-port="5" to-layer="2356" to-port="0"/>
		<edge from-layer="2355" from-port="2" to-layer="2356" to-port="1"/>
		<edge from-layer="2356" from-port="2" to-layer="2358" to-port="0"/>
		<edge from-layer="2357" from-port="0" to-layer="2358" to-port="1"/>
		<edge from-layer="2358" from-port="2" to-layer="2359" to-port="0"/>
		<edge from-layer="2359" from-port="1" to-layer="2360" to-port="0"/>
		<edge from-layer="2300" from-port="0" to-layer="2360" to-port="1"/>
		<edge from-layer="2301" from-port="0" to-layer="2360" to-port="2"/>
		<edge from-layer="2302" from-port="0" to-layer="2360" to-port="3"/>
		<edge from-layer="2303" from-port="0" to-layer="2360" to-port="4"/>
		<edge from-layer="2361" from-port="0" to-layer="2362" to-port="0"/>
		<edge from-layer="2362" from-port="1" to-layer="2364" to-port="0"/>
		<edge from-layer="2363" from-port="0" to-layer="2364" to-port="1"/>
		<edge from-layer="2364" from-port="2" to-layer="2366" to-port="0"/>
		<edge from-layer="2365" from-port="0" to-layer="2366" to-port="1"/>
		<edge from-layer="2360" from-port="5" to-layer="2367" to-port="0"/>
		<edge from-layer="2366" from-port="2" to-layer="2367" to-port="1"/>
		<edge from-layer="2367" from-port="2" to-layer="2369" to-port="0"/>
		<edge from-layer="2368" from-port="0" to-layer="2369" to-port="1"/>
		<edge from-layer="2369" from-port="2" to-layer="2370" to-port="0"/>
		<edge from-layer="2370" from-port="1" to-layer="2371" to-port="0"/>
		<edge from-layer="2296" from-port="0" to-layer="2371" to-port="1"/>
		<edge from-layer="2297" from-port="0" to-layer="2371" to-port="2"/>
		<edge from-layer="2298" from-port="0" to-layer="2371" to-port="3"/>
		<edge from-layer="2299" from-port="0" to-layer="2371" to-port="4"/>
		<edge from-layer="2372" from-port="0" to-layer="2373" to-port="0"/>
		<edge from-layer="2373" from-port="1" to-layer="2375" to-port="0"/>
		<edge from-layer="2374" from-port="0" to-layer="2375" to-port="1"/>
		<edge from-layer="2375" from-port="2" to-layer="2377" to-port="0"/>
		<edge from-layer="2376" from-port="0" to-layer="2377" to-port="1"/>
		<edge from-layer="2371" from-port="5" to-layer="2378" to-port="0"/>
		<edge from-layer="2377" from-port="2" to-layer="2378" to-port="1"/>
		<edge from-layer="2378" from-port="2" to-layer="2380" to-port="0"/>
		<edge from-layer="2379" from-port="0" to-layer="2380" to-port="1"/>
		<edge from-layer="2380" from-port="2" to-layer="2381" to-port="0"/>
		<edge from-layer="2381" from-port="1" to-layer="2382" to-port="0"/>
		<edge from-layer="2292" from-port="0" to-layer="2382" to-port="1"/>
		<edge from-layer="2293" from-port="0" to-layer="2382" to-port="2"/>
		<edge from-layer="2294" from-port="0" to-layer="2382" to-port="3"/>
		<edge from-layer="2295" from-port="0" to-layer="2382" to-port="4"/>
		<edge from-layer="2383" from-port="0" to-layer="2384" to-port="0"/>
		<edge from-layer="2384" from-port="1" to-layer="2386" to-port="0"/>
		<edge from-layer="2385" from-port="0" to-layer="2386" to-port="1"/>
		<edge from-layer="2386" from-port="2" to-layer="2388" to-port="0"/>
		<edge from-layer="2387" from-port="0" to-layer="2388" to-port="1"/>
		<edge from-layer="2382" from-port="5" to-layer="2389" to-port="0"/>
		<edge from-layer="2388" from-port="2" to-layer="2389" to-port="1"/>
		<edge from-layer="2389" from-port="2" to-layer="2391" to-port="0"/>
		<edge from-layer="2390" from-port="0" to-layer="2391" to-port="1"/>
		<edge from-layer="2391" from-port="2" to-layer="2392" to-port="0"/>
		<edge from-layer="2392" from-port="1" to-layer="2393" to-port="0"/>
		<edge from-layer="2288" from-port="0" to-layer="2393" to-port="1"/>
		<edge from-layer="2289" from-port="0" to-layer="2393" to-port="2"/>
		<edge from-layer="2290" from-port="0" to-layer="2393" to-port="3"/>
		<edge from-layer="2291" from-port="0" to-layer="2393" to-port="4"/>
		<edge from-layer="2394" from-port="0" to-layer="2395" to-port="0"/>
		<edge from-layer="2395" from-port="1" to-layer="2397" to-port="0"/>
		<edge from-layer="2396" from-port="0" to-layer="2397" to-port="1"/>
		<edge from-layer="2397" from-port="2" to-layer="2399" to-port="0"/>
		<edge from-layer="2398" from-port="0" to-layer="2399" to-port="1"/>
		<edge from-layer="2393" from-port="5" to-layer="2400" to-port="0"/>
		<edge from-layer="2399" from-port="2" to-layer="2400" to-port="1"/>
		<edge from-layer="2400" from-port="2" to-layer="2402" to-port="0"/>
		<edge from-layer="2401" from-port="0" to-layer="2402" to-port="1"/>
		<edge from-layer="2402" from-port="2" to-layer="2403" to-port="0"/>
		<edge from-layer="2403" from-port="1" to-layer="2404" to-port="0"/>
		<edge from-layer="2284" from-port="0" to-layer="2404" to-port="1"/>
		<edge from-layer="2285" from-port="0" to-layer="2404" to-port="2"/>
		<edge from-layer="2286" from-port="0" to-layer="2404" to-port="3"/>
		<edge from-layer="2287" from-port="0" to-layer="2404" to-port="4"/>
		<edge from-layer="2405" from-port="0" to-layer="2406" to-port="0"/>
		<edge from-layer="2406" from-port="1" to-layer="2408" to-port="0"/>
		<edge from-layer="2407" from-port="0" to-layer="2408" to-port="1"/>
		<edge from-layer="2408" from-port="2" to-layer="2410" to-port="0"/>
		<edge from-layer="2409" from-port="0" to-layer="2410" to-port="1"/>
		<edge from-layer="2404" from-port="5" to-layer="2411" to-port="0"/>
		<edge from-layer="2410" from-port="2" to-layer="2411" to-port="1"/>
		<edge from-layer="2411" from-port="2" to-layer="2413" to-port="0"/>
		<edge from-layer="2412" from-port="0" to-layer="2413" to-port="1"/>
		<edge from-layer="2413" from-port="2" to-layer="2414" to-port="0"/>
		<edge from-layer="2414" from-port="1" to-layer="2415" to-port="0"/>
		<edge from-layer="2280" from-port="0" to-layer="2415" to-port="1"/>
		<edge from-layer="2281" from-port="0" to-layer="2415" to-port="2"/>
		<edge from-layer="2282" from-port="0" to-layer="2415" to-port="3"/>
		<edge from-layer="2283" from-port="0" to-layer="2415" to-port="4"/>
		<edge from-layer="2416" from-port="0" to-layer="2417" to-port="0"/>
		<edge from-layer="2417" from-port="1" to-layer="2419" to-port="0"/>
		<edge from-layer="2418" from-port="0" to-layer="2419" to-port="1"/>
		<edge from-layer="2419" from-port="2" to-layer="2421" to-port="0"/>
		<edge from-layer="2420" from-port="0" to-layer="2421" to-port="1"/>
		<edge from-layer="2415" from-port="5" to-layer="2422" to-port="0"/>
		<edge from-layer="2421" from-port="2" to-layer="2422" to-port="1"/>
		<edge from-layer="2422" from-port="2" to-layer="2424" to-port="0"/>
		<edge from-layer="2423" from-port="0" to-layer="2424" to-port="1"/>
		<edge from-layer="2424" from-port="2" to-layer="2425" to-port="0"/>
		<edge from-layer="2425" from-port="1" to-layer="2426" to-port="0"/>
		<edge from-layer="2276" from-port="0" to-layer="2426" to-port="1"/>
		<edge from-layer="2277" from-port="0" to-layer="2426" to-port="2"/>
		<edge from-layer="2278" from-port="0" to-layer="2426" to-port="3"/>
		<edge from-layer="2279" from-port="0" to-layer="2426" to-port="4"/>
		<edge from-layer="2431" from-port="0" to-layer="2432" to-port="0"/>
		<edge from-layer="2432" from-port="1" to-layer="2434" to-port="0"/>
		<edge from-layer="2433" from-port="0" to-layer="2434" to-port="1"/>
		<edge from-layer="2434" from-port="2" to-layer="2436" to-port="0"/>
		<edge from-layer="2435" from-port="0" to-layer="2436" to-port="1"/>
		<edge from-layer="2327" from-port="2" to-layer="2437" to-port="0"/>
		<edge from-layer="2436" from-port="2" to-layer="2437" to-port="1"/>
		<edge from-layer="2437" from-port="2" to-layer="2439" to-port="0"/>
		<edge from-layer="2438" from-port="0" to-layer="2439" to-port="1"/>
		<edge from-layer="2439" from-port="2" to-layer="2440" to-port="0"/>
		<edge from-layer="2440" from-port="1" to-layer="2441" to-port="0"/>
		<edge from-layer="2427" from-port="0" to-layer="2441" to-port="1"/>
		<edge from-layer="2428" from-port="0" to-layer="2441" to-port="2"/>
		<edge from-layer="2429" from-port="0" to-layer="2441" to-port="3"/>
		<edge from-layer="2430" from-port="0" to-layer="2441" to-port="4"/>
		<edge from-layer="2426" from-port="5" to-layer="2442" to-port="0"/>
		<edge from-layer="2441" from-port="5" to-layer="2442" to-port="1"/>
		<edge from-layer="2443" from-port="0" to-layer="2444" to-port="0"/>
		<edge from-layer="2444" from-port="1" to-layer="2446" to-port="0"/>
		<edge from-layer="2445" from-port="0" to-layer="2446" to-port="1"/>
		<edge from-layer="2446" from-port="2" to-layer="2448" to-port="0"/>
		<edge from-layer="2447" from-port="0" to-layer="2448" to-port="1"/>
		<edge from-layer="2442" from-port="2" to-layer="2449" to-port="0"/>
		<edge from-layer="2448" from-port="2" to-layer="2449" to-port="1"/>
		<edge from-layer="2449" from-port="2" to-layer="2451" to-port="0"/>
		<edge from-layer="2450" from-port="0" to-layer="2451" to-port="1"/>
		<edge from-layer="2451" from-port="2" to-layer="2452" to-port="0"/>
		<edge from-layer="2452" from-port="1" to-layer="2453" to-port="0"/>
		<edge from-layer="2272" from-port="0" to-layer="2453" to-port="1"/>
		<edge from-layer="2273" from-port="0" to-layer="2453" to-port="2"/>
		<edge from-layer="2274" from-port="0" to-layer="2453" to-port="3"/>
		<edge from-layer="2275" from-port="0" to-layer="2453" to-port="4"/>
		<edge from-layer="2454" from-port="0" to-layer="2455" to-port="0"/>
		<edge from-layer="2455" from-port="1" to-layer="2457" to-port="0"/>
		<edge from-layer="2456" from-port="0" to-layer="2457" to-port="1"/>
		<edge from-layer="2457" from-port="2" to-layer="2459" to-port="0"/>
		<edge from-layer="2458" from-port="0" to-layer="2459" to-port="1"/>
		<edge from-layer="2453" from-port="5" to-layer="2460" to-port="0"/>
		<edge from-layer="2459" from-port="2" to-layer="2460" to-port="1"/>
		<edge from-layer="2460" from-port="2" to-layer="2462" to-port="0"/>
		<edge from-layer="2461" from-port="0" to-layer="2462" to-port="1"/>
		<edge from-layer="2462" from-port="2" to-layer="2463" to-port="0"/>
		<edge from-layer="2463" from-port="1" to-layer="2464" to-port="0"/>
		<edge from-layer="2268" from-port="0" to-layer="2464" to-port="1"/>
		<edge from-layer="2269" from-port="0" to-layer="2464" to-port="2"/>
		<edge from-layer="2270" from-port="0" to-layer="2464" to-port="3"/>
		<edge from-layer="2271" from-port="0" to-layer="2464" to-port="4"/>
		<edge from-layer="2465" from-port="0" to-layer="2466" to-port="0"/>
		<edge from-layer="2466" from-port="1" to-layer="2468" to-port="0"/>
		<edge from-layer="2467" from-port="0" to-layer="2468" to-port="1"/>
		<edge from-layer="2468" from-port="2" to-layer="2470" to-port="0"/>
		<edge from-layer="2469" from-port="0" to-layer="2470" to-port="1"/>
		<edge from-layer="2464" from-port="5" to-layer="2471" to-port="0"/>
		<edge from-layer="2470" from-port="2" to-layer="2471" to-port="1"/>
		<edge from-layer="2471" from-port="2" to-layer="2473" to-port="0"/>
		<edge from-layer="2472" from-port="0" to-layer="2473" to-port="1"/>
		<edge from-layer="2473" from-port="2" to-layer="2474" to-port="0"/>
		<edge from-layer="2474" from-port="1" to-layer="2475" to-port="0"/>
		<edge from-layer="2264" from-port="0" to-layer="2475" to-port="1"/>
		<edge from-layer="2265" from-port="0" to-layer="2475" to-port="2"/>
		<edge from-layer="2266" from-port="0" to-layer="2475" to-port="3"/>
		<edge from-layer="2267" from-port="0" to-layer="2475" to-port="4"/>
		<edge from-layer="2476" from-port="0" to-layer="2477" to-port="0"/>
		<edge from-layer="2477" from-port="1" to-layer="2479" to-port="0"/>
		<edge from-layer="2478" from-port="0" to-layer="2479" to-port="1"/>
		<edge from-layer="2479" from-port="2" to-layer="2481" to-port="0"/>
		<edge from-layer="2480" from-port="0" to-layer="2481" to-port="1"/>
		<edge from-layer="2475" from-port="5" to-layer="2482" to-port="0"/>
		<edge from-layer="2481" from-port="2" to-layer="2482" to-port="1"/>
		<edge from-layer="2482" from-port="2" to-layer="2484" to-port="0"/>
		<edge from-layer="2483" from-port="0" to-layer="2484" to-port="1"/>
		<edge from-layer="2484" from-port="2" to-layer="2485" to-port="0"/>
		<edge from-layer="2485" from-port="1" to-layer="2486" to-port="0"/>
		<edge from-layer="2260" from-port="0" to-layer="2486" to-port="1"/>
		<edge from-layer="2261" from-port="0" to-layer="2486" to-port="2"/>
		<edge from-layer="2262" from-port="0" to-layer="2486" to-port="3"/>
		<edge from-layer="2263" from-port="0" to-layer="2486" to-port="4"/>
		<edge from-layer="2487" from-port="0" to-layer="2488" to-port="0"/>
		<edge from-layer="2488" from-port="1" to-layer="2490" to-port="0"/>
		<edge from-layer="2489" from-port="0" to-layer="2490" to-port="1"/>
		<edge from-layer="2490" from-port="2" to-layer="2492" to-port="0"/>
		<edge from-layer="2491" from-port="0" to-layer="2492" to-port="1"/>
		<edge from-layer="2486" from-port="5" to-layer="2493" to-port="0"/>
		<edge from-layer="2492" from-port="2" to-layer="2493" to-port="1"/>
		<edge from-layer="2493" from-port="2" to-layer="2495" to-port="0"/>
		<edge from-layer="2494" from-port="0" to-layer="2495" to-port="1"/>
		<edge from-layer="2496" from-port="0" to-layer="2497" to-port="0"/>
		<edge from-layer="2497" from-port="1" to-layer="2499" to-port="0"/>
		<edge from-layer="2498" from-port="0" to-layer="2499" to-port="1"/>
		<edge from-layer="2499" from-port="2" to-layer="2501" to-port="0"/>
		<edge from-layer="2500" from-port="0" to-layer="2501" to-port="1"/>
		<edge from-layer="2486" from-port="5" to-layer="2502" to-port="0"/>
		<edge from-layer="2501" from-port="2" to-layer="2502" to-port="1"/>
		<edge from-layer="2502" from-port="2" to-layer="2504" to-port="0"/>
		<edge from-layer="2503" from-port="0" to-layer="2504" to-port="1"/>
		<edge from-layer="2504" from-port="2" to-layer="2505" to-port="0"/>
		<edge from-layer="2514" from-port="0" to-layer="2515" to-port="0"/>
		<edge from-layer="2515" from-port="1" to-layer="2517" to-port="0"/>
		<edge from-layer="2516" from-port="0" to-layer="2517" to-port="1"/>
		<edge from-layer="2517" from-port="2" to-layer="2519" to-port="0"/>
		<edge from-layer="2518" from-port="0" to-layer="2519" to-port="1"/>
		<edge from-layer="2464" from-port="5" to-layer="2520" to-port="0"/>
		<edge from-layer="2519" from-port="2" to-layer="2520" to-port="1"/>
		<edge from-layer="2520" from-port="2" to-layer="2522" to-port="0"/>
		<edge from-layer="2521" from-port="0" to-layer="2522" to-port="1"/>
		<edge from-layer="2522" from-port="2" to-layer="2523" to-port="0"/>
		<edge from-layer="2523" from-port="1" to-layer="2524" to-port="0"/>
		<edge from-layer="2510" from-port="0" to-layer="2524" to-port="1"/>
		<edge from-layer="2511" from-port="0" to-layer="2524" to-port="2"/>
		<edge from-layer="2512" from-port="0" to-layer="2524" to-port="3"/>
		<edge from-layer="2513" from-port="0" to-layer="2524" to-port="4"/>
		<edge from-layer="2525" from-port="0" to-layer="2526" to-port="0"/>
		<edge from-layer="2526" from-port="1" to-layer="2528" to-port="0"/>
		<edge from-layer="2527" from-port="0" to-layer="2528" to-port="1"/>
		<edge from-layer="2528" from-port="2" to-layer="2530" to-port="0"/>
		<edge from-layer="2529" from-port="0" to-layer="2530" to-port="1"/>
		<edge from-layer="2524" from-port="5" to-layer="2531" to-port="0"/>
		<edge from-layer="2530" from-port="2" to-layer="2531" to-port="1"/>
		<edge from-layer="2531" from-port="2" to-layer="2533" to-port="0"/>
		<edge from-layer="2532" from-port="0" to-layer="2533" to-port="1"/>
		<edge from-layer="2533" from-port="2" to-layer="2534" to-port="0"/>
		<edge from-layer="2534" from-port="1" to-layer="2535" to-port="0"/>
		<edge from-layer="2506" from-port="0" to-layer="2535" to-port="1"/>
		<edge from-layer="2507" from-port="0" to-layer="2535" to-port="2"/>
		<edge from-layer="2508" from-port="0" to-layer="2535" to-port="3"/>
		<edge from-layer="2509" from-port="0" to-layer="2535" to-port="4"/>
		<edge from-layer="2536" from-port="0" to-layer="2537" to-port="0"/>
		<edge from-layer="2537" from-port="1" to-layer="2539" to-port="0"/>
		<edge from-layer="2538" from-port="0" to-layer="2539" to-port="1"/>
		<edge from-layer="2539" from-port="2" to-layer="2541" to-port="0"/>
		<edge from-layer="2540" from-port="0" to-layer="2541" to-port="1"/>
		<edge from-layer="2535" from-port="5" to-layer="2542" to-port="0"/>
		<edge from-layer="2541" from-port="2" to-layer="2542" to-port="1"/>
		<edge from-layer="2542" from-port="2" to-layer="2544" to-port="0"/>
		<edge from-layer="2543" from-port="0" to-layer="2544" to-port="1"/>
		<edge from-layer="2544" from-port="2" to-layer="2545" to-port="0"/>
		<edge from-layer="2495" from-port="2" to-layer="2546" to-port="0"/>
		<edge from-layer="2505" from-port="1" to-layer="2546" to-port="1"/>
		<edge from-layer="2545" from-port="1" to-layer="2546" to-port="2"/>
		<edge from-layer="2546" from-port="3" to-layer="2548" to-port="0"/>
		<edge from-layer="2547" from-port="0" to-layer="2548" to-port="1"/>
		<edge from-layer="1970" from-port="2" to-layer="2549" to-port="0"/>
		<edge from-layer="2259" from-port="2" to-layer="2549" to-port="1"/>
		<edge from-layer="2548" from-port="2" to-layer="2549" to-port="2"/>
		<edge from-layer="2549" from-port="3" to-layer="2551" to-port="0"/>
		<edge from-layer="2550" from-port="0" to-layer="2551" to-port="1"/>
		<edge from-layer="2551" from-port="2" to-layer="2552" to-port="0"/>
	</edges>
	<meta_data>
		<MO_version value="2021.4.2-3976-0943ed67223-refs/pull/539/head"/>
		<cli_parameters>
			<caffe_parser_path value="DIR"/>
			<data_type value="FP16"/>
			<disable_nhwc_to_nchw value="False"/>
			<disable_omitting_optional value="False"/>
			<disable_resnet_optimization value="False"/>
			<disable_weights_compression value="False"/>
			<enable_concat_optimization value="False"/>
			<enable_flattening_nested_params value="False"/>
			<enable_ssd_gluoncv value="False"/>
			<extensions value="DIR"/>
			<framework value="onnx"/>
			<freeze_placeholder_with_value value="{}"/>
			<generate_deprecated_IR_V7 value="False"/>
			<input_model value="DIR/yolox_x.onnx"/>
			<input_model_is_text value="False"/>
			<input_shape value="[1,3,640,640]"/>
			<k value="DIR/CustomLayersMapping.xml"/>
			<keep_shape_ops value="True"/>
			<legacy_ir_generation value="False"/>
			<legacy_mxnet_model value="False"/>
			<log_level value="ERROR"/>
			<mean_scale_values value="{}"/>
			<mean_values value="()"/>
			<model_name value="yolox_x"/>
			<output_dir value="DIR"/>
			<placeholder_data_types value="{}"/>
			<placeholder_shapes value="[  1   3 640 640]"/>
			<progress value="False"/>
			<remove_memory value="False"/>
			<remove_output_softmax value="False"/>
			<reverse_input_channels value="False"/>
			<save_params_from_nd value="False"/>
			<scale_values value="()"/>
			<silent value="False"/>
			<static_shape value="False"/>
			<stream_output value="False"/>
			<transform value=""/>
			<unset unset_cli_parameters="batch, counts, disable_fusing, disable_gfusing, finegrain_fusing, input, input_checkpoint, input_meta_graph, input_proto, input_symbol, mean_file, mean_file_offsets, move_to_preprocess, nd_prefix_name, output, pretrained_model_name, saved_model_dir, saved_model_tags, scale, tensorboard_logdir, tensorflow_custom_layer_libraries, tensorflow_custom_operations_config_update, tensorflow_object_detection_api_pipeline_config, tensorflow_use_custom_operations_config, transformations_config"/>
		</cli_parameters>
	</meta_data>
	<quantization_parameters>
		<config>{
		'compression': {
			'target_device': 'CPU',
			'algorithms': [
				{
					'name': 'DefaultQuantization',
					'params': {
						'preset': 'performance',
						'stat_subset_size': 300
					}
				}
			]
		},
		'engine': {
			'type': 'simplified',
			'data_source': 'PATH',
			'device': 'CPU'
		}
	}</config>
		<version value="1.0"/>
		<cli_params value="{'quantize': None, 'preset': None, 'model': None, 'weights': None, 'name': None, 'ac_config': None, 'max_drop': None, 'evaluate': False, 'output_dir': 'PATH', 'direct_dump': True, 'log_level': 'INFO', 'pbar': False, 'stream_output': False, 'keep_uncompressed_weights': False}"/>
	</quantization_parameters>
</net>
